models/decNet_0.py.pkl (torch_old, 900694 bytes, 25 tensors)

weight f4 [256, 1, 1, 1]
00000000: 1455 a13a b0cf 3d3f c36d 94be fd4f 24be
00000010: e112 74be 62c5 75b8 d7e7 4f3e a33f c33c
00000020: 4650 bdbe 6666 18bd 9ea3 67bf bf82 3ebf
00000030: 3608 2bbd 380c 90be 57f6 14bf b6f9 9bbd
00000040: 194e acbe 8b40 44bf 5500 52bf 7ac7 403f
00000050: eb67 32bf 9e25 25ba 1789 5bbf 628f 693e
00000060: 7a9c 06bd 782b 7fbe daf6 b83e 5e2a 093f
00000070: 2870 89be 6d62 c9be 2d0e 43bf a5f5 01b9
00000080: 753f b2be 7b9d 17bf 39d2 883e 2286 103f
00000090: b5f9 51bb 88ad f63e fb39 f03d 9ac8 cabc
000000a0: 1bfa 30be bf79 9cbe e576 07bd f91f 213b
000000b0: cefb 30b9 0276 82be 1ff7 233f 6c5d d93e
000000c0: 7fd7 c6bd 46eb 053f dde7 e3be f1f8 163f
000000d0: 93e3 3fbf d297 553e b567 8539 ec87 fbbc
000000e0: 19f4 7f3a 0f73 23be dc71 a63e e6e3 f53e
000000f0: 2c7a d43e 6f90 113f 4691 30bf b926 55be
00000100: 36c8 03bf d59a 43be e618 00bf b201 77be
00000110: 0260 75bd 93ad 21bf fbd5 3e3f 342a 90be
00000120: 02f3 d5be 98f5 9a3d 2270 c8bb 6bd1 8f3d
00000130: 48f9 febe 0119 623f 949b df3e 72e0 113d
00000140: e703 923b 8c73 053e b69d e63e bc90 d4bb
00000150: b361 823c 73e3 56bf 7aec 2c3f f005 363e
00000160: fc70 9bbe cef7 cabe a8f0 f0be 4117 36bf
00000170: 9763 b73e ea7d cabe 9b3b c4bd 2fe8 743c
00000180: 9e18 12bf 89c8 3dbf f3ea bd3d cd14 5dbe
00000190: b5dc 2fbf 3c60 51be 7f82 303f 0f4f 023f
000001a0: adee d1bc 5863 f2be ffe6 d9be c5e7 06bf
000001b0: 3ba3 eebe eb7b 32bf d98e 033f 40d6 a8be
000001c0: f5eb 46bf 7ac7 0fbf 9f12 3c3f c29d 953e
000001d0: 6b06 0abf 15b1 56be e785 4ebf f97a 7e3e
000001e0: 373c c4be 6205 39be 5c4f cd3e c54e 5bbc
000001f0: 74d6 32bd 8f5f 21bf c531 543a b395 c0be
00000200: 7f13 2bbe 75a9 533f 4ae8 0a3c 2e36 74be
00000210: 05a7 173d c2d9 12bf fca6 7fbb 4208 6fbe
00000220: 17fa 1a3f 9fc2 8bbe 5bd7 013d 31b9 513f
00000230: 58ea 883d 2340 e23c ceec 47bf 5350 a03c
00000240: d643 443e d6f9 f03e 5e5f cbbe bba4 dfbc
00000250: 4ad9 d53b faee 353f 2090 133f 68ac cbbd
00000260: 6f68 5bbf 2f82 95bd 123c 563e 72b3 0b3f
00000270: bf18 d23e bbf0 833e 8aee 353c 2bd5 ffbd
00000280: fe34 8abe 477f 3ebf 36b3 ddbe 87f7 10bf
00000290: 1c9b 50bc a5d2 043e 6b12 4ebe 0dab 5e3e
000002a0: bafe 44ba 3a3b 233b cc82 22bf d230 283f
000002b0: 51d5 cdbb 8b86 0cbc c212 513f 1113 1c3f
000002c0: 35b7 0cba e2fb ec3e 8243 c1be 8db7 d93e
000002d0: 6c92 c1be 8d2e d23e 0f2b 45bf 9469 91be
000002e0: edc2 dcbe b747 45bf 313d 413e 88c9 16be
000002f0: e6e6 193e b186 07bf 4ba1 3abf 2e3a 17be
00000300: 856b 263c c88c a3be bdbb 4f3f eed8 833e
00000310: f205 45bf 24cf eb3e a620 17bf cb74 673e
00000320: 7f3e 793e 1710 03bf abf7 98be f35d da3e
00000330: 7b84 c63e c047 e33e 676b b3bb eff9 c5be
00000340: 7d97 b3be a8c4 ab3d bc2a c5be a68c 223f
00000350: 7f95 b13e 2241 1e3f 117e 1cbf 4c61 903d
00000360: 170e 813e 864f 4e3e 92a3 913d b373 763e
00000370: 0f23 413a 2970 f6be d995 a5be 770a 3e3e
00000380: 0480 2abf 9de1 10bf 8b91 ca3e 3cfc 393f
00000390: d4b8 103f 129b 8d3e 37e4 5e3f bb59 e9be
000003a0: c706 69be 0137 373f f3c7 9cbe 1da5 ccbe
000003b0: e08e 4abf 2cb2 ff3e e035 c53a 1357 1c3f
000003c0: 46ff 7b3c 2aec b6be 5d3a 503f aa31 debe
000003d0: 4e52 b8be 80fb 3c3f 5d89 09bf a9f7 73be
000003e0: 238b 0dbf d08a 17bd 196f 503f 4c1c 81be
000003f0: cf9c 36bf 6db3 323d acde 4a3e f71d af3e
0.001230868 0.7414503 -0.28989992 -0.16046138 -0.23835327 -5.859638e-05 0.20303284 0.023834055
-0.36975306 -0.03720703 -0.90484035 -0.7441825 -0.041755877 -0.28134322 -0.58188385 -0.07615988
-0.33653334 -0.76660985 -0.82031757 0.7530438 -0.69689816 -0.0006299856 -0.8575606 0.22808602
-0.03286407 -0.24918926 0.36125833 0.5358027 -0.2684338 -0.39332905 -0.76193506 -0.00012393908
-0.3481404 -0.5922467 0.26722887 0.5645467 -0.0032039706 0.4817927 0.11729809 -0.024753857
-0.17282908 -0.30561635 -0.03307237 0.0024585708 -0.00016878473 -0.25480658 0.6404895 0.42454088
-0.09709071 0.52312124 -0.44512835 0.58973604 -0.74956626 0.20858696 0.00025445005 -0.030704461
0.00097638514 -0.1596186 0.32508743 0.48025435 0.4149946 0.56861013 -0.6897167 -0.20815553
-0.5147737 -0.19102032 -0.5003799 -0.2412174 -0.059906013 -0.6315548 0.7454526 -0.28157198
-0.41786963 0.075663745 -0.006116883 0.07022365 -0.49799562 0.883194 0.43673384 0.03561444
0.0044560316 0.13032359 0.450422 -0.0064869802 0.015915727 -0.8394081 0.67548335 0.17775702
-0.30359638 -0.39642185 -0.47058606 -0.7112923 0.3581817 -0.3954919 -0.09581681 0.014947935
-0.5706881 -0.7413412 0.09273329 -0.21589966 -0.6869615 -0.20446867 0.6894912 0.50901884
-0.025626505 -0.47341418 -0.4255905 -0.526974 -0.4660891 -0.69720334 0.51389843 -0.3297596
-0.7770379 -0.5616375 0.73465914 0.29221922 -0.53916043 -0.20965989 -0.8067307 0.24851598
-0.3832719 -0.1806846 0.4009961 -0.013385479 -0.04366155 -0.63036436 0.00080945744 -0.3761421
-0.16706656 0.82680446 0.008478234 -0.23848793 0.037024517 -0.5736352 -0.0039009443 -0.23342994
0.60537857 -0.27296922 0.03169952 0.81923205 0.066853225 0.027618473 -0.7809571 0.019569552
0.19166502 0.4706561 -0.39721197 -0.02730023 0.006526147 0.71067774 0.5764179 -0.09944993
-0.8570623 -0.07300221 0.20921353 0.54570687 0.41034505 0.257696 0.011104235 -0.124918304
-0.26993555 -0.7441296 -0.4330079 -0.56627697 -0.012732293 0.1297098 -0.20124213 0.21744938
-0.0007514764 0.0024907128 -0.6348083 0.65699494 -0.006281533 -0.008576999 0.8166925 0.60966593
-0.0005367876 0.4628592 -0.37746817 0.4252285 -0.37807024 0.4105114 -0.7701883 -0.28400862
-0.43117467 -0.77062553 0.18870999 -0.14725316 0.15029487 -0.529399 -0.72902364 -0.14768288
0.010157471 -0.31943345 0.8114584 0.25751442 -0.76962197 0.46056473 -0.5903419 0.22603147
0.24340247 -0.51196426 -0.29876456 0.42649803 0.3877295 0.44390678 -0.00547545 -0.38667247
-0.35076514 0.083871186 -0.38509166 0.6349586 0.3468437 0.61818135 -0.6112986 0.07049808
0.25206062 0.20147523 0.07111277 0.24067573 0.000736759 -0.48132446 -0.32340887 0.1855868
-0.66601586 -0.5659426 0.39564165 0.72650504 0.56532025 0.27657372 0.8706698 -0.4557627
-0.22756492 0.71568304 -0.306213 -0.3996972 -0.7912426 0.49940622 0.0015045963 0.61070365
0.015380686 -0.35727054 0.81339055 -0.43397266 -0.36000293 0.7382126 -0.53725225 -0.23824944
-0.5529043 -0.036997616 0.8141952 -0.252169 -0.7133302 0.043628145 0.19811505 0.3420255

beta f4 [16]
00000000: 68e9 ad3f 7189 ad3f d24a 963f 234e bf3f
00000010: e27a a93f e91b 853f 7190 b03f e862 9d3f
00000020: 7320 9e3f e65a 983f eec4 953f 4eca c03f
00000030: b0b4 b33f 4181 8d3f cfe8 a13f d829 5b3f
1.3586855 1.3557569 1.1741583 1.494572 1.3240626 1.0399143 1.379408 1.2295809
1.2353653 1.190274 1.1700723 1.5061738 1.4039516 1.105507 1.2649173 0.85610723

gamma f4 [16, 16]
00000000: 046e 873d 8b48 7f3d c8da ccbc d177 9abc
00000010: 0f7d 74ba c5a0 5fbc 39f3 4e3d dccb 3bbc
00000020: dc20 8abb 1b16 4836 0f72 0b3d b14a b236
00000030: 447f a236 126e e4bc 384e 05bc 46b4 1cbc
00000040: 85f8 59ba e9ac 6d3d e826 353d e1e3 6cbc
00000050: d13d a9bb 883a 76b9 4e87 57bc 030c b5b9
00000060: 725c 1fbc f4bb 633d 9c2e cbbb 5fbd 51bc
00000070: f122 49bb 0821 13bb a629 82bc efca 95bc
00000080: 790e 25bc 01cd 32bb 8b43 3d3d 1831 e6bc
00000090: 09fd 60b8 6ec5 36ba 44e5 f13c 9e7d e1ba
000000a0: 7f91 1d37 a1ea 68bb 84d1 fbba 2793 bbba
000000b0: a2a1 73ba 752c 283d 8d4d a2bc af93 72bb
000000c0: 11c8 cabb ec58 a5bc 076d a8bc 5c3d a73d
000000d0: b8e7 bfbc f5e5 2d3e ebec 07ba 4f2f babb
000000e0: b069 88bb 8014 a4bc 6137 9db8 978d cf3c
000000f0: 2cc8 39bc a161 aebc 5e10 f8bc 2ea9 15bc
00000100: ddf3 c43c 1d79 5fbc 33de 77bc 8583 00bd
00000110: 2151 6b3d 11aa d235 6c48 27bc c998 54bc
00000120: a27d a7bc d2d8 a53d 0ac4 feba 3a68 883d
00000130: e717 df3d daa4 efbb fdae 80ba e8c2 feba
00000140: af17 35bc b686 823d c12d be3d eeb5 3e3f
00000150: 5f89 69bc 1dc1 613c ba8e dfbb dfc5 b1bc
00000160: 74b5 82bb d864 5239 9994 733d 65ba 0ebc
00000170: 6477 16ba 1027 73b9 39ff 0abb f096 39bc
00000180: f34e 32bc 7778 d836 47a4 00bc 197c 5dbc
00000190: 52b4 5dbb d5fe 88bb d9ea 953d 2421 81bc
000001a0: e76d 91bc 7dff 27bc 41bc f2bb c311 1538
000001b0: 7fe7 c2bc 0a29 923d e409 0dba d0ea a2bc
000001c0: 9f12 d036 deae c03c cf00 3bbc 478b 1bb9
000001d0: 82bf babc 69e5 2a3c 5295 a4bb a067 833d
000001e0: f98e d2ba ee6f 9abb 1c08 83ba 1ba4 21ba
000001f0: 9b51 af3d 9a85 93bb 9860 0937 52b6 e6bb
00000200: 1c76 223d 4a4b 9bbb 4415 28bc 512b c6bc
00000210: ba73 54bb e829 67bb f4f9 a0bc eb1b 173c
00000220: 3f33 593d 62ee d5bc f2c6 ffb6 48e8 cbbb
00000230: 8ad1 1436 aaa5 32bc f22f 2aba 20fc 12bc
00000240: 4792 1cba a2a4 9f36 8326 c7bc 6b05 a8bb
00000250: 9afe 043c 73a9 e3b9 0ec3 9f3c 9e94 5037
00000260: 151f d8bc 3d56 5c3d 61ae 8738 c01e 5dba
00000270: 1330 133c 05df 09bc 34e4 56b8 e2c7 09b9
00000280: deff 2e38 9373 9538 6ad3 23bb f075 6dbc
00000290: 9f5b 93bb c6c1 d5bc 6543 89ba 6eb3 d5bc
000002a0: 99c1 533d c8d3 b4bc d964 7e3d d899 e83c
000002b0: 6fe2 fab8 e41d 433d 6961 46b9 65e6 86bb
000002c0: d163 95ba 01ce 253d 26a7 23b9 ea78 deb8
000002d0: b408 d5bb eff5 39bb 154c b6ba 940f 0abc
000002e0: 55df 03bb fe9f b23c 1d0c d636 4d72 813d
000002f0: 81b2 dd3a 0e25 9dbc 2ede f0b8 6112 c4bc
00000300: 77dd dfbc 2f8d 1aba 7a89 69bc 0f21 5d36
00000310: 973f c2bc 6a83 03b7 3682 1cbc c765 063c
00000320: 3a01 b735 214e 1037 31a5 a2bc 891f ccbc
00000330: 01b7 753d 6e8f f7ba 1260 1dbc e58f 18bc
00000340: 3b34 a2bc 7839 c53c 5853 c6bb 27dc 18bb
00000350: ed45 aa3c 7853 36b9 0b73 1b3d bb00 69bb
00000360: 6f7c afb9 c863 413c 73f5 e0ba 4695 43b9
00000370: fd17 3ab9 7b73 843d d49a dfba cf17 8a3c
00000380: 5475 acb9 e656 7bbc 54a9 89ba fd1e 1d39
00000390: be9a 8437 0280 95bb aeb3 12bc 6260 2eba
000003a0: 1521 12b9 d7c8 6b3d cabb 03bc 64cc 263c
000003b0: 44ba bb3a bfd9 adbc 6125 533d 1449 04bc
000003c0: 7841 f9bc 59be b8bc 6312 89bc 1c22 63bc
000003d0: 5a2a 15bc 1390 22bc dba5 fb3c 4c94 19bc
000003e0: a41c ac3d 1187 9cbc 311d f3bc 7894 fcbc
000003f0: 1b3c 09bd c9a9 52bc 49d2 37bb f1ec ef3d
0.06612781 0.06232504 -0.025006667 -0.018855961 -0.00093264965 -0.01364917 0.050524924 -0.011462178
-0.004215343 2.981519e-06 0.03404432 5.3135086e-06 4.842792e-06 -0.027884517 -0.008136325 -0.009564465
-0.00083149254 0.058026228 0.044226557 -0.014458627 -0.00516484 -0.00023482193 -0.013154818 -0.0003453196
-0.0097266305 0.055599168 -0.0062006246 -0.012801497 -0.0030690993 -0.0022450108 -0.015889 -0.018285243
-0.010074251 -0.0027282836 0.046206992 -0.028099582 -5.364142e-05 -0.00069721683 0.029528268 -0.0017203575
9.391805e-06 -0.003554024 -0.0019212221 -0.0014310823 -0.00092937995 0.041058023 -0.01981237 -0.0037014296
-0.0061884006 -0.020184003 -0.0205598 0.08166 -0.023425922 0.16982253 -0.0005185145 -0.005681909
-0.0041629896 -0.020029306 -7.4966585e-05 0.02533607 -0.011339229 -0.021286787 -0.030281242 -0.009134574
0.024042064 -0.0136397155 -0.01512866 -0.031375427 0.057450417 1.5695715e-06 -0.010210138 -0.01297588
-0.020445649 0.08097996 -0.0019437086 0.06660505 0.10893231 -0.007313353 -0.0009817776 -0.0019436749
-0.01105301 0.0637335 0.092860706 0.7449635 -0.014253943 0.013778952 -0.0068224343 -0.021700798
-0.003988916 0.00020064728 0.059467886 -0.008711432 -0.00057398365 -0.00023188838 -0.0021209253 -0.01132749
-0.010883081 6.4513256e-06 -0.007851667 -0.013518357 -0.0033829403 -0.004180769 0.07320184 -0.015762873
-0.0177526 -0.010253784 -0.0074076955 3.554091e-05 -0.023792027 0.07136734 -0.0005380197 -0.019887358
6.201051e-06 0.023520883 -0.011413767 -0.00014833837 -0.022796396 0.010430672 -0.005022683 0.06416249
-0.0016064338 -0.00471305 -0.0009996924 -0.0006166116 0.08560487 -0.0045020105 8.188326e-06 -0.0070407772
0.03966342 -0.0047391998 -0.010258976 -0.024190577 -0.0032417611 -0.003527278 -0.019650437 0.009222965
0.053027388 -0.026114646 -7.6227525e-06 -0.0062227584 2.2175686e-06 -0.010903755 -0.000649213 -0.008971244
-0.0005972725 4.757735e-06 -0.024310356 -0.005127599 0.008117342 -0.00043423063 0.019502189 1.2432369e-05
-0.026382009 0.05379318 6.469782e-05 -0.0008435063 0.00898363 -0.008414988 -5.1234107e-05 -0.000131398
4.1723128e-05 7.126401e-05 -0.0024997839 -0.0144934505 -0.004497006 -0.026093375 -0.0010472356 -0.026086535
0.0516983 -0.022073641 0.062107895 0.02839367 -0.000119631055 0.047635928 -0.0001891904 -0.0041168206
-0.0011397545 0.040479664 -0.00015607159 -0.00010608307 -0.0065012816 -0.0028375348 -0.0013908172 -0.008426566
-0.002012213 0.021804806 6.379107e-06 0.06320629 0.001691416 -0.019182708 -0.00011485476 -0.023934545
-0.027327282 -0.0005895672 -0.014253968 3.295081e-06 -0.023711963 -7.838806e-06 -0.009552529 0.008202977
1.363492e-06 8.60126e-06 -0.01985416 -0.02491738 0.05998898 -0.001888735 -0.0096054245 -0.009311651
-0.019800296 0.024075255 -0.006052416 -0.002332458 0.020785296 -0.00017387967 0.03795151 -0.0035553414
-0.0003347131 0.011803575 -0.0017162993 -0.00018652258 -0.00017747279 0.06467339 -0.0017059692 0.016857056
-0.00032893813 -0.015340542 -0.0010502734 0.00014984231 1.5807684e-05 -0.004562379 -0.008953972 -0.00066519354
-0.00013935969 0.057564583 -0.008040378 0.010180566 0.0014322479 -0.021221993 0.05154932 -0.008074064
-0.030426726 -0.022551702 -0.0167324 -0.013863113 -0.009104336 -0.009922045 0.030718734 -0.009373736
0.084039 -0.019107373 -0.029677005 -0.030832514 -0.033504587 -0.012857863 -0.0028048924 0.11715115

weight f4 [16, 24, 1, 2]
00000000: 5735 aebd 4bb9 1bbd dd9a c13d 7a3e 66be
00000010: 300a a0bc 97a9 e63d 4323 f63d 78be 81bd
00000020: f90f dabd ef28 1abd a81d 893c 9f5c e33d
00000030: cbd6 043e 2313 d63d 0878 c53d aa0d e3bc
00000040: 3937 b9bd 0b74 86bd c302 263e bd24 743d
00000050: 62ef 183e b780 723d e865 8fbc 835c 72be
00000060: e802 f83d 9038 10bd 75b5 f9bd 49da ddbd
00000070: 68ae 8d3c 2d9f 7c3d d344 febd 0ea0 d83c
00000080: b060 053e 5b4c 62bd 6a65 58be 221d f43d
00000090: 07f2 273e b498 8a3d b512 33bd 5d7c d63c
000000a0: 7183 13be 0b3c d7bd 3c28 b0bd 20ba b63d
000000b0: b0ee e13c d6c1 2237 a8c1 813d 9dd9 32be
000000c0: 8056 fabe 0aa4 6ebb 3570 5b3d 13d2 7cbc
000000d0: aedf 153c b388 88bc 37f1 89bb b554 883d
000000e0: c05d bf3c d233 a2bd fab0 993d 47a3 833d
000000f0: d3d7 0e3e 9769 793d cdff 8e3d d65d 2e3e
00000100: 18f1 b83c cd2b aebe 9e6c c3bd bed8 aa3e
00000110: 249e b2bd bd54 bdbd b784 fbba e596 8cbe
00000120: d67b 133d 9a4c 7e3a 8a80 03be ee88 54bd
00000130: 7992 5d3c 23f8 8cb8 1c7b eebd 9168 1dbe
00000140: 477f 00be ed2a ff3d f52b a43d 9332 2e3d
00000150: 0170 be3d 1194 1abd 8a00 f43d a588 683d
00000160: 6847 133e eb94 9e3b 9971 1d3d 2dcd 453d
00000170: 0901 12bd d0e5 783d 0d1c 2a3d 3b0e 50bd
00000180: a98e 0d3c 6d40 753d 1b48 2dbd bb79 e93b
00000190: 63f7 b6bc a1e9 293d bfa2 ce3d be04 13bb
000001a0: 56da f0bb bfd5 da3d 1370 1ebd 1b21 97bd
000001b0: 0bd9 a63e 63dd 0bbe 01fd 8d3d c3b0 013d
000001c0: a83e a33d 9af2 bcbd b77a 2cbe 2bce 833c
000001d0: fbfc 443e 17e0 ab3d fbc2 3b3c 00cc c2bd
000001e0: 68b7 273d 0a25 0e3e 4ea6 9bbe 5526 183e
000001f0: c800 5b3d 882a 493b 48c7 363e 765f 363b
00000200: 0f7b 293e 7691 c93d cff3 89bb 1a87 1ebe
00000210: 5cc0 df3d 44a0 eabc 5385 32bc 71f8 f2bc
00000220: 0612 3bbe a04a e4bc 3b25 03be 0b9c 08bd
00000230: 1223 3d3e 35f1 253b 56f7 ddbc a5ce 693e
00000240: cf83 83bd 0266 e9bc 69b5 edbd b03e d93d
00000250: e137 4fbe e098 74bd 97b6 77bd 16d2 7e3d
00000260: e7d3 913a 7730 7abd 31b9 133e b4a2 35bc
00000270: 6b5b a13d 0adc b13d e9f2 1f3e 6d02 db3d
00000280: 81de 3fbd 9802 10be 4837 aa3b 4f1a 3fbd
00000290: 8b07 a9bc 0eb3 1fbd c38e d1bd e714 9abe
000002a0: 03f6 fdbd 1316 ecbd 100f e7bd b78b d5bd
000002b0: 9480 01bd 123d dcbb 8e53 64bb d905 d7b8
000002c0: 2e8f 093e d8ac 903d 776f 863d 4c7c 843d
000002d0: 9942 85bc 61b4 cabd 1cbc c5bd 0d19 c2bc
000002e0: d694 14be c086 ac3d 7fd8 a4bd f2b3 b4bd
000002f0: 180a 97bd 275b 6abd 5b67 9abd cfd7 b1bd
00000300: 5ec7 5bbe 4164 2a3d 3501 763d a283 7ebe
00000310: bc23 03bc d196 bdbc e24c 1fbd a830 be3d
00000320: aa88 c4bc 2c2d d7bc 5866 d63c 8965 b33d
00000330: 033a dcbc d217 f63d 0bce 6e3d ad26 d03a
00000340: de5f d4bc 811d e0bd 3962 f63c c20c 1ebd
00000350: 17d3 353e 9bd1 003e 143c 90bc 98fc 02be
00000360: 3046 da3c 14b9 f8bd e7fc d03c 2105 05be
00000370: 4c30 7dbc e313 b03b a980 6f3d c5f5 09bc
00000380: 3b7a ddbd 2be7 3f3e 106c a03d e45b 0fbe
00000390: ff2b b8bd 02bb 6b3d 2b6e ca3c b9cd 7cbd
000003a0: 0335 ed3d be33 9fbe be4b acbd 2a95 a93d
000003b0: 92f9 273c de4a f63d b7e2 a93c 9498 553e
000003c0: 11d9 5bbe 11d5 45bc bdd4 d73d 5e08 2bbd
000003d0: 4351 1e3d 896e 983d e326 c6bc d39f 50bd
000003e0: 869f b73a 95e2 c53c 11cd d3bd 5382 2cbc
000003f0: dad0 ddbd 9a25 8fbd b4dd 71be a042 3cbe
-0.085062675 -0.038018506 0.09453366 -0.2248477 -0.019536108 0.112628154 0.120184444 -0.06335157
-0.10647578 -0.037636694 0.016737774 0.111016504 0.12972562 0.10452869 0.09642035 -0.027716476
-0.09043736 -0.06565102 0.16211991 0.05960535 0.14935067 0.059204783 -0.017504647 -0.23668103
0.12109929 -0.035210192 -0.12192813 -0.1083265 0.017295077 0.06167524 -0.12415471 0.026443508
0.13025165 -0.0552486 -0.21132436 0.11919619 0.1640092 0.06767407 -0.043719012 0.026182348
-0.1440561 -0.10509499 -0.08601424 0.08922219 0.027579635 9.701083e-06 0.06335765 -0.17465825
-0.4889412 -0.0036413693 0.053573806 -0.015430945 0.009147568 -0.016666746 -0.0042096633 0.066567816
0.023360133 -0.0792004 0.07504459 0.06427627 0.13949518 0.060891714 0.06982384 0.17027983
0.0225759 -0.34017792 -0.095422015 0.33368486 -0.08721569 -0.09244678 -0.0019189332 -0.27458873
0.03600677 0.00097007456 -0.12842003 -0.0518884 0.013523691 -6.721939e-05 -0.11644575 -0.1537192
-0.12548552 0.12459359 0.08016197 0.0425287 0.09298707 -0.037738863 0.11914165 0.05677094
0.14382708 0.0048395297 0.038438413 0.048291374 -0.03564552 0.06076604 0.041530658 -0.05079482
0.00863997 0.059875894 -0.042305093 0.007125107 -0.02233476 0.04148257 0.10089635 -0.0022433246
-0.0073502464 0.106853 -0.0386811 -0.07379361 0.32587466 -0.13658671 0.06933022 0.031662714
0.07970935 -0.0922596 -0.16843687 0.01608952 0.1923713 0.08392351 0.011460061 -0.09511566
0.040946394 0.13881317 -0.30400318 0.14858373 0.053467542 0.0030695517 0.17849457 0.0027827895
0.1655085 0.098421976 -0.0042099725 -0.15481225 0.109253615 -0.028640874 -0.010896045 -0.029659482
-0.18268594 -0.027867615 -0.12807171 -0.03335194 0.1847041 0.0025320773 -0.027095478 0.22832735
-0.06421625 -0.028491024 -0.11606867 0.1060766 -0.2023616 -0.059716105 -0.060476866 0.062212072
0.0011125774 -0.061081376 0.14426114 -0.011086155 0.07878765 0.08684547 0.15620007 0.10693822
-0.046843056 -0.1406349 0.0051945783 -0.04665595 -0.02063348 -0.03898912 -0.10232308 -0.30094072
-0.12400439 -0.11527648 -0.1128217 -0.10427039 -0.031616762 -0.0067211473 -0.0034839842 -0.00010253088
0.13433525 0.07064217 0.06564229 0.0646902 -0.016267108 -0.09897686 -0.0965502 -0.023693586
-0.14509901 0.08424139 -0.08049106 -0.08823384 -0.07374972 -0.057215836 -0.07539245 -0.0868374
-0.21462771 0.041599516 0.060059745 -0.24854901 -0.008004125 -0.023143204 -0.03889168 0.09286624
-0.023990948 -0.026266657 0.026171848 0.08759601 -0.02688313 0.12016262 0.058301967 0.0015880667
-0.02592462 -0.109431274 0.030076133 -0.038586386 0.17756306 0.12579958 -0.017606772 -0.1279167
0.026644796 -0.12144676 0.025511218 -0.12990238 -0.015453409 0.0053734644 0.05847231 -0.008420412
-0.10814329 0.18740527 0.07833111 -0.13999897 -0.089927666 0.05755139 0.024710735 -0.06171963
0.11582377 -0.31094164 -0.08412884 0.08280404 0.010252373 0.120259985 0.020737989 0.20858985
-0.21469523 -0.012074725 0.105386235 -0.041756026 0.038651716 0.07442958 -0.024188465 -0.05093367
0.0014009334 0.024155894 -0.10341848 -0.010529119 -0.10830851 -0.06989594 -0.2361973 -0.1838479

bias f4 [24]
00000000: ab0b 333e 2650 bbbe 64d8 28be e326 46be
00000010: 966b 63be fba5 1c3f 0056 9a3e e6b8 ad3e
00000020: df87 a6be 49d4 c13d 0c16 8e3d e47a dd3d
00000030: 6c43 dcbd 1f87 a2be e64a 9dbe 41f9 bfbd
00000040: a761 f93d 53c9 963d 26a6 85bd 008d 88be
00000050: bbf0 49bd ca5a fdbd 588d b4be e1ce 08be
0.1748492 -0.36584586 -0.16488796 -0.19350772 -0.2220901 0.61190766 0.30143738 0.3393013
-0.32525536 0.09464318 0.06937799 0.10814455 -0.10755047 -0.31743714 -0.30721205 -0.09373713
0.12176829 0.07362618 -0.06525831 -0.26670074 -0.049301844 -0.12370832 -0.35264087 -0.13360168

weight f4 [24, 32, 2, 1]
00000000: 63f0 cebd 8abd 80ba 6d8a 08be 0431 87be
00000010: 19be 4ebc 8ba0 65bd 48c5 3fbe 337c 773e
00000020: 910b a83d 3e95 0abd 97fb 4b3d 3dde 0bbd
00000030: 4ebf 0fbe c417 8abd 8478 213e ed82 873c
00000040: b0b4 223e 6a26 553c 25b3 753d 2163 37bd
00000050: 4811 9a3d 18c0 b13d 799c ff3d 5de0 bcbd
00000060: 20c6 bdbd f0b0 563c 653e 8abd 0f20 d4bc
00000070: 2d1c 7d3c 9d85 823e 9a73 0fbe 9e7a 713e
00000080: 9045 a6bd 14c7 6c3e cf13 a93d 9ae6 003d
00000090: 6d2d 81bd 823d 753e e62c 95bd 514b 123e
000000a0: a2c5 2d3e 380e 193e ce77 d3bb 1eef d33d
000000b0: c639 f33d b7c9 87bd 83dd fdbd 55be a6bd
000000c0: 1f69 0a3e f1fb 563e 25cc ae3d a013 e83c
000000d0: b1d4 0e3c a866 b2bd 53af 60be 115c 363e
000000e0: 31f4 82bb 9b5e f13d f96d 0e3e a677 203d
000000f0: 6701 98bd 9255 903d e9fa 713e c01b 0d3d
00000100: 6c31 c23b 03da 7ebd 3d1a ae3c c98b 2a3e
00000110: e190 22be 4a93 d9bc b31d 9b3d d3c7 debc
00000120: 6968 27be 19d6 e0b9 98ee cc3d b123 043d
00000130: 35bb eb3d ce84 bf3d 569e 123e 39f9 9fbc
00000140: 68e8 67bc 92ef a33d 5a8d 99bd 6136 7fbd
00000150: 8060 273d 06e2 36be 1942 553c 8900 073e
00000160: a290 9ebe 0830 9f3d fe07 69ba 2d13 4fbe
00000170: a465 993d c1ed 053e e3af 50bd 8005 d4bc
00000180: e1f7 8a3d 6595 f33d 3523 403e c636 773d
00000190: 0cf8 0bbe 5953 0cbe 4319 003c a61e 8f3c
000001a0: 7d10 993d 03e3 fa3c be82 8fbe ad8c 65bd
000001b0: cbcd 67bc 857b 393e 6ced 203d 2c0f 44bc
000001c0: 7f3d c1be bc35 fd3d 7acf f5bb 47c0 2a3e
000001d0: 5bee d03c 548a a2b8 ec01 5bbe a96c 333c
000001e0: 00b0 88bb c919 053d 7b49 493e 0374 043e
000001f0: 85c2 953c 4815 373d 63f4 d2bc b418 94bd
00000200: b6ff 67bd f57b 16be a934 0cbe 6377 07bd
00000210: e898 a0bc b36f 873d 5f79 923d ce25 aa3d
00000220: a7be 7a3d 842c a63d 952d 2a3d d473 4f3e
00000230: 8304 a0bc 62d1 df3c 1ae1 04be fcee 1bbd
00000240: f354 5a3e d56c 46bc 6235 17be 60bb 9bbd
00000250: 03f9 d73c 22ac 3cbe 5a13 2fbc f62d c13c
00000260: 9d55 adbd 263f efbd f530 16be cd4c 86bc
00000270: c7a4 4b3e 6815 7f3d e5e5 b0bd 6931 09bd
00000280: 39d1 bc3d 321b dbbd 284a b73c 345e 87bc
00000290: ec7d e3bd c725 823d 7ea9 713d d93f be3d
000002a0: 65af ce3b 7ef7 263c 3757 4fbc 0c1b f5bd
000002b0: 8df1 d43d 31da 193e e012 0b3d 9132 bb3d
000002c0: a136 8b3b e251 c1bd f881 8ebc 4641 a23d
000002d0: 6805 54bc 594e 47bd 08cd 9ebe 1ed1 f1bc
000002e0: d7ff c13d ba00 58bb 130b 1c3c 9af9 d23c
000002f0: efb4 38be d973 373e e3cb aabd 8c8c c3bc
00000300: 4642 bb3c 7cb7 0cbd f699 7e3d cf73 bd3d
00000310: b21f be3a 8acf 9bbc 2520 24bd 5cb8 8a3d
00000320: a5cb 84bd b00e d139 b73e 293b 93db 833d
00000330: 2d05 4bbd 14a9 92bd 242c 9b3c 3c4b db3c
00000340: 9cdf 4d3b 4bcc acba 2053 19bd 5004 3dbc
00000350: ecc2 7b3b 3504 423d ef99 613d 0472 413e
00000360: 166d fa3c 8306 e0bc 09fb 463d d1b4 e0bd
00000370: 6456 b33d 199b 333b fa4c d63d 6a8c a73e
00000380: 8b17 083d 01cb f3be 4058 5e3c 27a3 2fbc
00000390: a813 a7bb fde5 1a3d efa8 193d f885 a2bc
000003a0: 99f0 15bd d067 6dbe 59f3 00bd 60b8 7a3d
000003b0: 7550 46ba 3e8c 98bd da98 28be 2835 e1bd
000003c0: ddd5 103e 6a87 6b3d db59 613d f2d0 3abb
000003d0: 0fc0 173e c8ca 42bd ddf2 83bd 153f bd3d
000003e0: 8932 c7be fb86 8f3d b7ea 1f3d 70d1 673c
000003f0: 7d7d dd3d 3a40 a43c b17a 8d3c ad62 f23b
-0.10104444 -0.0009822112 -0.13334055 -0.26404583 -0.012618565 -0.05606131 -0.187276 0.24168472
0.08205331 -0.033833735 0.04980048 -0.03414749 -0.1403782 -0.06742814 0.1576863 0.016541922
0.1588924 0.013009647 0.0599853 -0.04477227 0.075228274 0.08679217 0.12481017 -0.092224814
-0.09266305 0.013103709 -0.06750182 -0.025894193 0.015448612 0.25492564 -0.14008942 0.23581931
-0.08118737 0.23122817 0.08255731 0.03146992 -0.063074924 0.23949245 -0.07283954 0.14286543
0.16969922 0.1494683 -0.006453491 0.10348342 0.11876254 -0.06630271 -0.12395766 -0.08141772
0.13516663 0.20994546 0.08535031 0.02832967 0.008717702 -0.087109864 -0.21941881 0.17808558
-0.003996395 0.11785623 0.13909139 0.039176606 -0.074221425 0.07047571 0.23630871 0.034450293
0.0059263017 -0.06221963 0.021252746 0.16654886 -0.1587558 -0.02655949 0.07574024 -0.027194893
-0.16348423 -0.00042884125 0.10006446 0.0322606 0.11510316 0.09351502 0.14318213 -0.019528018
-0.014154531 0.08004679 -0.07497664 -0.06230772 0.040863514 -0.17859659 0.013016247 0.13183798
-0.3096972 0.07772833 -0.00088894356 -0.20222159 0.074900895 0.13078977 -0.05094899 -0.025881529
0.067855604 0.11893729 0.1876343 0.06035497 -0.13668841 -0.1370367 0.007818523 0.017470669
0.07473848 0.030625826 -0.28029436 -0.056042362 -0.014148186 0.18113525 0.039288923 -0.011966508
-0.3774223 0.12363765 -0.00750154 0.1667491 0.025504282 -7.7505276e-05 -0.21387452 0.0109512
-0.0041713715 0.032495294 0.19656937 0.1293488 0.01828123 0.04469803 -0.025751298 -0.07231274
-0.05664035 -0.14695723 -0.13691963 -0.03307284 -0.019604161 0.06613102 0.07152056 0.08307992
0.061216976 0.081139594 0.041547377 0.20259029 -0.019533401 0.027321521 -0.12976494 -0.03806971
0.21321468 -0.0121109085 -0.14766458 -0.07604098 0.026363855 -0.18425038 -0.010685766 0.023581486
-0.08463595 -0.116819665 -0.14667113 -0.016394043 0.19887076 0.062276274 -0.08637599 -0.033494387
0.092195936 -0.106985465 0.022374228 -0.016524412 -0.11108002 0.06354862 0.05899953 0.09289522
0.0063075298 0.010190843 -0.012655071 -0.119680494 0.10397635 0.1502464 0.033953547 0.09140504
0.0042484556 -0.09439446 -0.017395958 0.07922606 -0.012940742 -0.048658703 -0.310158 -0.02951866
0.09472626 -0.0032959417 0.009524125 0.025753785 -0.1803777 0.17915286 -0.083396696 -0.023870729
0.02285875 -0.03435467 0.062158547 0.09250604 0.0014505296 -0.01901986 -0.040069718 0.06773445
-0.064841546 0.0003987453 0.0025824734 0.06438365 -0.049565483 -0.07161155 0.018941946 0.026769273
0.00314138 -0.0013183443 -0.03743279 -0.011536673 0.0038415743 0.047367293 0.055078443 0.1889115
0.030569594 -0.027346855 0.04857925 -0.10971988 0.08756712 0.0027405678 0.10463901 0.32724315
0.033225577 -0.47615817 0.013570845 -0.010720051 -0.0050987788 0.03781699 0.037514623 -0.019839272
-0.036606405 -0.23184133 -0.031482074 0.06121099 -0.00075650896 -0.07448624 -0.16464558 -0.10996467
0.14144082 0.057502188 0.055017333 -0.0028505889 0.14819358 -0.04755667 -0.06442807 0.092405476
-0.38905743 0.07008167 0.0390422 0.014149055 0.108149506 0.020050157 0.017270418 0.007397017

bias f4 [32]
00000000: 6e63 223d 628f 483e 0a3c d03c 3f78 913d
00000010: 368a b5bd 9046 35be f5d3 c3bc 1315 8fbd
00000020: a52c e8bd db90 7d3e 2b8d cc3c 6fdf 61be
00000030: 516e eb3d 5714 bebc 0470 44be bf4f f0be
00000040: ac98 9cba af00 083d e193 923e cf99 cdbd
00000050: 4b3b d9bc 6139 68be e075 65bd 9990 39bd
00000060: 7b5f 30be acd3 54be 12a5 fe3d 03dd dd3d
00000070: 1630 433d 482f 8ebe f3bb 3ebe 068a 003e
0.039645605 0.19585946 0.025419254 0.07103013 -0.08864252 -0.17702699 -0.02390478 -0.069864415
-0.1133664 0.24762289 0.024969658 -0.2205789 0.114956506 -0.023203058 -0.19183356 -0.4693584
-0.0011947355 0.033203777 0.28628448 -0.10039102 -0.02651753 -0.22678138 -0.056020617 -0.045303915
-0.17223923 -0.20783871 0.124338284 0.1083317 0.04765328 -0.27770448 -0.18626384 0.12552652

beta f4 [32]
00000000: 22ec 583f 733a 683f 45b7 8a3f 932d 333f
00000010: 49ff 3d3f 9632 633f 3706 823f c9e0 653f
00000020: ac5d 4c3f 3bb8 833f 50e1 6c3f 2ffa f53e
00000030: 6cdc 843f 58da 853f cdc8 6f3f 2e92 183f
00000040: 2df0 543f e800 4a3f 56fe 6b3f b6c9 743f
00000050: 4234 3d3f 1b27 283f 7773 603f 396e 3a3f
00000060: 955f 873f ebb4 4e3f 7d79 653f 3f6b 853f
00000070: ee3c 693f 1120 543f a2c3 743f c941 743f
0.8473531 0.90714186 1.083718 0.69991416 0.7421766 0.88749063 1.0158147 0.8979612
0.7983043 1.0290598 0.925313 0.48042437 1.0379767 1.0457258 0.9366577 0.5959805
0.8317898 0.7890763 0.9218496 0.95620286 0.73907864 0.6568467 0.87676185 0.72824436
1.0576044 0.8074481 0.896385 1.0423354 0.91108596 0.8286143 0.9561101 0.9541288

gamma f4 [32, 32]
00000000: bfe6 973e eb52 cbb8 6670 df3e 8e54 44ba
00000010: b426 23bc 3b37 2bbc aee6 a5ba 760e fbba
00000020: 90a4 9236 e28a eabc dfc1 74ba c0b5 d6bc
00000030: f553 83bc d8a6 97bc 027b 2d3e 0f59 0cb9
00000040: fcd9 08ba 46df 9ebb 148e a83d 7c04 0cbb
00000050: 8e18 85bc b424 1f35 f61b edbc 51e1 8fbb
00000060: ebac 94bb bcda 8e3e f6a4 4e37 42eb 32b9
00000070: dfcb 3e3e 27de deb5 c421 3ebc a935 00bd
00000080: 06db b63e 2f4a 023f 08dd 1bb8 0990 433f
00000090: 9b25 ffbc ed06 f2bc a481 ecbb 5276 95bc
000000a0: 579e f3bc ce7b b1bc 6a04 423e a661 63b8
000000b0: 24f6 aebb 638b 37ba 5b05 47bc 8693 7137
000000c0: 5db2 15bc e164 c9bc 492e b0bc 9f6f 9a3d
000000d0: b002 1fb9 e6d7 b0ba 575c 0fbb f1df 0aba
000000e0: 0533 f7b9 0821 feba abd5 eaba 0be5 92b9
000000f0: 9cf4 b8b9 c8e7 b936 fbe7 aa37 876f 00bd
00000100: 2db7 41b9 09d8 c03d 06d4 473f 71c2 043f
00000110: 9bbb 90b9 3d60 0ebb 847a 92bb 6b5f 4ebc
00000120: b0b9 d7bb 8fc7 ecbb 5e91 72ba d05a 9fbb
00000130: fc75 613c 24d3 a5bb d5f6 a53e c8fb ff3e
00000140: 18d1 9fba 1246 edb8 f627 153e 812a dfbc
00000150: 0554 0abb 7950 833e 6a0d bfbc 83dd 26bb
00000160: 0244 99bb 30ad 97ba d4b2 cdbb f5bd 1abb
00000170: b52a e5bb 5f4e 013e 2d06 01bd 77db ff3d
00000180: 3633 83bb 2bf7 7ab8 33cb 3b3f fb2b d73e
00000190: e747 c5bc 8008 2fbb 7c79 55bc 6a7c 8ebc
000001a0: e411 483e 9671 84bb 57f7 28bc 0882 9cbc
000001b0: fd16 62b8 7385 cdb9 bea3 2e39 08c6 12b8
000001c0: fdee b2b8 4e64 5836 929b 4ab8 a821 0dbd
000001d0: e093 08bc 6cb6 41ba 98ce 3bbc bd27 30bc
000001e0: d61c b9bb f6db 6abb 804a 05bb d92b 01bc
000001f0: e3a1 b5bc b8f0 4bbc 9d6c 85bb fc4e 5bbc
00000200: c98b 44bc 0f30 d3b8 977d 713e 5f16 dabc
00000210: d69f e03e 5919 fdbb 5591 f9bb 5045 42bc
00000220: 84d5 b3ba 920c 8cba bf51 9dbb d4d2 c5bb
00000230: 30d5 01bc ade5 2ebb 764d 98bc 3dc0 aebb
00000240: 9692 b7bc e8fb 5dba 7e05 1dba c1de b1b8
00000250: 0c48 acbc 9d67 b1bc 53d9 75bc 08a2 a4b8
00000260: e275 8cbb 77f7 2bbc 097c b63e 1beb dbbb
00000270: 5864 f2b9 4b8b 8dbb 979d 59bb 5199 f9b8
00000280: 418f 823d 5598 46ba ba14 163e f5a0 4bbc
00000290: 8497 e8bb b865 3b3e fb87 83b9 0f81 823e
000002a0: 167c c0bc a456 dbbc be77 22bc 1284 e9ba
000002b0: 2701 7aba aebf 20bc da8a 9fbc cdaf 1bbc
000002c0: 6fe5 c8bc c581 de38 5d96 9fba 858e c0bb
000002d0: f0a5 a0b9 68d7 88b8 7bb9 0ebc 38d0 35bc
000002e0: a673 0ebc b817 98bb 5cd5 94bc 1d32 63bc
000002f0: 7fa2 9bbc e302 c3bc 76ad 1ebc af4a 89bb
00000300: 58da 0a3e 6c32 aa3e 5605 68b8 7357 fcb9
00000310: 0377 afbc 7d1e c63d e265 5c3e e86b 77bc
00000320: 741c 67bc cd55 35bc 85d1 0cbc adbb 5bbb
00000330: 55f1 65bb 7bf4 5dba 980a 49b9 624d 23bb
00000340: 12f9 7ebc 14f9 a93e 5878 aabc 7e8f 97bc
00000350: 9161 923b b4e2 8abc a07d 853e 1880 45bc
00000360: 8dce 663e 2ad5 70ba c51e 0dbc 8dc1 28bc
00000370: 4257 0abb 8e8f 31bc bda0 8fb8 4144 8abc
00000380: f01f bb3e 1a3e 4cbc 641d 23ba 3644 e3b9
00000390: 0498 2dbc 2b24 e0bc 31e6 963e 0430 9c3e
000003a0: ddea 34ba eea5 54bb 5d0e 52ba 585a 3bbc
000003b0: 2a5a a5b9 c464 a53e d64a afb9 cc67 29bb
000003c0: 4307 50bc 0514 68bc fcbb 24bb 0013 a7bc
000003d0: 32de 9bbc 5a02 66bc e567 bdbc 8158 92ba
000003e0: 2791 a03e a2f6 803e 793f 3e3e 67b5 6db9
000003f0: ace8 bbb9 11c2 d7bc 9d77 6aba e34a 0dba
0.29668233 -9.695239e-05 0.4364044 -0.0007489406 -0.009957958 -0.01045018 -0.0012657249 -0.001915409
4.3702967e-06 -0.028630678 -0.00093367504 -0.026209712 -0.016031245 -0.018512174 0.16941455 -0.00013384617
-0.00052204705 -0.0048483936 0.08230224 -0.0021364978 -0.01624706 5.9285526e-07 -0.028943997 -0.0043908735
-0.004537215 0.27901256 1.2316965e-05 -0.00017063043 0.18632458 -1.6604944e-06 -0.01160473 -0.031301174
0.35713977 0.50894445 -3.716073e-05 0.76391655 -0.031145861 -0.029544318 -0.007217603 -0.018244896
-0.029738588 -0.02166548 0.18946996 -5.421196e-05 -0.005339401 -0.0007001666 -0.012147273 1.4399067e-05
-0.009136763 -0.024584236 -0.021506445 0.07540821 -0.00015164423 -0.0013492077 -0.0021875107 -0.0005297652
-0.00047149524 -0.0019388506 -0.0017916461 -0.0002801794 -0.00035277463 5.5404125e-06 2.0373604e-05 -0.03135636
-0.00018474153 0.094162054 0.780579 0.51859194 -0.00027605597 -0.0021724843 -0.0044701714 -0.012595992
-0.006583415 -0.0072259377 -0.0009253229 -0.0048631206 0.01376104 -0.0050605703 0.3241488 0.4999678
-0.0012193052 -0.00011314092 0.14566025 -0.027241947 -0.0021107208 0.25647333 -0.023321826 -0.002546162
-0.0046772966 -0.0011572 -0.0062774215 -0.0023611758 -0.0069936165 0.12627552 -0.03150003 0.124930315
-0.0040039076 -5.9834838e-05 0.7335693 0.42025742 -0.024082137 -0.0026707947 -0.013029452 -0.01739331
0.19538075 -0.004041861 -0.010312877 -0.019104972 -5.390401e-05 -0.00039200074 0.00016654932 -3.4993544e-05
-8.5322165e-05 3.2244893e-06 -4.830544e-05 -0.034455925 -0.008336037 -0.00073895487 -0.01146283 -0.010751662
-0.0056491895 -0.0035836673 -0.0020338595 -0.007883989 -0.02217192 -0.012447529 -0.0040717856 -0.013385531
-0.011996218 -0.00010070216 0.23583065 -0.026621995 0.43871945 -0.007723969 -0.007616202 -0.011857346
-0.0013720249 -0.0010684899 -0.0048010047 -0.0060370956 -0.007924363 -0.002668719 -0.018591624 -0.005332975
-0.022408765 -0.0008468018 -0.0005989893 -8.481509e-05 -0.021030448 -0.021655852 -0.015005427 -7.85031e-05
-0.0042865137 -0.010496012 0.35641506 -0.0067113764 -0.000462326 -0.0043195835 -0.0033205503 -0.00011901803
0.0637498 -0.00075758 0.14656344 -0.012428512 -0.00709814 0.18300521 -0.0002508758 0.2548909
-0.023496669 -0.026774712 -0.009916244 -0.0017815849 -0.0009536915 -0.009811325 -0.01947539 -0.009502363
-0.024523465 0.000106099564 -0.0012175549 -0.0058763647 -0.0003064121 -6.525108e-05 -0.008711214 -0.0110970065
-0.008694565 -0.0046414994 -0.018168144 -0.013866928 -0.018998383 -0.023805087 -0.009684911 -0.004189811
0.13559854 0.33241594 -5.531808e-05 -0.0004813034 -0.021419054 0.09673784 0.2152324 -0.01510141
-0.014105905 -0.01106782 -0.008594875 -0.0033528612 -0.0035086472 -0.00084669114 -0.000191728 -0.002491795
-0.015562313 0.33197844 -0.020809337 -0.01850104 0.004467197 -0.016953804 0.26072407 -0.012054466
0.2253973 -0.00091870374 -0.008613293 -0.010300052 -0.0021109139 -0.010837449 -6.848711e-05 -0.01687825
0.36547804 -0.012465978 -0.0006222336 -0.00043347635 -0.010595325 -0.027360996 0.29472497 0.30505383
-0.00069014524 -0.0032447535 -0.00080130046 -0.011435114 -0.0003153843 0.3230344 -0.00033434358 -0.0025849221
-0.012697044 -0.014164929 -0.0025136461 -0.020394802 -0.01902685 -0.014038647 -0.02312083 -0.0011165292
0.31360742 0.25188166 0.185789 -0.00022669659 -0.00035840773 -0.026337655 -0.00089442154 -0.0005389882

weight f4 [32, 48, 1, 2]
00000000: 6270 e53b 123d 52be feb6 79bc b980 283d
00000010: 00fe 87be 45b8 f53c 7efb 21bd 45f1 78bd
00000020: 2fdd ac3d 407f bbbd d8c5 3dbd 25ea 55bd
00000030: d840 a43c 8352 bebd 9d3f cf3b 4be4 183e
00000040: 0f9c c1be 4106 19be a805 a13d 7b40 68be
00000050: e5bd 09be 3327 c4bc f393 493d 6dcd a13e
00000060: c504 b2bb 32e1 473d 9f56 173e 5996 d9bc
00000070: 3e35 843e a084 743e 9c41 07bd aea5 96bd
00000080: 54e1 42bd 9056 adbd d070 713d 3d72 e33d
00000090: ce29 9d3d c0b2 ea3d 0a2e 0b3e cfd1 863c
000000a0: cc1e 2ebe 1028 ddbd e4cf 133d dab8 003e
000000b0: 9500 d63d d4c8 8a3e abb2 7e3e 9b48 c5bd
000000c0: 3e4f d6bd e1c8 173d 9808 22be bc80 ccb9
000000d0: b84a 353e 4359 233d 5820 e3bd f6e5 113d
000000e0: c076 e63d 2acd f7bd ca64 603e 0b64 bdbd
000000f0: 9a1c 9cbe 3337 e43d 15ee c2bd c7ef fcbd
00000100: dceb 753c e77d d6b8 a556 08be 8e63 873d
00000110: 86c4 5a3e e084 2a3e dfcd 4a3e 2b81 6d3d
00000120: 62f4 3c3e 7514 143d 783d 0dbd 95cc 603e
00000130: 3860 e1bd 7726 14be c874 97bd 4537 4dbb
00000140: a4fe 88bd 3dfa fbbd 01e7 d5bd 7017 45be
00000150: 5b53 1a3d f724 fbbd f816 c7bd 56d7 173e
00000160: 3792 aa3d 19eb e6bb 937e edbe ac78 203d
00000170: f779 183d 9bc3 3ebc e6f6 0c3e 654e 93bc
00000180: e207 23bd 6860 383e 2757 b4bd 9b0f e4bd
00000190: ea52 61bf 17f6 41be 531d 4bbe 0367 353e
000001a0: d574 d53d e87b 923d 68e2 debc cf9d 223d
000001b0: 6ca3 c3bc c514 4fbc 0d33 343d 7cdd 983d
000001c0: e89e 14bc 9000 c3bd 4f59 b1bc 92aa e2bd
000001d0: 19ab 51be 53a7 e53d 59b3 b93d 88f6 943d
000001e0: 8798 8cbe d233 cb3d 2d01 81be 0455 7d3c
000001f0: f618 363d 42be ea3c 78dd 9e3d 91ea 44be
00000200: bd4b 29bc 1af0 bf3d 616d a33d 9361 c5be
00000210: 02a2 d13d 8d62 82bd c5f7 643d 4d20 f3bc
00000220: 1f7b 6b3d 8992 033e aac2 67bd 1f78 8ebd
00000230: a594 a1bb 63f4 36be 96ec 793d abc3 91bb
00000240: c5ce 543d 702d 42be daaa 583d 3398 93bd
00000250: 300b 54bd e82c 1abe ee7e da3a 2237 26bc
00000260: a873 51be 7c3d 3bbe 9739 47be 0327 0b3e
00000270: 2644 063d 5c71 233d e421 99bb d1c9 c93c
00000280: 7aba 373d bdd3 92bd cda6 65be c975 c7bb
00000290: ec36 99bf e0de 34be 5fc3 4b3d 2463 8dbd
000002a0: 2fb3 4dbe f7ce c33e 5366 3abe 6ace 873d
000002b0: 585f a6bd 8520 9c3d 4c58 93bd e74f bebd
000002c0: d299 cebe c3be e3bd f9d7 603e 2fa2 873e
000002d0: 8bbe 863e 5785 b1bd 8a95 8abd a791 773d
000002e0: 86e8 abbd b3c1 53be 3f7d 37be 4c78 76bd
000002f0: b8cc 8b3d 43b8 753d bb0f 4e3d 4b90 e63c
00000300: 2717 1e3e a0b2 c63e ee70 00be 9cfd f13d
00000310: 28ba f33a 55b1 c13d d85f 4abe 3241 da3d
00000320: 7960 19be 5651 c2bc 8cdf bb3d 79bf 9ebb
00000330: a05e 513d fc23 3b3e f123 263e 4020 1bbd
00000340: 82d3 46be bb23 4abc e8ff b53d fa49 823d
00000350: a0ea d53d d9a0 0d3d 592d 12be bccf 183e
00000360: 3fb9 e0be 0521 ad3d 614e dcbd 0198 483d
00000370: ef58 dabc b849 e13d 3123 9b3e f96e eebd
00000380: ce8f c13d 2495 5c3d f1fc ccbd ae81 ca3d
00000390: 0bda fc3d 7c86 003d 98c5 2b3c 4d5e 26bd
000003a0: 0307 553d 5e02 cdbc 6b3f 2dbe 4b63 3cbd
000003b0: 8f83 b33d b6ed 39be aee8 0e3e 65d7 06be
000003c0: b481 e23b 5ce4 e93c 60ba 9b3d b84e 8fbd
000003d0: 4333 9abc 45d9 60be 47c2 ed3d c295 57bc
000003e0: 12fc 833e bb92 9fbe 0835 1c3e 0aa6 5dbe
000003f0: 908a 5bbd 0a95 cc3d a794 b03d 7323 21bb
0.0070019225 -0.20531109 -0.015241383 0.041138384 -0.26560974 0.029995093 -0.039546482 -0.060776968
0.08440625 -0.091551304 -0.046331257 -0.05222525 0.020050451 -0.092930816 0.006324722 0.14930837
-0.37814376 -0.14943792 0.07862407 -0.22680847 -0.13451345 -0.023944473 0.04921336 0.3160204
-0.0054326975 0.048798747 0.14779137 -0.02656095 0.2582187 0.23878717 -0.033021554 -0.0735582
-0.04757817 -0.08463776 0.058945477 0.111057736 0.07673989 0.11459875 0.13591781 0.016457466
-0.17003936 -0.10798657 0.03608693 0.12570515 0.1044933 0.27106345 0.24872844 -0.09632989
-0.10464333 0.037056807 -0.15823591 -0.00039005827 0.17704284 0.03988005 -0.110901535 0.0356197
0.112531185 -0.12099679 0.21913448 -0.09247597 -0.3049057 0.11143341 -0.09518067 -0.123504214
0.015009847 -0.00010227766 -0.13314302 0.066107854 0.2136403 0.1665225 0.19805096 0.057984512
0.184526 0.03615232 -0.03448245 0.21953042 -0.110046804 -0.14467798 -0.07395321 -0.003131346
-0.06689194 -0.123035885 -0.10444451 -0.19247222 0.03767715 -0.1226291 -0.09721178 0.14828238
0.083286695 -0.007047069 -0.4638563 0.03917758 0.03722569 -0.011643316 0.1376606 -0.017981717
-0.03980244 0.18005526 -0.088056855 -0.11135789 -0.8801714 -0.18941532 -0.19835405 0.17715077
0.104226746 0.071525395 -0.027207568 0.03970128 -0.023881637 -0.012639229 0.043994 0.0746412
-0.009071089 -0.09521592 -0.021649031 -0.1106769 -0.20475425 0.11213555 0.09067411 0.072735846
-0.2746012 0.09921993 -0.2519621 0.015462164 0.0444574 0.028655175 0.077570856 -0.19230105
-0.010332999 0.093719676 0.07979847 -0.38551006 0.10235979 -0.06366453 0.055900354 -0.029678488
0.057490464 0.12848867 -0.05658213 -0.06956505 -0.00493105 -0.17866664 0.06101664 -0.0044483743
0.051955003 -0.18962646 0.05289731 -0.07206764 -0.05176848 -0.15056193 0.0016669908 -0.010144981
-0.20454276 -0.18285173 -0.19455563 0.135891 0.032779835 0.03990303 -0.0046732295 0.024632366
0.044855572 -0.07169292 -0.2242691 -0.006087039 -1.1969886 -0.17663145 0.049746867 -0.06903675
-0.20087884 0.3824384 -0.18203096 0.06631167 -0.08123654 0.0762339 -0.07194576 -0.09292584
-0.4035173 -0.11120369 0.21957387 0.26490924 0.26317248 -0.08668011 -0.067668036 0.06044164
-0.0839396 -0.20679359 -0.17918871 -0.060173318 0.068261564 0.05999018 0.05030797 0.028144976
0.1543852 0.38808155 -0.1254308 0.1181595 0.0018594908 0.094576515 -0.19763124 0.10656966
-0.14978208 -0.023720425 0.091734976 -0.0048446027 0.051115632 0.18275446 0.16224648 -0.037872553
-0.19416621 -0.01233762 0.08886701 0.06361766 0.10445142 0.034577224 -0.14275111 0.14922994
-0.43891332 0.084535636 -0.10757137 0.048973087 -0.026653735 0.11000389 0.30300286 -0.1164226
0.09451257 0.05385317 -0.10009182 0.09888016 0.12346276 0.031378254 0.010484122 -0.040617276
0.05200864 -0.025025543 -0.16918723 -0.04599313 0.08765327 -0.18157086 0.13955948 -0.13168104
0.0069124345 0.028551273 0.076039076 -0.06997436 -0.018823272 -0.21957882 0.11609321 -0.013158264
0.25778252 -0.31166634 0.15254605 -0.2164537 -0.05359894 0.099893644 0.08622103 -0.002458778

bias f4 [48]
00000000: 728b e13d 2015 81bc 79de 11bc babe 073e
00000010: 9dba ef3d 37ef 903b 1021 c23d 744a f9bc
00000020: f0ec 4bbe 25ed e43d 6d60 203d 3318 02bc
00000030: d7c9 33be b1f7 1ebd 7730 c5bc e576 9fbd
00000040: fd3f 98bd 0771 27be 97f5 b0bd 4532 1cbe
00000050: 57c4 543e c401 79bd 4732 97bd 6366 d7bb
00000060: 6c07 2e3c 3156 003b 99c0 c3bd 67f4 57bd
00000070: 49ea ccbd 5e9e 463e 9f9b a1bd d8a0 74be
00000080: 34ba 4fbc aeb7 0b3e d761 a93d 11bd ba3c
00000090: e334 603e 2346 a23d 95e8 0dbe f848 f13d
000000a0: f0a3 05be 184f 23be 980f 85bd 154d 26be
000000b0: 5545 0fbe ede4 35bd 65a4 8d3d 14a2 51bc
0.11012925 -0.015757143 -0.008903139 0.1325635 0.117055155 0.004423048 0.094789624 -0.03043101
-0.19914603 0.11178044 0.03915446 -0.00794034 -0.17557465 -0.038810436 -0.024070961 -0.07786349
-0.0743408 -0.1635171 -0.086405925 -0.15253551 0.20778023 -0.0607927 -0.073826365 -0.0065734847
0.010621887 0.0019582624 -0.095582195 -0.052723315 -0.10005624 0.1939635 -0.078910105 -0.23889482
-0.012678672 0.13644287 0.082706146 0.022795232 0.21895175 0.07923534 -0.13858254 0.11781496
-0.13050818 -0.1594814 -0.06497115 -0.16240342 -0.13991292 -0.044407774 0.069161214 -0.01279499

weight f4 [48, 64, 2, 1]
00000000: 555b 1dbe 2be7 26bc 53da 3c3d 6c8a 6c3d
00000010: 7b5e dabc e94a 123a 65dc 893c 3993 27be
00000020: 361d 9a3d af73 4c3e ec54 243e 7c25 0dbd
00000030: 6737 533d a1b4 afbc 11f7 5d3e 9ed3 c53d
00000040: 306c 34be c8f0 fabd 8b97 c33d 26ac ec3d
00000050: 9cbf cd3d e44e 71be c790 443d d5c5 763d
00000060: 65fb 783d afcc 78bd 2c17 3cbd bd4a 393e
00000070: 3b4a 4dbe 2bb6 1ebe 34e3 ecbd 2584 39be
00000080: 77d1 32be 426b 99bc efea 01be 9cfb 3cbd
00000090: 905c 683e 1ef5 3fbe f1ac f9bd edcc f23d
000000a0: e54d 96be b1b7 a1bd 833c 0e3e 56e9 25be
000000b0: f3a6 e2bd e7d3 bfbe e71b cfbc 3907 17be
000000c0: 7fea 2cbd a132 b8b9 523d 753d 72cb 7abd
000000d0: 25e0 97bd ab4e 60bd 689c 583d 42dc d63d
000000e0: 4703 3cbe 8bba a13d b500 3dbd 7569 f9bd
000000f0: 9581 ecbd d4d6 d23c 5348 dd3d a4b3 c33b
00000100: 9d61 b8bd 59e3 113d 7bad dbbc 8c57 6dbd
00000110: 913f c03e 8f48 05bb 74e5 2b3d 8523 d7bd
00000120: 381e 8a3c f843 223e f54f 1bbd ae53 873e
00000130: 8f2e ef3d d941 dcbd f6bd 5f3d 3091 2abe
00000140: 07e1 75be a3e4 c43d b381 183e 064a f8bd
00000150: 0e6c 96bc 66d9 d6bc 3628 59be 335f 26be
00000160: 2d15 48bd e21b adbd f5e7 16be 75bf 053b
00000170: 7115 1dbd bd7c e3bd 4564 c5bc b21d 33be
00000180: 8e8a 20be a047 15be 6878 91bc c540 c8bd
00000190: 5c72 69be 740b 5b3d 80b0 5e3e 17f6 48bd
000001a0: 56f4 083e d505 a9bd 36af 1ebe 7ca4 2cbe
000001b0: d944 90be 5a9c 743d 4317 313d 65d8 ab3d
000001c0: 1ada 2cbe f879 31bd df12 8bbd defa 703e
000001d0: 04c3 84bd 2399 dd3d cee8 5a3d eb15 873c
000001e0: 042e 663a e64a 983d 9b72 e3bd 6c46 ec3a
000001f0: 8d45 98bd 3138 1d3e 751f 86bd 5ba8 eb3d
00000200: 7a7d 0d3d 2366 c8bc 47b3 a2bc 71ef 2cbe
00000210: 6536 193e acf2 68bc ed4f b13d d40c 253e
00000220: 3306 283d b5e3 3fbc 935b f1bd 7544 9ebc
00000230: 4c76 bebc 52b4 9ebd 09e6 a93d a73a ca3d
00000240: aa63 2abe c099 02be 7eef fbbc ec54 3b3c
00000250: 57c7 9c3d 594e 0a3e 896e 923d f8ff 8f3c
00000260: e6f1 82bc ce52 36be 5223 d6bd 05f2 f63d
00000270: 5556 0abd 5ac2 72bb 9191 9fbd 6818 18bd
00000280: 6f70 61bd 35aa 46bd 781b 31be 5e76 2fbe
00000290: 8bb7 a93d a77b 72bc 9893 ec39 5731 82b9
000002a0: 915c a0bc 2ec8 643d d31f 083d 120f 80bd
000002b0: cf5a 223d c3ae 8e3d 1d77 dc3d 437a ab3d
000002c0: eb0c 863b b832 3a3d 544d 023e 54cd 93bb
000002d0: 7f73 56bd 19ec e8bd 20c7 dbbd 1028 bcbd
000002e0: e6e0 80be ffdf 09be cc81 1cbd a093 5fbb
000002f0: 2c4f 7d3d 596b b93d 45c7 e33d 5c63 2c3e
00000300: cbb2 d4bd 3e6f dcbd 43b1 5dbd 204e c2bc
00000310: c005 443c 7197 06bd bac8 3abd 0e17 123e
00000320: afc4 4fbd 47fc 863d a3f4 de3d f8b9 17be
00000330: 1b48 00be bf26 ae3d a606 973d bbfb 07bd
00000340: f1da acbd da90 7ebd 589e ae3d 878a ea3d
00000350: 9e64 533d c2b4 49be 9721 59bd 6918 753d
00000360: fa27 b23d af28 b03d da71 b3bd 2d82 c73a
00000370: 3e85 f23c ee89 9dbc b379 abbd b3cd c33d
00000380: cc40 3dbe 1622 77bd 1b65 5e3d 478b f23d
00000390: 2b50 503d 31f4 68bd 85bf a83d 80d4 beba
000003a0: 5f20 15bd 0bda 5d3d a71d 2dbe 6d1c 0abd
000003b0: a3cd c83d 411a 3cbe 0534 673c ed11 d93d
000003c0: 679c acbd b3fe 29be bedd 86bc 93f3 723d
000003d0: c476 60bd 90f8 bbbd cbe2 433e 2cad 0a3d
000003e0: 1b08 3dbd d335 c4bd 72ec 23be 1ad8 17be
000003f0: e374 43bd 0218 61bd 98d6 89bd f6bf 99bd
-0.15366872 -0.010186951 0.046106648 0.057749197 -0.02665638 0.00055806205 0.016828725 -0.16364755
0.07525103 0.19966005 0.1604802 -0.034459576 0.051566508 -0.021448435 0.2167628 0.096595034
-0.17619395 -0.12252957 0.09550389 0.11556272 0.10046312 -0.2356525 0.047989633 0.06024726
0.060786624 -0.060742076 -0.045920536 0.18094917 -0.20047848 -0.15499179 -0.11566773 -0.18116815
-0.17462717 -0.018727902 -0.12687276 -0.04613839 0.2269156 -0.18745849 -0.12191189 0.11855493
-0.29356304 -0.078963645 0.13890271 -0.16202292 -0.11066999 -0.37466356 -0.02528186 -0.14748849
-0.04221582 -0.00035132936 0.059872933 -0.061229177 -0.07415799 -0.054762524 0.052883536 0.104912296
-0.18360625 0.078969084 -0.046143252 -0.121783175 -0.11548153 0.025737204 0.108048104 0.0059723426
-0.09002993 0.035617206 -0.02681612 -0.05794482 0.37548497 -0.0020337438 0.04196687 -0.10504822
0.016860113 0.1584624 -0.03791805 0.2643103 0.11678802 -0.10754747 0.05462452 -0.16656947
-0.24011622 0.096139215 0.14893226 -0.12123494 -0.018362071 -0.02622671 -0.21206746 -0.16247253
-0.04884832 -0.08452584 -0.14736922 0.0020408307 -0.038350526 -0.11107776 -0.024095664 -0.17491797
-0.15677854 -0.14578104 -0.01775761 -0.09777979 -0.22797531 0.05347772 0.21747017 -0.049062815
0.13374457 -0.082530655 -0.15496525 -0.16859621 -0.28177527 0.05971942 0.043235075 0.08390883
-0.16880074 -0.04332921 -0.06790709 0.23533198 -0.06482509 0.10820224 0.053444676 0.016489943
0.00087806606 0.07436161 -0.11105844 0.0018026358 -0.07435141 0.15353467 -0.06548969 0.11506721
0.034543492 -0.024462765 -0.019860877 -0.16888215 0.14962156 -0.014218014 0.08657823 0.16118175
0.041021537 -0.011712004 -0.117850445 -0.019319752 -0.023249768 -0.07749237 0.08295829 0.09874468
-0.16639581 -0.12753963 -0.030753847 0.011433821 0.076552086 0.1350645 0.07149989 0.01757811
-0.015984487 -0.17805025 -0.104559556 0.1205788 -0.03377374 -0.0037042112 -0.077914365 -0.03713265
-0.055038866 -0.048502166 -0.17295635 -0.17134997 0.08286961 -0.014799989 0.00045123394 -0.00024832293
-0.01957539 0.05585497 0.033233475 -0.062528744 0.039637383 0.06966927 0.107649066 0.08372929
0.0040908954 0.045458525 0.12724811 -0.004510561 -0.05235624 -0.11373157 -0.107313395 -0.09187329
-0.25171584 -0.13464354 -0.03820972 -0.003411509 0.061843082 0.09053678 0.11121992 0.16834778
-0.103856646 -0.10763405 -0.054124128 -0.023718894 0.0119642615 -0.03285927 -0.045601584 0.14266607
-0.05072468 0.06591087 0.108865045 -0.14817035 -0.12527506 0.08503484 0.07374315 -0.033199053
-0.08440197 -0.06214986 0.085262954 0.11452203 0.051609628 -0.1969786 -0.05301055 0.059837732
0.08699031 0.0860151 -0.0876195 0.001522129 0.02960455 -0.019230809 -0.08372822 0.095607184
-0.1848175 -0.06033524 0.05429564 0.11842971 0.050857704 -0.056873504 0.082396545 -0.001455918
-0.036407825 0.05416302 -0.16905843 -0.033718515 0.09804847 -0.1836939 0.0141115235 0.10599122
-0.08428269 -0.16601066 -0.016463157 0.05931432 -0.054800764 -0.09178269 0.19129483 0.033856556
-0.046150308 -0.09580579 -0.16008165 -0.1482853 -0.047718894 -0.054954536 -0.06730384 -0.07507317

bias f4 [64]
00000000: 8e1a ecbb 82ab c2bc 9698 a23c 9bd4 8e3c
00000010: d5b0 1b3d 8588 a6bc 9e86 62bd dc95 1e3c
00000020: a02f c8b9 9696 563d d6dd c63c 74cb b03c
00000030: f8af 25bd fb06 b13c 5f69 3d3b c572 a33b
00000040: d7bd 1d3d f2be 843b 2055 8fbd 0d5a a83b
00000050: 19a3 6fbc 7cd7 47bb 9fda 273c a7c9 923d
00000060: 4a31 dd3d c9a4 1e3c 7cbf e23c 42b1 4c3c
00000070: f44a 8b3d 76ff 7bbd 594c ca3c 149a e9bb
00000080: 28dd e2bd 5c5a 36bd b699 9b3c ab08 ffbb
00000090: a0fc 243d 7627 83bd a2e3 81bd 393a 68bc
000000a0: e51b 68bd 4d3a bb3d 3345 a4bd b747 c93b
000000b0: 7d32 0d3e 8de2 52bd 86f2 b8bc 4efd babd
000000c0: f570 b6bc 31d2 233d 4373 e03c 5c3c bd3a
000000d0: 1e54 64bd fa67 01bd 79b0 a13d 43c9 b13d
000000e0: bc95 463e 0db5 9c3c b9e4 ffbd 0f41 303b
000000f0: 0df9 fdbc 9fc5 d7bd d203 1ebd ca4c 603c
-0.007205314 -0.023763422 0.01984815 0.017435363 0.038010437 -0.02032877 -0.055304162 0.009679284
-0.00038182456 0.052389704 0.024275701 0.021581389 -0.04045102 0.021609774 0.0028901917 0.004988047
0.038511124 0.004051083 -0.06998658 0.005137688 -0.014626288 -0.003049343 0.010244994 0.071673684
0.10800417 0.0096828425 0.027679197 0.012493433 0.068014055 -0.061522923 0.024694609 -0.0071289632
-0.110773385 -0.044519767 0.018994194 -0.0077830157 0.040279984 -0.06404011 -0.06342246 -0.014174038
-0.056667227 0.09141979 -0.08021011 0.0061425823 0.13788791 -0.051485587 -0.022576582 -0.09130345
-0.022270659 0.039995376 0.027398711 0.0014437544 -0.055744283 -0.0315933 0.078949876 0.08680966
0.19393057 0.0191293 -0.12494797 0.0026894247 -0.031002546 -0.1053574 -0.038577862 0.013690183
