models/decNet_0.py.pkl (torch_old, 900824 bytes, 25 tensors)

weight f4 [256, 1, 1, 1]
-0.5223882 0.273514 0.31869397 -0.32630813 -0.26965055 0.30850425 -0.22487217 -0.52228695
0.60028315 -0.51823235 -0.26106644 -0.5399079 -0.30628288 0.18105242 -0.25831598 -0.59158695
-0.38226458 0.2547413 0.25148028 0.54940194 -0.24055207 0.12280423 -0.17142577 0.2014477
-0.09489777 0.48006204 0.18283124 -0.2984348 -0.27231145 -0.49719563 0.44760236 0.21956822
0.33273113 -0.6107536 0.22585727 -0.7486484 0.28720805 -0.317398 -0.26774803 0.14129171
-0.20836638 -0.24047533 -0.180692 -0.45878637 -0.3954198 -0.35136235 -0.27898228 -0.088566214
0.15197167 0.35828876 0.22894318 0.5225389 0.39988473 0.23839349 0.28373316 0.3174894
-0.45466882 0.61673814 0.25835153 -0.6182344 0.38435143 -0.09314754 0.682537 0.2984849
0.18842296 0.3311762 -0.15393725 -0.12375685 0.068419 -0.24052481 -0.39807758 0.27295226
-0.23728685 -0.17369522 -0.55282986 -0.25849944 0.39979476 0.33897275 0.2552532 -0.20217134
-0.22728285 0.21552785 0.26867163 0.31645724 -0.30781955 -0.57419014 0.17884989 -0.25667065
0.18323876 0.09750987 0.18084456 -0.5898741 -0.2433847 -0.28933272 0.14076649 0.28204507
-0.23796639 -0.15610176 0.40866384 0.2616474 -0.023076272 -0.2920458 -0.1927448 0.31304303
0.17871013 -0.7075765 -0.28842005 -0.5560536 0.12665488 -0.2844118 0.25165445 -0.24177307
0.45579094 0.12720892 0.06716597 0.5485737 -0.72079885 -0.3022805 -0.11086067 -0.2597404
0.339404 0.46382698 0.35442823 0.11381156 -0.19051671 -0.085309826 -0.12552662 -0.5657974
-0.18997571 0.26913443 0.30657586 -0.33364344 0.1928778 0.013560778 0.18248758 -0.7292841
0.46625006 0.14447068 -0.09494536 0.064043246 0.0018985408 0.19001006 0.11928446 -0.46325317
-0.19474497 -0.20218329 0.1610482 0.3127708 0.5960751 -0.35346127 0.2884541 -0.22684102
-0.17284438 0.27546713 -0.30440947 0.18477447 -0.45538482 -0.26848677 0.45748943 0.10538426
0.26081645 -0.39008793 0.37300512 0.33318105 0.20271254 -0.24494907 -0.3153935 -0.19528182
0.31782636 0.5148138 -0.16525169 -0.36563095 -0.32338738 0.22314508 -0.66936344 0.44409683
-0.48557857 -0.12927964 -0.37509722 -0.37523833 0.4244848 0.46612984 0.25671324 0.021196635
-0.21764259 -0.42920637 -0.19663922 -0.33424273 -0.33212057 0.4490006 0.09980151 0.18277597
0.4901647 -0.6478413 0.10350903 0.2731588 -0.60033566 -0.17771985 -0.22543928 -0.19280317
-0.256766 0.37173674 -0.42197493 -0.19713907 0.53716224 -0.57588065 -0.21791975 -0.26334137
-0.23947333 0.44740504 -0.30814052 0.24806106 -0.2781618 0.42033324 -0.26827335 0.2323952
0.275668 -0.2112436 -0.26456255 0.24452904 0.24436603 -0.6183136 -0.4625985 -0.13924271
0.27178454 0.29408512 -0.18839131 -0.31803656 -0.20670003 0.3635128 0.42818627 -0.51124406
0.28584412 0.36089733 -0.29356283 -0.19820572 -0.45570016 0.562589 0.106904835 0.35075083
-0.19516872 -0.076203905 -0.4373334 -0.22454567 -0.18396495 0.27737004 -0.22612211 -0.21607795
-0.10825119 -0.39964822 -0.24732333 0.33213902 -0.100820914 -0.41401657 -0.435293 -0.18393028
00000000: 3cbb 05bf 070a 8c3e db2b a33e dc11 a7be
00000010: a30f 8abe 45f4 9d3e e444 66be 99b4 05bf
00000020: 28ac 193f e0aa 04bf 80aa 85be 6737 0abf
00000030: 1cd1 9cbe ce65 393e fe41 84be 3e72 17bf
00000040: 2fb8 c3be 746d 823e 06c2 803e 9ba5 0c3f
00000050: 4853 76be c980 fb3d 3d8a 2fbe 4e48 4e3e
00000060: c359 c2bd b1ca f53e 1d38 3b3e 72cc 98be
00000070: 686c 8bbe 6d90 febe 232c e53e 7ed6 603e
00000080: bc5b aa3e 595a 1cbf 2147 673e 6ca7 3fbf
00000090: ef0c 933e fe81 a2be 4516 89be c6ae 103e
000000a0: ff5d 55be 2a3f 76be 5307 39be 0ce6 eabe
000000b0: 7774 cabe c4e5 b3be c4d6 8ebe 3462 b5bd
000000c0: 769e 1b3e a071 b73e 1570 6a3e 1cc5 053f
000000d0: b1bd cc3e 6c1d 743e 7945 913e f88d a23e
000000e0: 5aca e8be 8de2 1d3f a746 843e 9c44 1ebf
000000f0: b6c9 c43e 23c4 bebd bfba 2e3f 03d3 983e
00000100: f3f1 403e ed8f a93e baa1 1dbe 3b74 fdbd
00000110: 431f 8c3d 234c 76be d3d0 cbbe 66c0 8b3e
00000120: 53fb 72be 29dd 31be 4286 0dbf 0a5a 84be
00000130: e6b1 cc3e d68d ad3e 8cb0 823e 0106 4fbe
00000140: d6bc 68be 55b3 5c3e 548f 893e af06 a23e
00000150: 869a 9dbe 20fe 12bf 6d24 373e 566a 83be
00000160: f1a2 3b3e 41b3 c73d 512f 393e fd01 17bf
00000170: d739 79be 6b23 94be 1725 103e 3668 903e
00000180: 76ad 73be 24d9 1fbe 633c d13e a6f6 853e
00000190: 730a bdbc 0787 95be e55e 45be 2d47 a03e
000001a0: caff 363e bc23 35bf cbab 93be 8759 0ebf
000001b0: d1b1 013e 6c9e 91be dad8 803e 5c93 77be
000001c0: 6e5d e93e 0e43 023e 508e 893d 536f 0c3f
000001d0: 4686 38bf 82c4 9abe eb0a e3bd b2fc 84be
000001e0: 5cc6 ad3e bb7a ed3e 9e77 b53e 0916 e93d
000001f0: d016 43be ebb6 aebd 0d8a 00be 19d8 10bf
00000200: fe88 42be fdcb 893e 83f7 9c3e 50d3 aabe
00000210: c281 453e 072e 5e3c 06de 3a3e 5db2 3abf
00000220: 54b8 ee3e 1ff0 133e b772 c2bd 1b29 833d
00000230: 75d8 f83a ff91 423e 694b f43d 852f edbe
00000240: 3a6b 47be 2309 4fbe d2e9 243e 7f23 a03e
00000250: 6198 183f e0f8 b4be 41b0 933e 0349 68be
00000260: 1efe 30be 070a 8d3e 8fdb 9bbe 8535 3d3e
00000270: 3328 e9be 1977 89be 0e3c ea3e b4d3 d73d
00000280: bc89 853e 9bb9 c7be 87fa be3e b596 aa3e
00000290: e093 4f3e eed3 7abe 427b a1be f5f7 47be
000002a0: 23ba a23e d6ca 033f bd37 29be fb33 bbbe
000002b0: 0893 a5be 2580 643e 675b 2bbf a960 e33e
000002c0: c19d f8be e261 04be be0c c0be 3d1f c0be
000002d0: 1256 d93e 92a8 ee3e eb6f 833e 91a4 ad3c
000002e0: b3dd 5ebe f0c0 dbbe cb5b 49be dd21 abbe
000002f0: b50b aabe 68e3 e53e bc64 cc3d a029 3b3e
00000300: def6 fa3e edd8 25bf 8bfc d33d 78db 8b3e
00000310: 99af 19bf 31fc 35be 8ed9 66be 326e 45be
00000320: d576 83be 4754 be3e 190d d8be d3de 49be
00000330: 7783 093f ea6c 13bf 5b26 5fbe aed4 86be
00000340: 7f38 75be 4612 e53e 98c4 9dbe b803 7e3e
00000350: 396b 8ebe eb35 d73e 205b 89be 02f9 6d3e
00000360: 5b24 8d3e 3e50 58be be74 87be d265 7a3e
00000370: 173b 7a3e cd49 1ebf b6d9 ecbe a495 0ebe
00000380: 5827 8b3e 5392 963e a7e9 40be b0d5 a2be
00000390: 2ca9 53be 5a1e ba3e 3b3b db3e e4e0 02bf
000003a0: 295a 923e 89c7 b83e de4d 96be 71f6 4abe
000003b0: 8851 e9be d505 103f ecf0 da3d 9d95 b33e
000003c0: 4fda 47be cb10 9cbd 2aea dfbe 4def 65be
000003d0: 4f61 3cbe 7203 8e3e 8e8c 67be 8a43 5dbe
000003e0: cdb2 ddbd b19e ccbe 5442 7dbe 200e aa3e
000003f0: 327b cebd fbf9 d3be b9de debe 3858 3cbe

beta f4 [16]
1.0638019 0.8440399 0.84653205 0.98299724 1.0821882 0.94256526 1.1035916 0.9581734
1.0247281 0.9413062 0.99874485 1.0111191 1.0066864 1.1048956 0.95773935 1.013411
00000000: a92a 883f 0013 583f 53b6 583f b5a5 7b3f
00000010: 2585 8a3f f54b 713f 7d42 8d3f da4a 753f
00000020: 4a2a 833f 71f9 703f bead 7f3f 5a6c 813f
00000030: 1adb 803f 386d 8d3f 682e 753f 74b7 813f

gamma f4 [16, 16]
0.035645753 -0.00052646047 -0.006281285 -0.00059854845 -7.594438e-05 -0.009958552 -0.0010219457 -0.003190478
-0.004450118 -0.028329452 -0.023137523 -0.010167443 -0.00028591146 -0.01293002 -0.013083857 -0.0012791926
-0.02316606 0.04134658 -0.018732836 -0.0047076656 -3.1693155e-05 -0.014282795 -0.018200397 -0.0010571905
-0.010815421 0.057918545 -0.002132302 -0.019631904 -0.012709387 -0.002580058 -0.0005164129 -0.0054027
-0.0019771194 -0.022838203 0.039312325 -0.024061168 -0.0034286266 -0.0021361434 -0.01179654 -0.0058043627
-0.020647699 -0.008316768 -0.00070699846 -0.019112362 -0.0136316335 -0.014661095 -0.0007694515 -3.6141653e-05
-0.010621892 -0.0053025056 -0.002902616 0.042666785 -0.0061612823 -0.016034003 -0.014310689 -0.02324107
0.026891785 -0.0052111708 -0.0010047605 -5.9699072e-05 -0.01837945 0.01368095 -0.021988226 -0.0012248692
-0.0070283413 -0.0010220937 -0.0044394718 -7.625277e-05 0.048323147 -0.0028611077 -0.004504146 -6.514376e-05
-0.0021262974 -6.086821e-05 -0.008271563 -0.011488947 -0.005950835 -0.013369161 -0.015162447 -0.01712321
-0.00025107208 -0.01726839 -0.005545147 -0.020319661 -0.000221334 0.04302777 -0.0020482766 -0.015444648
-0.002128181 0.053525694 -0.0038537062 -0.0016217598 -0.00080838596 0.039064925 -0.010580601 -0.00448446
-0.004219992 -0.0009642281 -0.0028424994 -0.0145842945 -0.019888693 -0.000101182624 0.05047642 -0.021109361
0.035531316 -0.0034290112 -0.0008736879 -0.013338043 -0.0005972065 -0.001707437 -0.020118626 -0.021765467
-0.018355718 -0.006730749 -0.015330503 -0.000321694 -0.008113183 -0.002881674 -0.00042654117 0.034426037
-0.010870152 -0.020130642 -0.033846922 -0.013538658 -0.0091142105 -0.013355039 -0.00054679404 -0.017065454
-0.011280556 -0.022557253 -0.012610249 -0.022556942 -0.023279546 -0.0003150816 -0.023794299 -0.012754403
0.038286228 -0.024928486 -0.00082467956 3.339663e-05 -0.01649986 -0.007317401 -0.017507434 -0.013671763
2.142093e-05 -0.00048460576 -4.0985844e-05 -0.018250255 -0.022542903 -0.010151911 -0.005133362 -0.005788341
-0.0029306477 0.022641867 -0.024188327 -0.000839248 -0.024887057 -0.006925774 -0.012722472 -0.0038226247
0.037772436 -0.012305095 -0.0072080237 -0.020886604 -0.010095096 -0.0197616 -0.00035283077 -0.013264773
-0.0010762283 -0.017127145 0.042072646 -0.019685458 -0.015288331 -0.011628029 -0.0046962993 -0.012099116
-0.0067151547 -0.020634953 0.054721605 -0.0077464674 -0.023750167 -0.00021074392 -0.023705963 0.007999856
-0.013089934 -7.071341e-05 -0.0009820681 0.043229815 -0.010286782 -0.0015637222 -0.013677908 -3.8855276e-05
-0.0009426603 -0.0038971554 -0.022653539 -0.015029478 -0.015502456 1.223368e-06 -0.013148183 -0.010682517
1.6007221e-05 -0.019530576 -0.009660934 -0.026032016 0.0399712 -0.0020787045 -0.033498563 -0.004633378
-0.011419073 0.011610853 -0.01963664 -0.021271903 -0.003066785 0.017384559 -0.023635576 -0.020026594
-0.0004489728 -0.0062364596 0.04045951 0.034098074 -0.02339286 0.04966553 -0.0049306606 -0.03149855
-0.0015096872 -0.015584913 -0.00032202897 -0.0011065751 -1.0383293e-05 -0.00077104976 -0.017178847 -0.0026109575
-0.011562747 0.051146135 -0.019790586 -0.016393997 -0.011097932 -0.011061674 0.029186768 -0.0012020925
0.065452084 -0.027993962 -0.016366633 -0.010430002 -0.0021022267 -0.02210016 -1.9706149e-05 -0.010128028
-0.016786503 -0.008957881 -0.006827508 -0.01674219 -0.014629306 -0.0007122577 9.200396e-05 0.047343742
00000000: 4801 123d 2a02 0aba 3dd3 cdbb e8e7 1cba
00000010: 5444 9fb8 3229 23bc cff2 85ba 5717 51bb
00000020: 4cd2 91bb 2b13 e8bc e78a bdbc 5995 26bc
00000030: 63e6 95b9 6fd8 53bc ac5d 56bc 95aa a7ba
00000040: c0c6 bdbc 085b 293d 9b75 99bc c342 9abb
00000050: 44ee 04b8 6202 6abc 0019 95bc 6d91 8aba
00000060: 2a33 31bc ff3b 6d3d 17be 0bbb 16d3 a0bc
00000070: 083b 50bc 3116 29bb e25f 07ba 2209 b1bb
00000080: 8f92 01bb 2f17 bbbc f605 213d ed1b c5bc
00000090: cfb2 60bb 8afe 0bbb 4646 41bc 8632 bebb
000000a0: 5d25 a9bc 0e43 08bc dd55 39ba 8791 9cbc
000000b0: 3757 5fbc 1735 70bc 04b5 49ba ce96 17b8
000000c0: 7207 2ebc a4c0 adbb d139 3ebb 5ec3 2e3d
000000d0: 95e4 c9bb be59 83bc 6177 6abc 0e64 bebc
000000e0: 294c dc3c 78c2 aabb 2bb2 83ba 6465 7ab8
000000f0: 8090 96bc 1026 603c a720 b4bc ca8b a0ba
00000100: 004e e6bb c6f7 85ba fd78 91bb e5e9 9fb8
00000110: 7eee 453d 6c81 3bbb 8497 93bb ca9d 88b8
00000120: 5a59 0bbb be4c 7fb8 7385 07bc 233c 3cbc
00000130: 39ff c2bb 530a 5bbc e96b 78bc f945 8cbc
00000140: 53a2 83b9 7076 8dbc 11b4 b5bb 6b75 a6bc
00000150: e515 68b9 e33d 303d 613c 06bb 8d0b 7dbc
00000160: f478 0bbb c23d 5b3d 768e 7cbb 3b91 d4ba
00000170: dde9 53ba 8b02 203d 425a 2dbc 61f2 92bb
00000180: dc47 8abb 41c4 7cba 3a49 3abb f7f2 6ebc
00000190: 9ded a2bc 0232 d4b8 5dc0 4e3d 8aed acbc
000001a0: 4989 113d 43b9 60bb 3408 65ba cf87 5abc
000001b0: da8d 1cba 14cc dfba d1cf a4bc 7e4d b2bc
000001c0: bb5e 96bc 9d8d dcbb ca2c 7bbc 0aa9 a8b9
000001d0: 28ed 04bc 78da 3cbb 63a1 dfb9 5102 0d3d
000001e0: b918 32bc 04e9 a4bc 12a3 0abd 3fd1 5dbc
000001f0: c553 15bc 18cf 5abc ba56 0fba dacc 8bbc
00000200: 15d2 38bc fdc9 b8bc 389b 4ebc 56c9 b8bc
00000210: bfb4 bebc 8931 a5b9 43ec c2bc d8f7 50bc
00000220: 05d2 1c3d d336 ccbc 4f2f 58ba 5c13 0c38
00000230: b72a 87bc cfc6 efbb c06b 8fbc 88ff 5fbc
00000240: 19b1 b337 af12 feb9 37e8 2bb8 8f81 95bc
00000250: e5ab b8bc 3354 26bc c335 a8bb 20ac bdbb
00000260: 1c10 40bb 707b b93c 9926 c6bc fb00 5cba
00000270: f1df cbbc 9af1 e2bb ea71 50bc 0085 7abb
00000280: 45b7 1a3d 4f9b 49bc 4931 ecbb 621a abbc
00000290: e765 25bc 14e3 a1bc 25fc b8b9 7e54 59bc
000002a0: 3b10 8dba 3a4e 8cbc 5e54 2c3d 6643 a1bc
000002b0: e87b 7abc 7d83 3ebc 6ae3 99bb 5f3b 46bc
000002c0: cd0a dcbb a20a a9bc c323 603d 14d6 fdbb
000002d0: b68f c2bc 24fb 5cb9 0233 c2bc d411 033c
000002e0: 2a77 56bc f94b 94b8 bdb8 80ba bf11 313d
000002f0: e489 28bc cff5 ccba 4e19 60bc 89f8 22b8
00000300: dd1c 77ba 6b67 7fbb ea93 b9bc 333e 76bc
00000310: 03fe 7dbc 9b32 a435 7a6b 57bc b905 2fbc
00000320: 3f47 8637 96fe 9fbc e548 1ebc 1841 d5bc
00000330: d7b8 233d e03a 08bb ca35 09bd 97d3 97bb
00000340: 1017 3bbc 723b 3e3c 05dd a0bc 6a42 aebc
00000350: 1dfc 48bb 106a 8e3c 659f c1bc d00e a4bc
00000360: 1c64 ebb9 375b ccbb dfb8 253d 6caa 0b3d
00000370: 62a2 bfbc 156e 4b3d 6191 a1bb a004 01bd
00000380: b2e0 c5ba dd57 7fbc ffd5 a8b9 800a 91ba
00000390: e733 2eb7 4620 4aba a7ba 8cbc 991c 2bbb
000003a0: ad71 3dbc 9c7e 513d de1f a2bc b44c 86bc
000003b0: 1ad4 35bc 063c 35bc 1719 ef3c 888f 9dba
000003c0: be0b 863d 9853 e5bc 5113 86bc 99e2 2abc
000003d0: 83c5 09bb 650b b5bc a24e a5b7 07f0 25bc
000003e0: d983 89bc 13c4 12bc 4ab9 dfbb eb26 89bc
000003f0: c2af 6fbc ceb6 3aba 40f2 c038 83eb 413d

weight f4 [16, 24, 1, 2]
-0.8230768 0.25211936 -0.10916476 -0.21304154 -0.03720179 -0.034410514 -0.42798486 0.018555209
-0.031916406 -0.737376 0.10331095 -0.41397056 -0.0035971287 -0.06413071 0.055808384 0.19196883
0.017827498 0.021479603 -0.011345234 -1.0071305 -0.118270315 -0.026368696 -0.016964756 -0.011907228
-0.0019583874 -0.050450694 -0.04482707 0.22856423 -0.0024654386 0.020062933 -0.05422659 -0.27685392
0.014483612 0.104710065 -0.08734123 -0.17649657 -0.026316358 0.2030725 0.08974194 0.011791994
0.0997602 0.1945278 0.01341587 0.124524295 0.011325235 0.23249625 0.09207116 -0.012250694
0.081682146 -9.038093e-05 0.04955871 -0.041835196 -0.050462615 0.055513594 0.01075092 -0.05764303
0.009820153 -0.23252927 0.07436316 -0.5867341 -0.047096245 -0.063041806 0.07645534 0.024458643
0.20971143 0.12915131 0.14984068 -0.0034771308 -0.5705385 -0.037631176 -0.059412748 -0.015807567
0.101464994 -0.009446105 -0.09700916 0.006836527 -0.16878316 0.007951821 0.20801447 -0.27072713
-0.028836979 0.17122392 0.17464338 0.0420674 -0.048368 0.0368578 -0.04659359 0.012851769
-0.16659386 -0.047442287 0.3563683 0.03389311 -0.00835151 -0.025777353 0.05595039 -0.012611983
-0.28845218 -0.032386087 -0.22475556 0.019891888 -0.03268639 0.04356576 0.03947077 0.001315682
0.3053446 -0.16671702 -0.04545593 -0.9584978 -0.06225701 -0.2896225 -0.022498272 0.05633728
0.10548647 -0.009572364 -0.19325003 0.012182999 0.019252844 0.059131056 -0.36533287 0.029443806
0.27298987 0.021629531 -0.015233058 0.041657083 0.05069621 0.006853636 -0.16805425 -0.04084411
-0.07293536 -0.0092721125 -0.24153037 -0.03509826 0.18603258 -0.017573668 0.18509795 -0.023821896
0.23704062 0.037505038 0.15243652 0.03637526 -0.10216553 0.015093265 0.046492584 -0.06296138
-0.11537029 -0.02594212 -0.32683253 0.023737544 0.030869685 0.13536073 -0.35508654 0.03810268
-0.053598605 -0.29279938 -0.029314557 -0.26092967 0.04114208 0.019482236 -0.086342044 0.069785155
0.32881153 0.020376464 0.1532513 0.013404746 -0.2961412 -0.14659165 0.3312255 -0.047094386
0.06966341 0.00721972 0.0139258215 0.006874878 0.05784521 -0.0119757 -0.060331244 -0.26440018
-0.07642264 -0.020034079 0.17602848 0.02580899 0.14539906 -0.020852022 -0.027078088 0.03452155
-0.1694834 -0.03143435 -0.120456085 0.05849574 0.22821726 0.13582312 0.078426346 -0.052463662
0.19124573 0.1609714 0.17319132 0.12925175 -0.074413754 0.05050486 -0.29258946 0.02327869
-0.036431763 0.095773935 0.013917959 -0.09213826 0.035142805 -0.0558468 -0.00028720134 -0.33508456
0.02979606 0.0014910757 0.004993205 -0.0046026977 -0.06817143 -0.041960914 -0.11858784 -0.17738032
0.032118957 0.30730575 -0.02042295 0.18001129 0.0067968215 -0.017141987 -0.017204821 -0.09989668
0.031580325 0.12528862 -0.042495247 0.10053384 -0.019196514 -0.12061392 0.04669728 0.13565764
0.042393927 -0.107540905 0.009662742 -0.08314692 -0.017345583 -0.008346901 0.04735777 0.0152002
-0.13237654 0.13988818 -0.09528181 0.04749421 -0.035422806 0.21965793 -0.42017233 0.18033656
-0.026252784 -0.22513373 -0.10887182 -0.4961646 0.07284127 0.059447892 0.050627425 0.081326485
00000000: 29b5 52bf ca15 813e c691 dfbd 9027 5abe
00000010: e760 18bd 0af2 0cbd d520 dbbe 1801 983c
00000020: c7ba 02bd acc4 3cbf b194 d33d f3f3 d3be
00000030: cebd 6bbb f656 83bd 5597 643d 7a93 443e
00000040: f90a 923c fef5 af3c 5ce1 39bc a7e9 80bf
00000050: b537 f2bd 2a03 d8bc acf9 8abc 8916 43bc
00000060: 4a58 00bb 63a5 4ebd 979c 37bd be0c 6a3e
00000070: 3293 21bb 055b a43c b31c 5ebd ccbf 8dbe
00000080: ac4c 6d3c 3b72 d63d f5df b2bd 84bb 34be
00000090: 6795 d7bc 3df2 4f3e 9fca b73d 3533 413c
000000a0: 134f cc3d 4c32 473e 3dce 5b3c 9806 ff3d
000000b0: 7a8d 393c 7f13 6e3e ce8f bc3d 23b7 48bc
000000c0: f848 a73d e48a bdb8 13fe 4a3d 625b 2bbd
000000d0: e3b1 4ebd 3962 633d a024 303c 191b 6cbd
000000e0: b5e4 203c 271c 6ebe b64b 983d 3534 16bf
000000f0: fee7 40bd 101c 81bd 9e94 9c3d 7e5d c83c
00000100: 98be 563e 3e40 043e d66f 193e 93e0 63bb
00000110: d00e 12bf 2623 1abd c85a 73bd df7e 81bc
00000120: e1cc cf3d d6c3 1abc bdac c6bd f204 e03b
00000130: 7ed5 2cbe 5b48 023c bf01 553e bf9c 8abe
00000140: 873b ecbc 5355 2f3e b7d5 323e de4e 2c3d
00000150: 861d 46bd 34f8 163d ecd8 3ebd 3a90 523c
00000160: 9597 2abe d852 42bd e875 b63e 80d3 0a3d
00000170: c6d4 08bc 072b d3bc 3c2c 653d 7ea2 4ebc
00000180: 01b0 93be 46a7 04bd 5226 66be 50f4 a23c
00000190: 2ae2 05bd 0372 323d 1aac 213d f672 ac3a
000001a0: 2156 9c3e deb7 2abe ff2f 3abd 1d60 75bf
000001b0: 3501 7fbd 6649 94be 4c4e b8bc ebc1 663d
000001c0: 4a09 d83d 68d5 1cbc 56e3 45be 349b 473c
000001d0: 24b8 9d3c 6833 723d e90c bbbe 2334 f13c
000001e0: 54c5 8b3e 6a30 b13c 1394 79bc 9ea0 2a3d
000001f0: d4a6 4f3d 7794 e03b 6a16 2cbe 274c 27bd
00000200: 225f 95bd 0fea 17bc bd53 77be 31c3 0fbd
00000210: 537f 3e3e a7f6 8fbc 518a 3d3e 2326 c3bc
00000220: c7ba 723e e29e 193d 5218 1c3e 3afe 143d
00000230: 293c d1bd be49 773c 026f 3e3d e5f1 80bd
00000240: 4247 ecbd 9284 d4bc 9856 a7be 3d75 c23c
00000250: 6ce2 fc3c 019c 0a3e e7cd b5be 8e11 1c3d
00000260: 368a 5bbd cde9 95be 1525 f0bc 9398 85be
00000270: 9984 283d 3699 9f3c 19d4 b0bd 85eb 8e3d
00000280: fc59 a83e 8bec a63c e9ed 1c3e 949f 5b3c
00000290: d29f 97be 1f1c 16be 6496 a93e 0be6 40bd
000002a0: b1ab 8e3d 6793 ec3b 2129 643c a846 e13b
000002b0: 19ef 6c3d ba35 44bc e51d 77bd 765f 87be
000002c0: 7983 9cbd 821e a4bc cf40 343e 606d d33c
000002d0: 7ee3 143e dcd1 aabc ded2 ddbc 7866 0d3d
000002e0: 0e8d 2dbe 4ec1 00bd aeb1 f6bd 3b99 6f3d
000002f0: c9b1 693e 3715 0b3e fe9d a03d 23e4 56bd
00000300: ecd5 433e b0d5 243e 1159 313e 925a 043e
00000310: 3d66 98bd 2fde 4e3d 49ce 95be f4b2 be3c
00000320: 7939 15bd 2025 c43d 2708 643c fcb2 bcbd
00000330: e7f1 0f3d 9dbf 64bd 8393 96b9 3490 abbe
00000340: de16 f43c 3370 c33a 0a9e a33b 3ad2 96bb
00000350: 769d 8bbd 35df 2bbd 2ede f2bd 30a3 35be
00000360: 2b8f 033d 2e57 9d3e 084e a7bc e154 383e
00000370: dfb7 de3b 5a6d 8cbc 20f1 8cbc a196 ccbd
00000380: 5f5a 013d a94b 003e 7f0f 2ebd b0e4 cd3d
00000390: 0242 9dbc 6e04 f7bd a645 3f3d d6e9 0a3e
000003a0: 41a5 2d3d 683e dcbd 7a50 1e3c ef48 aabd
000003b0: 5318 8ebc 71c1 08bc 39fa 413d 420a 793c
000003c0: b78d 07be d93e 0f3e 1c23 c3bd 4a89 423d
000003d0: 8117 11bd 02ee 603e d420 d7be 26aa 383e
000003e0: 1410 d7bc 7589 66be 30f8 debd 4909 febe
000003f0: ce2d 953d a27f 733d b45e 4f3d 808e a63d

bias f4 [24]
-0.025591861 -0.10373759 -0.2172813 0.013140257 -0.24765591 0.14699852 0.05575584 0.8033544
-0.35013297 -0.15618998 0.053966146 0.2689298 0.2294275 0.38528425 1.215724 -0.15062283
0.2791237 -0.45422423 0.0383195 -0.3164646 0.43860635 0.19108765 0.07168905 -0.070282005
00000000: 06a6 d1bc 6074 d4bd fd7e 5ebe 3c4a 573c
00000010: 8399 7dbe c886 163e 3c60 643d a2a8 4d3f
00000020: a144 b3be 44f0 1fbe 9b0b 5d3d 2bb1 893e
00000030: 0bef 6a3e fa43 c53e d89c 9b3f df3c 1abe
00000040: 4de9 8e3e 1490 e8be e8f4 1c3d a607 a2be
00000050: 0391 e03e 7bac 433e b5d1 923d 03f0 8fbd

weight f4 [24, 32, 2, 1]
0.17229454 -0.40526453 0.0155282235 0.045031164 -0.090502605 -0.39707166 -0.23601405 -0.2619155
-1.0964513 -0.23709857 0.1079723 -0.79195976 0.0699722 0.25385737 -0.016028263 -0.26612365
-0.15440951 -0.050964702 0.07240367 0.027623987 -0.45719802 0.047248904 0.04287124 -0.7067181
0.12422655 -0.06175934 0.489753 0.30162787 0.17911509 -0.0035632546 -0.022288058 0.04333195
0.09279341 0.16669461 0.1427887 -0.08440167 0.06822164 -0.02967717 0.23844656 0.19361494
-0.68188184 0.09752196 -0.03920402 0.3008516 0.02045228 0.11807859 0.07919104 -0.06444783
-0.07246668 -0.041736998 0.10372401 -0.10364883 0.06712477 0.16950502 0.23869666 0.0024983902
-0.017967356 0.07596352 -0.01993304 0.08868108 0.07718793 0.0038678965 -0.04443903 -0.16564782
-0.117978305 -0.16908368 0.07636117 -0.08566827 -0.04931249 1.4104812 0.07221534 -0.10317323
-0.039656475 0.08291171 0.04057812 -0.5097549 0.018824548 -0.051557392 -0.05854658 -0.27840495
-0.105851136 0.07724108 0.1099395 -0.102177925 -0.4534885 0.006932651 0.122706935 0.7480416
-0.17659438 0.09737463 0.07773648 0.26619023 -0.0035924294 -0.104016885 0.008994799 -0.21469821
0.2658973 0.057852674 -0.111451425 0.23928544 0.028956205 -0.002913142 0.05639701 -0.029088946
-0.020405008 -0.009026052 -0.21749067 -0.24455756 -0.030760964 -0.057119783 0.12899289 0.07505087
-0.022302844 -0.019357745 -0.22095484 0.15742275 0.19245169 -0.25379145 0.12738758 0.13722481
0.10022885 0.07949184 -0.0653209 -0.00069956965 0.026696108 -0.086716615 -0.0018035662 0.46219215
0.20207871 0.03158685 0.03166528 -0.08968828 0.11984695 -0.515854 -0.08548126 -0.021575557
-0.4977793 0.14249398 0.15258785 -0.00656456 0.09928762 0.1376899 -0.08555417 -0.5943353
0.018172396 0.21726586 -0.028951338 0.068644576 0.025964582 0.13211377 0.07149731 -0.83688986
0.06407296 -0.06267949 -0.6556164 -0.055667922 -0.03919798 0.036273576 -0.042325612 0.0045249187
0.11316559 0.055699043 -0.045550697 -0.015132026 0.15383708 0.119205914 0.097115025 0.0043496494
0.15656483 0.117935576 0.047270667 -0.023553642 0.059126202 0.17154945 -0.03933841 0.006094893
-0.16152944 -0.034344133 -0.018434998 0.26037014 -0.11785389 -0.10992355 -0.27267906 -0.20160064
0.01174393 0.14598985 -0.11520015 -0.1548091 0.18764716 -0.13235405 0.11056851 -0.40246713
0.021164568 -0.22061774 0.10938714 -0.26649046 0.058599435 -1.2073388 0.17325746 -0.081069194
-0.046548665 -0.074171156 -0.15902834 -0.44502866 0.06527629 0.072081156 0.09578107 -0.23544629
-0.19297668 0.16894038 -0.060156517 0.24606267 0.04796 0.19253938 0.18535161 -0.21073472
0.02806752 -0.004681995 -0.56623167 0.0052485345 0.02628812 0.15430292 0.06366314 0.16394135
-0.14501476 0.11351789 -0.15829463 -0.042236302 -0.081587076 -0.11724612 0.17329562 0.10543052
-0.019242946 0.001421795 0.47730634 0.037148114 0.03826546 0.28863508 0.042735063 -0.10148692
-0.16011463 0.03425021 0.1849294 -0.119833276 -0.054150987 0.091330685 0.025664221 0.07639174
0.07348226 -0.13061422 0.052384198 0.07268504 -0.007966232 -0.17492007 -0.14569959 0.10711002
00000000: fb6d 303e d57e cfbe 176a 7e3c 9972 383d
00000010: 6e59 b9bd fa4c cbbe abad 71be ca19 86be
00000020: 8458 8cbf f8c9 72be 9520 dd3d e0bd 4abf
00000030: 964d 8f3d 98f9 813e b44d 83bc 5c41 88be
00000040: 871d 1ebe 5dc0 50bd 6048 943d b34b e23c
00000050: dc15 eabe 1188 413d c199 2f3d 7aeb 34bf
00000060: 7d6a fe3d 5df7 7cbd e8c0 fa3e f86e 9a3e
00000070: f269 373e 7e85 69bb 7295 b6bc d87c 313d
00000080: 790a be3d feb1 2a3e 3337 123e c8da acbd
00000090: cab7 8b3d 891d f3bc 562b 743e ff42 463e
000000a0: cf8f 2ebf 98b9 c73d 6594 20bd 3909 9a3e
000000b0: 8a8b a73c 30d3 f13d e92e a23d 39fd 83bd
000000c0: 6969 94bd 6af4 2abd 416d d43d d645 d4bd
000000d0: b678 893d b992 2d3e e66c 743e 08bc 233b
000000e0: 4730 93bc c392 9b3d 9d4a a3bc 6d9e b53d
000000f0: b514 9e3d 897c 7d3b b305 36bd 959f 29be
00000100: 9c9e f1bd 4624 2dbe 3f63 9c3d d972 afbd
00000110: e5fb 49bd a68a b43f a3e5 933d 7d4c d3bd
00000120: d46e 22bd 9dcd a93d 3e35 263d 4c7f 02bf
00000130: f035 9a3c d82d 53bd 8ace 6fbd 188b 8ebe
00000140: 7bc8 d8bd 9230 9e3d f627 e13d a942 d1bd
00000150: a52f e8be 4b2b e33b c64d fb3d a87f 3f3f
00000160: 28d5 34be 5a6c c73d 4e34 9f3d 164a 883e
00000170: f76e 6bbb ce06 d5bd ec5e 133c d9d9 5bbe
00000180: b123 883e edf6 6c3d a540 e4bd 3e07 753e
00000190: 9035 ed3c 6aea 3ebb 8d00 673d f14b eebc
000001a0: 6728 a7bc 02e2 13bc e0b5 5ebe 4c6d 7abe
000001b0: 6bfe fbbc 6ff6 69bd b616 043e 45b4 993d
000001c0: 74b4 b6bc 2294 9ebc fc41 62be 6e33 213e
000001d0: 0e12 453e f4f0 81be e471 023e a984 0c3e
000001e0: c944 cd3d 9ecc a23d f7c6 85bd 5363 37ba
000001f0: ccb1 da3c 7b98 b1bd a465 ecba 73a4 ec3e
00000200: b9ed 4e3e 3661 013d 74b3 013d 7dae b7bd
00000210: 5172 f53d 020f 04bf cd10 afbd 39bf b0bc
00000220: eedc febe f1e9 113e fd3f 1c3e 851b d7bb
00000230: 4f57 cb3d 95fe 0c3e 0637 afbd 5c26 18bf
00000240: 47de 943c f17a 5e3e 5b2b edbc 8795 8c3d
00000250: adb3 d43c d548 073e 2f6d 923d 6a3e 56bf
00000260: af38 833d 1b5e 80bd 7ad6 27bf 0c04 64bd
00000270: 108e 20bd 9a93 143d 9f5d 2dbd c545 943b
00000280: 5cc3 e73d ae24 643d 5e93 3abd 51ec 77bc
00000290: 7887 1d3e 3b22 f43d 3ee4 c63d 8187 8e3b
000002a0: 8852 203e 3588 f13d e39e 413d 91f3 c0bc
000002b0: 512e 723d a9aa 2f3e 5021 21bd abb7 c73b
000002c0: f967 25be 6fac 0cbd fe04 97bc 3c4f 853e
000002d0: 615d f1bd 991f e1bd 979c 8bbe 6670 4ebe
000002e0: 9d69 403c 5d7e 153e 0eee ebbd 4786 1ebe
000002f0: 9426 403e d287 07be be71 e23d 2c10 cebe
00000300: 5161 ad3c 9ee9 61be 5d06 e03d 7071 88be
00000310: f605 703d 148a 9abf 676a 313e 9b07 a6bd
00000320: d0a9 3ebd 0ce7 97bd 53d8 22be ccda e3be
00000330: 93af 853d 499f 933d de28 c43d d518 71be
00000340: ae9b 45be b5fe 2c3e ae66 76bd daf7 7b3e
00000350: b471 443d 0b29 453e d0cc 3d3e d8ca 57be
00000360: dbed e53c 6c6b 99bb 8ff4 10bf e6fb ab3b
00000370: 2f5a d73c 9601 1e3e d261 823d 3ee0 273e
00000380: c07e 14be 117c e83d fd17 22be f9ff 2cbd
00000390: 2017 a7bd bc1e f0bd 6874 313e f5eb d73d
000003a0: 62a3 9dbc 865b ba3a 7f61 f43e 9f28 183d
000003b0: 3ebc 1c3d fac7 933e f60a 2f3d 60d8 cfbd
000003c0: 17f5 23be f349 0c3d 225e 3d3e 266b f5bd
000003d0: 6dcd 5dbd 950b bb3d c63d d23c 4673 9c3d
000003e0: de7d 963d bcbf 05be d090 563d e5db 943d
000003f0: cc84 02bc 3f1e 33be 4632 15be 805c db3d

bias f4 [32]
-0.009210399 -0.14419664 0.025277292 -0.092328474 -0.33281934 -0.18174551 -0.17044152 -0.0036154178
-0.07258417 -0.10388868 -0.15566476 0.5576335 0.061482385 -0.108938396 -0.19041638 -0.17347124
0.32758042 0.15806253 -0.36756003 -0.07830128 -0.1708402 -0.4077619 0.17265822 -0.12065288
0.30186012 0.27981502 -0.31369194 -0.23888426 -0.054507796 0.071846075 0.043523483 0.24413788
00000000: 37e7 16bc 49a8 13be 5312 cf3c b616 bdbd
00000010: 4c67 aabe 7f1b 3abe 3988 2ebe a5f0 6cbb
00000020: 02a7 94bd 97c3 d4bd 9566 1fbe 12c1 0e3f
00000030: f4d4 7b3d 181b dfbd 83fc 42be 72a2 31be
00000040: 9fb8 a73e 25db 213e d430 bcbe 6c5c a0bd
00000050: bcf0 2ebe 2bc6 d0be 51cd 303e db18 f7bd
00000060: 698d 9a3e ea43 8f3e 3b9c a0be 139e 74be
00000070: 9143 5fbd 0924 933d ae45 323d 48ff 793e

beta f4 [32]
0.97557604 1.229832 0.91593194 0.6740695 0.23003213 0.49038184 0.98770607 1.0030626
0.63904285 0.73478365 1.1312255 0.53058803 0.9438707 0.86924195 0.873819 0.35994962
0.58060014 0.72164124 0.6063703 0.61294824 0.40548888 0.52691704 0.8174561 0.92396325
0.95378274 0.579268 1.0144014 0.62560976 0.5549068 0.7989443 0.8045132 0.9031198
00000000: 5abf 793f 236b 9d3f 847a 6a3f d28f 2c3f
00000010: 8b8d 6b3e 5413 fb3e 4eda 7c3f 5b64 803f
00000020: 5098 233f c81a 3c3f ffcb 903f 9ed4 073f
00000030: 83a1 713f a486 5e3f 9ab2 5f3f 514b b83e
00000040: 36a2 143f 7bbd 383f 153b 1b3f 2dea 1c3f
00000050: 3d9c cf3e 09e4 063f ce44 513f db88 6c3f
00000060: 1b2b 743f e84a 143f e8d7 813f f627 203f
00000070: 5f0e 0e3f 9d87 4c3f 94f4 4d3f dc32 673f

gamma f4 [32, 32]
0.21074547 -0.0124047445 -0.017244166 -0.0016654596 -0.0023920445 -0.0021940444 0.030586174 -0.0019242191
0.11808982 0.16947651 -4.8514317e-05 -0.0017161083 -0.011575917 -0.0067358934 0.025337098 -0.001365541
-0.017367328 -0.001957505 -0.0022288794 -0.019892704 0.06350618 9.272468e-06 -0.0017126533 0.13027585
-0.028468959 -0.0007648421 -0.000573789 -0.021241741 -0.013145198 -0.01758799 -0.02133874 -0.00016937472
5.1542966e-06 0.22958463 0.2762917 -0.00065638596 -0.011662479 -0.0017704897 -0.0045017065 -0.0004052039
-0.011351083 0.30151114 -0.014348751 0.09553525 0.012521866 -0.017106434 -0.00093611184 -0.0075192545
0.08211969 -0.0001580236 -0.012915441 0.112502545 -0.0050907084 -0.016324831 0.2094162 -0.0002994558
-0.017972007 -0.0003360677 -0.0151535 -0.01070968 -0.01652796 -0.0001528777 -0.00034829776 -0.020728149
-0.0004210682 -0.02342552 0.2953585 -0.010667262 -0.020909697 0.38430446 -0.0026520682 -0.0025132056
-5.87535e-06 0.4225166 -9.2522714e-05 -0.025600618 -0.0008918733 -0.015633315 -0.010587748 -0.004886966
-0.005013476 -0.01679011 0.3956705 -0.017787727 -0.009053675 -0.0037132262 0.42833316 -0.00017014796
4.5994175e-06 -0.0072661336 -0.011221438 -0.00021857573 -0.010470025 0.041474745 -0.02189369 -0.00711408
-0.015536 -0.026829185 -0.0044941623 0.19109626 -5.645169e-05 0.2962004 -3.3345328e-05 -0.019194411
-0.005567234 -0.0017812122 -0.007626693 -0.028221123 -2.1343707e-05 -0.015926095 -0.03272005 -0.0062523885
0.11497481 -0.024788605 -0.010054618 -0.015621149 -0.0060204845 0.07860435 -0.0038861858 -0.023227165
-0.007844508 -0.019531202 -0.0072988407 -0.0002508558 -0.017405018 -0.00046910252 -9.1785136e-05 -0.016518915
0.14534333 -0.02281282 -0.0012600042 -0.0022443354 0.21073435 0.10709552 -0.0008708189 -0.0011073818
-0.018903034 -0.00028624575 -0.0074834917 3.858319e-06 -0.015154038 -0.024533113 -0.021825632 -0.026159314
-0.011076419 -0.024748353 -0.026359867 -0.014357652 -0.008701024 -0.0017849505 -0.014193803 -0.0003969678
-0.019834701 -0.020011367 0.09689611 0.09391382 -0.011313362 -0.00023878642 -0.0078682015 -0.02085469
-0.008423221 -0.018381864 -0.009288682 -0.01384703 -4.1745778e-05 0.25219455 -0.00084993953 0.20511474
-0.0021338493 -0.02406216 -0.0065309596 -1.2988513e-05 -0.0030697421 -0.01683288 0.1109327 -0.020462172
-0.0229075 -0.00036778164 -0.022458067 -0.016072785 -0.012712282 -0.017481627 0.19906223 -0.0011458083
-0.021398004 0.012175404 0.023291323 -0.0011084689 -0.0140983835 0.04423948 -0.0127424635 0.29467067
-0.004485162 -0.012799507 -0.007675474 0.14027923 -2.095318e-05 -0.009016005 0.21640629 -0.014579704
-0.0010429852 -0.024466489 -0.03118536 -0.014040918 -0.014774019 -0.0021877345 -0.0012361296 -0.019626174
-0.00046952092 -0.00027888973 -0.002345267 -0.004632697 -0.005492193 -0.0014866191 -0.0023753128 -0.000260754
-0.0027275097 -0.013475422 -0.001046574 -0.024545142 -0.0028331238 -0.005980755 -0.013470949 -0.0066203196
-0.007696036 -0.008779722 0.16182029 -0.012457198 1.0839864e-05 -0.0114531955 0.14314236 0.23516811
-0.0020045193 -0.0010094959 -0.0029682172 -4.7479734e-05 -0.01450011 -0.019541543 -0.015405353 -0.02069981
-2.4557512e-05 -0.021947868 -0.000926343 -0.00014574452 -0.008463776 -0.0010347791 -0.010160932 0.12217139
0.0008853786 -0.0012736557 -0.024291316 -0.0023395321 -0.009839071 -0.002878594 -0.008469425 0.19169563
00000000: a9cd 573e 453d 4bbc a343 8dbc 8d4b daba
00000010: d9c3 1cbb f5c9 0fbb db8f fa3c 1436 fcba
00000020: 13d9 f13d 408b 2d3e da7b 4bb8 0aef e0ba
00000030: eaa8 3dbc c5b8 dcbb bf8f cf3c f4fb b2ba
00000040: ed45 8ebc 7c49 00bb 6412 12bb 06f6 a2bc
00000050: 870f 823d f290 1b37 1c7b e0ba 0867 053e
00000060: bc37 e9bc af7f 48ba 546a 16ba 2903 aebc
00000070: f55e 57bc b014 90bc 95ce aebc 2e9a 31b9
00000080: 12f3 ac36 3c18 6b3e 1b76 8d3e 5111 2cba
00000090: fb13 3fbc c70f e8ba 0d83 93bb 8c71 d4b9
000000a0: e5f9 39bc ab5f 9a3e 0617 6bbc fca7 c33d
000000b0: 8328 4d3c cb22 8cbc 6765 75ba 1464 f6bb
000000c0: 5e2e a83d 23b3 25b9 499b 53bc bc67 e63d
000000d0: f5cf a6bb a7bb 85bc 3371 563e 4700 9db9
000000e0: 083a 93bc 3e32 b0b9 6346 78bc a777 2fbc
000000f0: a565 87bc cc4d 20b9 bc9b b6b9 14ce a9bc
00000100: d1c2 dcb9 e0e6 bfbc 3b39 973e bdc5 2ebc
00000110: d04a abbc 8ec3 c43e 52ce 2dbb 98b4 24bb
00000120: df24 c5b6 1954 d83e c108 c2b8 63b8 d1bc
00000130: 9bcc 69ba 7011 80bc 3c78 2dbc d822 a0bb
00000140: 1648 a4bb 6a8b 89bc 5395 ca3e 91b7 91bc
00000150: de55 14bc 9959 73bb 7c4e db3e bf69 32b9
00000160: b254 9a36 bf18 eebb 1fda 37bc 7a31 65b9
00000170: 788a 2bbc 6ce1 293d 655a b3bc 3a1d e9bb
00000180: b58a 7ebc e1c8 dbbc c443 93bb bdae 433e
00000190: 8ac6 6cb8 94a7 973e 46dc 0bb8 993d 9dbc
000001a0: 586d b6bb 9077 e9ba 57e9 f9bb fc2f e7bc
000001b0: 430b b3b7 7177 82bc 7605 06bd d6e0 ccbb
000001c0: ea77 eb3d 7911 cbbc 20bc 24bc d9ef 7fbc
000001d0: 7c47 c5bb 51fb a03d 61af 7ebb e546 bebc
000001e0: 4086 00bc e6ff 9fbc 1d2b efbb 4c85 83b9
000001f0: f894 8ebc e0f1 f5b9 c57c c0b8 ad52 87bc
00000200: e2d4 143e f3e1 babc ba26 a5ba b315 13bb
00000210: bfca 573e e554 db3d ab47 64ba 9125 91ba
00000220: 89da 9abc 4113 96b9 1438 f5bb b576 8136
00000230: a448 78bc abf9 c8bc abcb b2bc 0f4c d6bc
00000240: de79 35bc 0fbd cabc a6f0 d7bc 5b3c 6bbc
00000250: bd8e 0ebc 00f5 e9ba 208d 68bc 1e20 d0b9
00000260: 627c a2bc e1ee a3bc 7871 c63d e455 c03d
00000270: ae5b 39bc be62 7ab9 a1e9 00bc 74d7 aabc
00000280: 8d01 0abc 9095 96bc 8e2f 18bc a7de 62bc
00000290: 3018 2fb8 a51f 813e 7ace 5eba 9909 523e
000002a0: 0dd8 0bbb 021e c5bc a901 d6bb 3de9 59b7
000002b0: ba2d 49bb 1ce5 89bc af30 e33d 49a0 a7bc
000002c0: 82a8 bbbc d1d2 c0b9 fbf9 b7bc 13ab 83bc
000002d0: 2d47 50bc a135 8fbc f8d6 4b3e f22e 96ba
000002e0: de4a afbc 587b 473c 72cd be3c 0b4a 91ba
000002f0: e8fc 66bc 7534 353d c4c5 50bc 13df 963e
00000300: 44f8 92bb 06b5 51bc 8b82 fbbb 5ca5 0f3e
00000310: 9dc4 afb7 deb7 13bc 9c99 5d3e b6df 6ebc
00000320: c7b4 88ba f26d c8bc 7178 ffbc e10b 66bc
00000330: ba0e 72bc 1860 0fbb a005 a2ba 12c7 a0bc
00000340: 082a f6b9 f237 92b9 0db3 19bb e1cd 97bb
00000350: dbf7 b3bb a9da c2ba 23ab 1bbb cfb5 88b9
00000360: 05c0 32bb 04c8 5cbc 322d 89ba e512 c9bc
00000370: eeab 39bb 36fa c3bb 41b5 5cbc 44ef d8bb
00000380: 072f fcbb d3d8 0fbc 38b4 253e 4719 4cbc
00000390: dddc 3537 2fa6 3bbc e993 123e e9cf 703e
000003a0: 415e 03bb 1051 84ba 6c86 42bb fa24 47b8
000003b0: df91 6dbc 9615 a0bc bc66 7cbc a692 a9bc
000003c0: db00 ceb7 04cc b3bc d4d5 72ba ffd2 18b9
000003d0: a6ab 0abc 6da1 87ba 0a7a 26bc fe34 fa3d
000003e0: c118 683a cbf0 a6ba 95fe c6bc d652 19bb
000003f0: 0e34 21bc cba6 3cbb 58c3 0abc dc4b 443e

weight f4 [32, 48, 1, 2]
0.381222 -0.12278935 -0.15073274 0.005844844 -0.2775832 -0.23343885 0.013255453 -0.10715363
0.042523663 -0.08213858 0.21386477 0.08891335 -0.20845115 -0.12638406 -0.06832637 -0.05847863
0.030381644 -0.056294158 -0.79960114 -0.06940067 0.2871509 0.03804051 0.047109663 0.11499916
0.0034122402 -0.034561332 0.025984539 0.22577152 0.013316598 -0.3242542 -0.07554261 -0.39496297
0.013016076 -0.0006833699 0.16841252 -0.08527737 -0.031399857 0.17842852 -0.013912335 -0.02599663
0.31759593 0.10190611 0.043405447 -0.20612825 0.19532745 0.028846316 0.0055237478 0.03759547
0.112795494 0.046354294 0.2661043 0.36261934 0.0322716 0.09697801 -0.26269552 0.08310087
-0.1420832 -0.11389149 0.07529284 0.21565321 0.20172495 -0.10708062 -0.05104117 -0.12524313
0.074469306 -0.36333084 -0.059326548 0.15357454 -0.41298422 -0.06395314 0.049425144 0.16326793
0.18236616 0.28121644 -0.2220246 0.16226096 -0.19490133 -0.6063128 0.16443112 0.2185082
-0.42018652 -0.109353185 0.06520036 -0.12811589 -0.18666661 -0.25522864 0.07871509 0.043449614
0.047352854 -0.11471788 0.10700305 0.013628517 -0.17677617 -0.031358868 0.10202263 0.24278443
-0.18889791 -0.077353045 0.07160867 -0.12411561 0.07792304 0.028837686 0.13825111 -0.04655086
0.08106125 0.5156645 0.056911193 -0.44624096 -0.20667027 -0.15668727 0.08041924 -0.08430766
-0.03169117 0.010958176 0.07928467 0.1455992 0.007856694 0.035352346 0.099265754 -0.0023218798
0.029806152 0.1180311 0.05865608 -0.015276855 -0.059446137 0.10336833 0.11255862 0.18303935
-0.011593789 -0.014583011 0.25917026 -0.11625297 -0.100773975 -0.20636642 0.39815205 0.32528687
-0.001584037 0.037752677 0.057221726 -0.08748464 -0.16470371 -0.30616373 -0.08981583 -0.09047393
0.025421891 0.03914193 0.059229974 0.03353528 0.021879949 0.016602548 -0.06910053 0.036027793
0.13942704 0.01204735 0.050900813 -0.21177197 0.29808965 -0.06424325 0.050710224 0.07835602
0.05384819 0.12790301 0.2166011 0.27179292 0.008627988 -0.13495478 -0.14187758 -0.058039293
-0.07853319 -0.012997267 0.14340076 -0.042416923 0.22508265 -0.03861446 0.12608837 0.17185105
-0.012686395 -0.18817183 -0.16842309 0.0713464 -0.040944796 0.17829278 -0.12210591 0.060330153
0.015425616 0.008413067 0.0013196156 0.0031078672 -0.018703593 0.1214605 -0.4240787 0.1303175
0.060804676 -0.12158868 -0.054047033 0.13651815 -0.24276245 0.047132775 0.2058392 -0.05598605
0.028901517 -0.10235937 -0.16435099 0.05612222 -0.16521503 0.28417715 -0.6818939 -0.2220093
-0.1459648 0.098629706 0.196419 0.24474616 -0.3067635 0.22958212 -0.17696624 0.049035773
-0.048331663 0.057533063 -0.22443801 0.04714016 0.3194598 0.051430907 -0.26165527 -0.13402821
-0.03284204 0.06296937 -0.042578403 -0.023679951 0.07796958 0.22315124 0.13558957 -0.05427988
0.07645652 0.23224248 0.08750239 -0.34113267 -0.09071275 0.03347141 -0.5760678 -0.086165324
0.0020065068 -0.17413819 -0.29950723 -0.37078166 -0.10271216 0.046754096 0.2111858 -0.031718053
-0.11759667 -0.12649947 0.05869622 -0.19805893 0.15581849 0.0027987303 0.4681255 -0.097956866
00000000: 882f c33e fc78 fbbd af59 1abe 1b86 bf3b
00000010: 631f 8ebe 980a 6fbe 662d 593c 5d73 dbbd
00000020: 4b2d 2e3d 4638 a8bd 5eff 5a3e 3418 b63d
00000030: 3874 55be d36a 01be b2ee 8bbd 4a87 6fbd
00000040: ede2 f83c b494 66bd a9b2 4cbf f021 8ebd
00000050: 7105 933e 5ed0 1b3d 10f6 403d ae84 eb3d
00000060: e49f 5f3b 2f90 0dbd 87dd d43c a630 673e
00000070: dc2d 5a3c a604 a6be 15b6 9abd 9638 cabe
00000080: 6141 553c 2d24 33ba 5574 2c3e e7a5 aebd
00000090: 239d 00bd f7b5 363e 90f0 63bc e2f6 d4bc
000000a0: ef9b a23e 27b4 d03d e9c9 313d 4913 53be
000000b0: eb03 483e 1c4f ec3c 8e00 b53b b5fd 193d
000000c0: 5301 e73d 00de 3d3d d33e 883e 3ea9 b93e
000000d0: 3a2f 043d 689c c63d 0780 86be ca30 aa3d
000000e0: 427e 11be f13f e9bd 2233 9a3d 32d4 5c3e
000000f0: fc90 4e3e 164d dbbd 8c10 51bd bc3f 00be
00000100: 5d83 983d 8006 babe 6500 73bd a542 1d3e
00000110: ab72 d3be ddf9 82bd 0572 4a3d b52f 273e
00000120: 32be 3a3e 9afb 8f3e 6b5a 63be bd27 263e
00000130: 3794 47be 5137 1bbf a260 283e 9dc0 5f3e
00000140: b022 d7be 90f4 dfbd c487 853d d030 03be
00000150: 8825 3fbe 54ad 82be 6135 a13d 39f8 313d
00000160: 11f5 413d 35f1 eabd 6a24 db3d 254a 5f3c
00000170: d004 35be 2872 00bd 3ef1 d03d 7b9c 783e
00000180: 746e 41be 466b 9ebd 91a7 923d 5330 febd
00000190: 1d96 9f3d 033d ec3c b391 0d3e 1dac 3ebd
000001a0: 7103 a63d 9702 043f b61b 693d b279 e4be
000001b0: 5fa1 53be a172 20be d8b2 a43d 7fa9 acbd
000001c0: 9ace 01bd ec89 333c 0060 a23d f517 153e
000001d0: 5db9 003c 9fcd 103d d84b cb3d ae2a 18bb
000001e0: 082c f43c 4aba f13d 5c41 703d c64b 7abc
000001f0: cb7d 73bd c6b2 d33d 2285 e63d ab6e 3b3e
00000200: e0f3 3dbc 95ed 6ebc f7b1 843e 0a16 eebd
00000210: 9662 cebd b851 53be 96da cb3e 008c a63e
00000220: 769f cfba 8da2 1a3d 5461 6a3d 262b b3bd
00000230: 17a8 28be 7ec1 9cbe 5df1 b7bd 654a b9bd
00000240: 9241 d03c 4a53 203d 219b 723d 4a5c 093d
00000250: 943d b33c 1102 883c 9484 8dbd e191 133d
00000260: f6c5 0e3e 4062 453c 5f7d 503d c0da 58be
00000270: 359f 983e f791 83bd 86b5 4f3d 1f79 a03d
00000280: eb8f 5c3d 02f9 023e aecc 5d3e 7128 8b3e
00000290: 685c 0d3c 9631 0abe 5b48 11be 9cba 6dbd
000002a0: 02d6 a0bd 7df2 54bc a6d7 123e 5ebd 2dbd
000002b0: 117c 663e 322a 1ebd 4f1d 013e b9f9 2f3e
000002c0: 99da 4fbc 1eb0 40be 1a77 2cbe 101e 923d
000002d0: bbb5 27bd 6292 363e aa12 fabd c01c 773d
000002e0: b9bb 7c3c f6d6 093c f4f6 ac3a 5cad 4b3b
000002f0: 4738 99bc 48c0 f83d d820 d9be f371 053e
00000300: 530e 793d 7c03 f9bd 6c60 5dbd 6acb 0b3e
00000310: b896 78be 4c0e 413d 83c7 523e a151 65bd
00000320: e0c2 ec3c caa1 d1bd a04b 28be 6ae0 653d
00000330: 212e 29be ab7f 913e 9990 2ebf 6856 63be
00000340: cc77 15be 5ffe c93d 1022 493e bd9e 7a3e
00000350: 1b10 9dbe 9317 6b3e a336 35be bcd9 483d
00000360: 6cf7 45bd caa7 6b3d 14d3 65be 0a16 413d
00000370: 3c90 a33e 37a9 523d aef7 85be b13e 09be
00000380: 6085 06bd 16f6 803d b166 2ebd 75fc c1bc
00000390: 84ae 9f3d c281 643e fed7 0a3e 9454 5ebd
000003a0: 3c95 9c3d f9d0 6d3e 7434 b33d f1a8 aebe
000003b0: 9bc7 b9bd 5119 093d 2e79 13bf 7277 b0bd
000003c0: 997f 033b 4851 32be 0359 99be 18d7 bdbe
000003d0: c15a d2bd 3981 3f3d 1741 583e caea 01bd
000003e0: 86d6 f0bd 1489 01be 736b 703d f6cf 4abe
000003f0: e28e 1f3e e76a 373b 25ae ef3e 9c9d c8bd

bias f4 [48]
0.07333546 0.0733013 0.28053054 -0.085851476 -0.0024892597 0.0039501535 0.051590104 0.004176444
0.09528573 0.18200111 0.14254133 -0.014884205 -0.01050172 0.09262592 0.023572193 -0.029160539
0.04023191 0.0727754 -0.04953763 -0.015451339 -0.08128274 -0.054692686 -0.05310698 -0.06863269
0.12809324 -0.028100984 -0.12991096 0.029511875 0.11314849 0.11559266 0.13829182 0.05998333
-0.04865476 0.077784814 -0.05570945 -0.11299056 -0.05517551 -0.017598845 0.08749163 -0.20751922
0.09319449 -0.027868573 0.025084272 -0.03587175 0.02372278 0.010615731 0.06767986 -0.109409735
00000000: e730 963d fe1e 963d b3a1 8f3e e6d2 afbd
00000010: d922 23bb 4a70 813b 2550 533d 8dda 883b
00000020: 2a25 c33d 805e 3a3e 5bf6 113e e1dc 73bc
00000030: 680f 2cbc a9b2 bd3d 791a c13c 15e2 eebc
00000040: 37ca 243d 450b 953d f8e7 4abd 9d27 7dbc
00000050: 9177 a6bd 7005 60bd b486 59bd 4c8f 8cbd
00000060: e02a 033e 0934 e6bc 6107 05be e3c2 f13c
00000070: 65ba e73d d8bb ec3d 5f9c 0d3e 15b1 753d
00000080: 374a 47bd a54d 9f3d 982f 64bd 9867 e7bd
00000090: b7ff 61bd 742b 90bc d02e b33d eb7f 54be
000000a0: c1dc be3d a24c e4bc 887d cd3c 42ee 12bd
000000b0: 4756 c23c 9aed 2d3c bd9b 8a3d 3612 e0bd

weight f4 [48, 64, 2, 1]
-0.18293153 -0.059148442 0.068570256 0.007990548 -0.021781094 -0.07723649 -0.31710106 -0.26800513
0.05448133 0.17771806 0.13743229 -0.17743371 0.08842989 -0.27558056 -0.012234226 -0.08503395
-0.007747677 0.07624197 -0.08946997 -0.12170354 0.0043292562 0.04629828 0.26907137 0.018004877
-0.20827381 -0.099724516 -0.19617546 -0.06371854 -0.2566119 -0.055397972 0.20797387 -0.29048225
-0.24461493 0.07287877 0.19074759 0.04257478 0.30709732 -0.53058094 -0.33668023 -0.10530925
0.12365602 0.22598714 -0.044331394 -0.060653508 0.6766557 0.16928494 -0.3238209 0.22869563
0.022478743 0.035625376 -0.18713595 0.19757949 0.20193507 0.0674368 -0.01811845 -0.19096981
0.040889386 0.078037426 0.18698503 0.07284219 -0.19996366 0.024379425 -0.027738547 0.009323538
0.023729522 0.16444585 -0.8584648 0.17111929 0.026577603 0.010563302 -0.33405185 -0.025227604
0.16043466 0.09063881 0.25314733 -0.059287038 -0.50831616 -0.18168928 0.19354725 0.42151922
0.22930594 0.23620215 0.20412624 0.10140394 0.11291561 -0.030797167 0.04669251 -0.26280552
-0.0690818 0.079590365 -0.031920947 -0.13650157 -0.102626294 -0.075280115 -0.272539 0.124713235
0.06927407 0.02837536 0.14785239 0.19373287 0.013188814 -0.044560935 -0.28612933 -0.4815564
0.07527303 -0.06129817 0.13218825 0.069503754 -0.20914514 0.16997415 -0.21827641 -0.053424913
-0.020510161 -0.07258318 -0.15342608 -0.013941838 0.060418375 0.04332396 -0.13218457 0.07093753
-0.012485021 0.009357935 -0.19974436 0.07846467 -0.06753 -0.052649226 -0.043542407 -0.10983123
0.03868885 0.1525912 -0.045575727 0.039867345 -0.08083236 -0.12290274 -0.22851725 0.084546134
0.14770493 0.047656346 -0.04327707 -0.07965081 0.06896114 -0.02578124 -0.026829034 0.25264838
-0.04420061 0.16790088 0.03452551 0.009431635 -0.11525699 -0.13549174 0.07530947 -0.0323937
-0.024068858 -0.14833851 -0.00938321 -0.00878363 -0.10409997 0.047713373 -0.02944776 0.7200348
0.5453121 0.07117734 0.13765223 -0.30876338 -0.022715071 -0.48366967 -0.1512528 -0.163849
-0.047008164 0.34574646 0.022478037 0.08423406 -0.5402817 -0.25263637 0.24131435 0.17077658
-0.050035313 0.028054088 0.096510954 -0.20587468 0.044104714 -0.025293535 0.06473006 0.0067802463
-0.025861721 -0.079290174 -0.0733189 -0.118642755 -0.07301411 -0.0491787 -0.012613696 0.0455876
0.22118089 0.26169345 0.36442575 -0.04108907 0.016912075 0.05014561 0.38782635 0.2824448
0.07485871 -0.30986303 -0.3868546 0.049579527 0.0558722 -0.21482107 0.19829062 0.47322673
-0.052186336 -0.01913485 0.042183038 0.12877049 0.1638342 0.5236625 0.052846074 -0.11283682
-0.05371184 0.13887082 -0.030190598 0.13435999 0.061401263 -0.038586825 0.05823197 0.23500864
0.00046183163 0.16882822 -0.20964456 -0.43719655 0.087483734 0.06549001 0.051976595 -0.090833135
0.32699245 0.06560598 0.024591906 -0.19473775 -0.009695002 -0.027429802 0.35908994 0.024832148
0.14959456 0.26909482 -0.03678579 -0.095337704 -0.001872941 -0.008121865 -0.055773564 0.23491514
-0.07869683 0.24957918 -0.036824875 0.18741542 -0.09970308 -0.19323027 -0.23227343 0.037987396
00000000: 6752 3bbe a345 72bd 906e 8c3d caea 023c
00000010: 446e b2bc 2a2e 9ebd 125b a2be f837 89be
00000020: d127 5f3d b9fb 353e 0dbb 0c3e 2fb1 35be
00000030: bb1a b53d e518 8dbe 1072 48bc 4826 aebd
00000040: 3ae0 fdbb c024 9c3d 083c b7bd b53f f9bd
00000050: 6fdc 8d3b 44a3 3d3d b9c3 893e f77e 933c
00000060: bb45 55be 5e3c ccbd 38e2 48be de7e 82bd
00000070: a362 83be fce8 62bd 1af7 543e 17ba 94be
00000080: 567c 7abe 7741 953d 5653 433e e462 2e3d
00000090: dc3b 9d3e 27d4 07bf 5a61 acbe 60ac d7bd
000000a0: 5e3f fd3d 2c69 673e d694 35bd d06f 78bd
000000b0: 4f39 2d3f 0859 2d3e dacb a5be 302f 6a3e
000000c0: 5725 b83c eaeb 113d 91a0 3fbe 4752 4a3e
000000d0: 11c8 4e3e 4e1c 8a3d 256d 94bc 978d 43be
000000e0: a17b 273d 16d2 9f3d 0179 3f3e 492e 953d
000000f0: 46c3 4cbe 5cb7 c73c f33b e3bc c1c1 183c
00000100: 6a64 c23c 7e64 283e 59c4 5bbf e539 2f3e
00000110: 46b9 d93c b311 2d3c d808 abbe 1faa cebc
00000120: fc48 243e d7a0 b93d 879c 813e f7d6 72bd
00000130: 0221 02bf c10c 3abe 4031 463e 5ed1 d73e
00000140: 2dcf 6a3e fade 713e 7806 513e deac cf3d
00000150: 4d40 e73d 574a fcbc a540 3f3d 728e 86be
00000160: c27a 8dbd 4600 a33d 8abf 02bd 11c7 0bbe
00000170: bc2d d2bd 762c 9abd 3b8a 8bbe a769 ff3d
00000180: 90df 8d3d 7173 e83c 9e66 173e e961 463e
00000190: e515 583c 8785 36bd 8b7f 92be 8f8e f6be
000001a0: bf28 9a3d ca13 7bbd 5b5c 073e fc57 8e3d
000001b0: 252a 56be b40d 2e3e da83 5fbe 15d4 5abd
000001c0: ed04 a8bc 7ea6 94bd ba1b 1dbe 4f6c 64bc
000001d0: 4279 773d 7774 313d 645b 07be b247 913d
000001e0: f98d 4cbc 0652 193c c989 4cbe 16b2 a03d
000001f0: 2b4d 8abd b7a6 57bd 8659 32bd 32ef e0bd
00000200: 3378 1e3d de40 1c3e 9dad 3abd f14b 233d
00000210: 708b a5bd 6fb4 fbbd 6d00 6abe 8626 ad3d
00000220: f63f 173e 4d33 433d 4c43 31bd f71f a3bd
00000230: 803b 8d3d 2e33 d3bc 90c8 dbbc 215b 813e
00000240: b30b 35bd 35ee 2b3e 9f6a 0d3d 2587 1a3c
00000250: db0b ecbd 59be 0abe da3b 9a3d 42af 04bd
00000260: 0e2c c5bc 0de6 17be 09bc 19bc 37e9 0fbc
00000270: 5d32 d5bd 196f 433d 6e3c f1bc 3354 383f
00000280: 9399 0b3f 6dc5 913d b5f4 0c3e 3c16 9ebe
00000290: f514 babc 8da3 f7be 04e2 1abe 08c8 27be
000002a0: a28b 40bd ae05 b13e dc23 b83c e882 ac3d
000002b0: e74f 0abf 8e59 81be 1c1b 773e 0ee0 2e3e
000002c0: d4f1 4cbd b0d1 e53c 89a7 c53d d0d0 52be
000002d0: 25a7 343d 6334 cfbc 3291 843d d42c de3b
000002e0: f6db d3bc e362 a2bd 3828 96bd f9fa f2bd
000002f0: 6c88 95bd 9b6f 49bd ada9 4ebc 10ba 3a3d
00000300: 3e7d 623e affc 853e 0396 ba3e 034d 28bd
00000310: 318b 8a3c 7c65 4d3d 2d91 c63e 9b9c 903e
00000320: 864f 993d 5ea6 9ebe ce11 c6be e713 4b3d
00000330: 3fda 643d 0efa 5bbe b20c 4b3e c64a f23e
00000340: 57c1 55bd b0c0 9cbc 1fc8 2c3d 69dc 033e
00000350: 27c4 273e bf0e 063f 2075 583d fe16 e7bd
00000360: f200 5cbd 2734 0e3e 4652 f7bc aa95 093e
00000370: e47f 7b3d 380d 1ebd a584 6e3d 1ba6 703e
00000380: fe21 f239 4ee1 2c3e 10ad 56be 3ad8 dfbe
00000390: ac2a b33d a01f 863d 69e5 543d b906 babd
000003a0: 8e6b a73e 6e5c 863d f774 c93c 5569 47be
000003b0: c9d7 1ebc 77b4 e0bc a3da b73e ca6c cb3c
000003c0: 512f 193e ccc6 893e b2ac 16bd 6a40 c3bd
000003d0: 797d f5ba 9211 05bc d272 64bd 988d 703e
000003e0: ce2b a1bd af91 7f3e aed5 16bd d4e9 3f3e
000003f0: 2131 ccbd 28de 45be 16d9 6dbe ac98 1b3d

bias f4 [64]
-0.029103292 0.0033014684 0.046915475 0.09575771 -0.12351067 0.01955795 0.071216054 -0.081557214
-0.13741797 -0.088730335 -0.07573268 -0.052211963 -0.15207042 -0.07392962 0.023489676 0.13731681
-0.1398449 0.015700642 0.13411884 -0.06873246 0.1379577 -0.019812973 0.040176813 0.09954437
0.008261337 -0.053363115 0.13067064 -0.14421614 -0.0016416268 0.008163229 0.28579733 -0.15337081
-0.093660794 -0.02588367 -0.12641537 0.056410752 -0.068859935 -0.108952664 -0.13418756 -0.05572656
0.14793563 0.011368532 -0.13004176 -0.019294405 0.07116282 -0.059118073 -0.08914042 0.026972093
-0.09223622 -0.13962778 -0.043287937 -0.045372482 -0.06937696 -0.0012976888 0.0077153468 -0.15624455
-0.09052106 0.030263547 -0.029929496 -0.02952418 -0.12794742 -0.018479826 -0.12878478 -0.06642847
00000000: 076a eebc 735d 583b 712a 403d 9e1c c43d
00000010: 2af3 fcbd fe37 a03c b9d9 913d 7807 a7bd
00000020: 4cb7 0cbe 40b8 b5bd bc19 9bbd 36dc 55bd
00000030: 59b8 1bbe 6a68 97bd 6c6d c03c c79c 0c3e
00000040: 8033 0fbe a29e 803c 7356 093e 9bc3 8cbd
00000050: c944 0d3e d14e a2bc 7190 243d ebdd cb3d
00000060: 8f5a 073c 4893 5abd 86ce 053e 65ad 13be
00000070: db2b d7ba 10bf 053c 0754 923e 3d0d 1dbe
00000080: 3bd1 bfbd fe09 d4bc 0873 01be f60e 673d
00000090: 7006 8dbd 9322 dfbd 7768 09be 8941 64bd
000000a0: 707c 173e 1443 3a3c ab29 05be 4d0f 9ebc
000000b0: d0bd 913d cb25 72bd 418f b6bd 94f4 dc3c
000000c0: 58e6 bcbd 96fa 0ebe b14e 31bd 7fd8 39bd
000000d0: 8215 8ebd 3617 aaba 05d1 fc3b 92fe 1fbe
000000e0: 1b63 b9bd 42eb f73c b42e f5bc b1dc f1bc
000000f0: a604 03be 0163 97bc 28e0 03be a60b 88bd
