models/decNet_6.py.pkl (torch_old, 924749 bytes, 29 tensors)

beta f4 [16]
00000000: 860c a83f 9935 983f 74aa ad3f 67a8 bd3f
00000010: 2d41 a23f 72b3 953f f70d a03f 2c3e b23f
00000020: c07d ab3f 285a 8a3f ed7d a93f 5caf 9c3f
00000030: c3e1 873f 754d af3f bac4 b03f 4856 973f
1.3128822 1.1891357 1.3567643 1.4817017 1.267614 1.1695387 1.2504262 1.3925223
1.3397751 1.0808764 1.3241554 1.2241015 1.0615772 1.3695513 1.3810036 1.1823206

gamma f4 [16, 16]
00000000: 646d 0a3d 7268 b3bc 5380 d7bb af00 2cbc
00000010: c864 1bbc c37a 09bb d381 02b9 3278 66bc
00000020: 9224 00bb ce14 dabc f788 95ba 67c0 39bc
00000030: ad8b ffbb 563d 06bc d0cd 9abc 957c 27bc
00000040: c0ba 4bbb 2975 2f3d 665b 0cb9 0651 46ba
00000050: 23a6 69ba 2d54 9ebb 3b14 3dba 3216 5fbb
00000060: 673d bcbc 5967 06bb e196 5ebc 146c 2dbb
00000070: cbb6 eb3c ded8 1fbb 7dc3 04b9 cd6f aebb
00000080: 0264 87ba 6d65 b3ba 1a9e 4e3d 8389 9db9
00000090: 4947 dfba ee4d 34bc 08ee cdb8 3181 56ba
000000a0: 759b 0bbb c683 dbb9 857d 70bc 3ca9 17b8
000000b0: 22c9 283d c811 b53c 59ba 86bc a726 ffba
000000c0: c863 b43d dfef 733d 8cee 8ebc 7317 18bb
000000d0: debc 57bc 52b4 6b38 612e 15bc f377 26ba
000000e0: c660 a43d 33f5 aebc 06e6 cebb b134 80bc
000000f0: d493 abbb f641 02bc 58ae c2bc 1b16 e1b8
00000100: c1c6 86bc 5c2c d0bb bb4a a7bb c180 70bc
00000110: 0bba 333d 7d01 b0b6 e85f c9b9 24e6 81ba
00000120: 9dd4 b0bc 67e3 96bc cba2 b5bc 8316 8abb
00000130: 923e 11bb abe3 91bb 4df8 70bb 67fb 96bc
00000140: d84d dcbb 50ac 88bc b7ea 31ba 855f 84b9
00000150: 8b32 dfbb dee7 3f3d 1b22 bbbc b117 5ebc
00000160: 70ad 9ebc 4f34 a73c db11 18ba c044 4abc
00000170: 8f0e 293d 533f 5ebc e098 b938 841d 89ba
00000180: 7c38 b6bb 90ad 88b9 135b abbc a7ba fbba
00000190: f2d3 55bc 85ae 9ebc 196b 523d 9945 3ebc
000001a0: 31e8 78bc ec87 273c 909f dcbb 4ebe fbba
000001b0: 6924 74bc ee2f 9038 9877 99bc 473d 9bbc
000001c0: 0135 9cba 1d6b 91bb 2c14 e8b9 e9ca 7cbb
000001d0: e17f c6ba babc b0ba 42c7 22bb 38d8 453d
000001e0: 4bce 35bc 0f87 72bc c67d a9bc 5b96 9dbc
000001f0: f051 e1bc b061 0937 11ad 82bc 75e5 88bb
00000200: 9f90 43bc 211d d6ba ca93 22bc d55e 0bbc
00000210: aef5 c3bc aa7b 7fbc 2ad1 2fbb 3b19 93bc
00000220: 5ddd 23ba c219 81ba acde a8bc 81c9 26bc
00000230: d8c2 27bc 3169 a2bb 09d4 21bb 919a 5dbb
00000240: 50fa 89ba 7790 15ba 8ec9 063d ffd2 6cb8
00000250: 8b1e 483d 81ca e6bb be2f 8cbc 4492 65ba
00000260: 636e dabb 42e4 263d 6afc acbb 0047 abb9
00000270: 9db7 8b3d b20a cfbb fd29 a63c e0d6 cc3d
00000280: 4b89 c5bb ee78 f7bb db93 6c3c 1196 d7bb
00000290: b71a a83c e3e3 85b9 0c09 c93c daba 25bb
000002a0: 4c81 13bc d6de 54b9 7790 603d ff19 01bc
000002b0: b143 b8bc 9117 c3bc 54a5 8a3c 5533 5abc
000002c0: 7e6b ab3d 59ea 15b9 bf58 20bb 5d3e 73bb
000002d0: 4f1a ba3c 8a30 82bc 5a8c 7dbc 26f6 8ebb
000002e0: f3dd d23d 71f0 443d e558 3ebb 62fe 7abc
000002f0: c356 d7b9 81c4 8eba c5b5 8039 7fbb 98bc
00000300: 68ec 8dbb 8db1 23bc 24e8 76bc fb7e 9dbb
00000310: 2dcc 9fbc 96e8 1b37 1f7d 48b9 094d 9abc
00000320: a4d6 f9b9 b0a8 d8bb 4f7e cfbc f17f 0f3c
00000330: 765e 293d 084e 463d 540c 18ba 7be8 70b9
00000340: 1cb8 cebb 6de7 79ba 0a3a 8abc 168d 16bc
00000350: 86f4 b6bb bbc6 64bc edf3 09ba 7bd2 62bb
00000360: 3113 5fba 6064 1bbc d054 32bc baff abb3
00000370: 1e92 37bc 5654 2f3d e0de 3fbb 5249 d8ba
00000380: 2027 b2bc 63af 5dbc 27a0 c3bc ca3d 49ba
00000390: 4d8f 50bb f226 75ba 1417 7bbc d0b4 ecbb
000003a0: d3a2 babc fd30 b8ba 342f 9fba dfa2 8fbc
000003b0: fed2 63bc a337 b2bc 0726 643d b6fe 8fbc
000003c0: 522f 8fbb c30d 69bc ebf7 b6bc c68e faba
000003d0: 5b41 a5ba a9dc 8dba 8d39 e4ba 0e5c 11ba
000003e0: 179b 8dbb d4ec a3bc 11d0 a0bb 4195 08bc
000003f0: 9bdd 09bc 66b1 b8b8 ced9 9abc eadb 423d
0.03379573 -0.02190039 -0.0065765767 -0.01049821 -0.009484477 -0.0020977713 -0.0001244613 -0.014066743
-0.0019553048 -0.026621249 -0.0011408617 -0.011337376 -0.007798633 -0.008193335 -0.018896967 -0.010222574
-0.0031086653 0.042836342 -0.00013385489 -0.0007565174 -0.0008913001 -0.004831812 -0.00072127924 -0.003404033
-0.022978498 -0.0020508377 -0.013585777 -0.0026462125 0.028773686 -0.0024390738 -0.00012661326 -0.0053233863
-0.0010329487 -0.0013686843 0.050443746 -0.00030047828 -0.0017034794 -0.011004908 -9.8194985e-05 -0.0008182703
-0.0021302376 -0.00041869114 -0.014678364 -3.6158817e-05 0.04120744 0.022103205 -0.01644628 -0.0019466475
0.08808094 0.05955493 -0.017447732 -0.0023207336 -0.013167588 5.6196302e-05 -0.009105296 -0.0006350271
0.080262706 -0.021357154 -0.006314042 -0.015650125 -0.0052361283 -0.007950297 -0.023764774 -0.000107329535
-0.016452195 -0.0063529443 -0.005105344 -0.014679135 0.043878596 -5.245382e-06 -0.00038409163 -0.0009910506
-0.021585757 -0.01841898 -0.022172352 -0.0042141094 -0.002216254 -0.004452189 -0.0036769093 -0.018430425
-0.006723147 -0.016683728 -0.00067869894 -0.0002524817 -0.006811445 0.046851985 -0.022843411 -0.013555453
-0.01936981 0.020410685 -0.00058010005 -0.012345493 0.04127365 -0.013564902 8.8499626e-05 -0.0010461067
-0.0055609327 -0.00026069256 -0.020917451 -0.0019205407 -0.01305102 -0.019370327 0.051371668 -0.011613273
-0.0151920775 0.010225277 -0.0067328885 -0.0019206495 -0.014901259 6.875383e-05 -0.018733785 -0.018950118
-0.0011917652 -0.0044378177 -0.00044265517 -0.0038573092 -0.0015144312 -0.0013483979 -0.0024838005 0.048301905
-0.011096547 -0.014802708 -0.020689856 -0.019236734 -0.027504891 8.188581e-06 -0.015951665 -0.004177744
-0.011936336 -0.0016335585 -0.009922931 -0.008506496 -0.02392086 -0.015593449 -0.0026827552 -0.017956367
-0.0006250942 -0.0009849595 -0.02061399 -0.010179878 -0.010239325 -0.0049563874 -0.0024693033 -0.0033814053
-0.001052687 -0.0005705426 0.03290706 -5.646329e-05 0.048857253 -0.0070431833 -0.017112609 -0.0008757452
-0.006665991 0.040745027 -0.0052791135 -0.0003266856 0.06822131 -0.0063184137 0.020283693 0.10001922
-0.0060283295 -0.0075522577 0.014439548 -0.0065791686 0.020520551 -0.00025537526 0.024540447 -0.0025288374
-0.009002995 -0.00020300908 0.054825272 -0.007879733 -0.022493215 -0.023814948 0.016924538 -0.013317903
0.08370112 -0.00014297049 -0.002446696 -0.0037116029 0.022717623 -0.015892286 -0.015475357 -0.0043628393
0.1029624 0.048080865 -0.0029044684 -0.015319439 -0.00041072638 -0.0010892303 0.0002454949 -0.018644093
-0.0043311603 -0.009991062 -0.015069995 -0.004806397 -0.019506538 9.292873e-06 -0.00019120098 -0.018835561
-0.000476529 -0.006611906 -0.025328783 0.008758531 0.04134985 0.04841426 -0.0005800177 -0.0002297479
-0.0063085686 -0.00095330813 -0.016873378 -0.009188911 -0.0055833487 -0.013963397 -0.0005262483 -0.003461032
-0.00085096346 -0.0094843805 -0.010884479 -8.0093244e-08 -0.011204271 0.04280504 -0.002927713 -0.0016501343
-0.021747172 -0.013530585 -0.023880078 -0.0007676749 -0.0031823695 -0.00093518116 -0.0153253265 -0.007223703
-0.022782719 -0.0014052686 -0.0012144805 -0.017533718 -0.013905285 -0.021755045 0.05570033 -0.01757751
-0.0043696547 -0.014224472 -0.022335013 -0.0019116036 -0.0012607978 -0.0010823208 -0.0017412171 -0.0005545028
-0.0043214667 -0.02001039 -0.004907616 -0.008336366 -0.008414651 -8.806847e-05 -0.018902685 0.047573008

weight f4 [16, 24, 1, 2]
00000000: af91 e33a 4c65 87be eae4 ad3d 1c18 f03d
00000010: e850 4dbe e14b c9bb cca3 0abd 60e8 a4bd
00000020: a79f 63bf 8ea4 dd3e 9b65 963d e975 963e
00000030: b53e bc3b 3a4e 413e 8ea6 053e 6a9a cfbe
00000040: 51dd cdbe c389 453c 2512 813d 1a18 b33c
00000050: f4a3 09bc 002a b03e e151 c6bc bb2b a73d
00000060: 246c 83bd cba2 4a3d f24b 0b3b a832 65bf
00000070: ed11 26bf 778b 653c 2d83 563c cafc 3a3d
00000080: 3a6a 8abb a94a 4a3d 3f71 e33a 3657 8a3d
00000090: 7eac 04bc 28f5 983d 98f5 f1bc b680 b83d
000000a0: a75e 763a 80c8 ecba 9128 9dbc 7c60 5b3e
000000b0: 976a 853b 81d8 3e3e 2b42 193d 388e eebc
000000c0: 2214 393c 3ab6 3dbc c56a 603d 6855 0b3e
000000d0: f5c0 6abf b38b 393e 6b5e 243c c2ae 783b
000000e0: 19de aebd 62f2 2e3d 2cf3 6ebb 48d2 923d
000000f0: 39a2 a4bd 14c9 e5bd 6591 943d 9867 46bf
00000100: e56b 1bbf 4140 a03d 1d60 853c ffd7 dabb
00000110: 291f d43c bd61 14bd 0459 97bc 2a01 233d
00000120: 3fae 5d3c 88bd 94bd fb8c 97bc d50d b8be
00000130: 30fa 22bc 283e e73d 8794 b33c 3608 56bd
00000140: 33aa b33c 0a01 223f fdba 833d 27f4 353d
00000150: 9e83 90bb 43f9 1f3e a918 5dbf cb36 303c
00000160: 4980 0f3d 8d9d c63c c190 37bc daa9 453e
00000170: 2b6d 38bb 193e 0a3e 1b12 ba3d 565c 6bbb
00000180: 08a4 633e a2e5 eb3b 3ffd 1d3b 7a09 a5b9
00000190: 54f8 843e 8d74 4ebc 3550 aebd 46bb dc3c
000001a0: 3134 733d 8cb0 a0bc 5ab8 d1bd 29f6 f2bc
000001b0: 1226 433e 49ad f03c 650a f53d 80a8 35be
000001c0: 2fbf c23d abd0 a73a 3c4c 18be 8011 1f3c
000001d0: b3ba d7bc 9350 723d 2bce ac3c 6214 b03c
000001e0: cd81 2f3c 81a8 bb3d ed64 d93e 28e3 ec3c
000001f0: e852 8cbd cf8b f5bc b0e3 813d 5d53 153d
00000200: 8884 263e 4c0f 033c e6db 6ebd 89e9 aebb
00000210: 80ff 5e3a 9674 123d 0804 423e 6fc2 7a3c
00000220: f970 c2be 7ee6 5c3b a4fb 8a3d 49cf 32bc
00000230: 4da9 83bd b5be 283c cc38 8f3e 63de a0bb
00000240: 4c1b 013e adf0 063e 2082 4bbd bd69 8ebc
00000250: 91ad eabe d85a b93d e47d 873e b5b1 c5bc
00000260: 80b1 2ebe 4908 843d 6ce2 c73d 5cbf f7bc
00000270: e161 14bd ffd0 933d c13e 2cbe 2bf9 8abe
00000280: b260 06be 743a c63d a697 7c3d f89d 603b
00000290: 65f4 70ba 98d9 7ebd b1e4 253e 10a3 073d
000002a0: 0b87 a5bc 7759 873d 6e8f 533e 1f26 3e3e
000002b0: df6d 45bd 15e7 4a3d 1a2f 2c3d 461c df3d
000002c0: 69a5 b13c 49ae ca3c 2ae6 a8bd 8a3c d3bc
000002d0: 7420 23ba a2a9 17bd 7d79 163e 431e 2b3c
000002e0: d618 3bbe 4802 f63b 12cb 6ebe b6c8 8bbd
000002f0: 49f1 54bd 0dcf 00be b682 08be e7e7 9ebb
00000300: 6638 613c af23 553e 0f34 963d e87f 47be
00000310: f0aa 37bf eeaa 9f3e d269 8bba 6692 753e
00000320: 6661 73bf 0cc7 acbd 65b9 a03a a607 0e3e
00000330: 6cdf 8fbd eb3f 653d c5ca 973d 9a7d 42bc
00000340: 7152 50be d05c 573e 913e 7a3d c347 c3bc
00000350: 76d7 e93c ff9c 003f 0150 8439 d2b7 573e
00000360: 180a b4bc fbbc 0fbe f189 683c d5bf 32be
00000370: 8f0f 00c0 4d2e 8a3c 6a47 ee3c 9a84 943b
00000380: ba0e 873c 5cb7 673d 0661 f03c f181 2d3d
00000390: b6a1 c83b c106 a1bc a796 c7be 719a b0bd
000003a0: b4f9 dc3c 8836 393c 4ffe 2abd bdf8 33bd
000003b0: 960b 79bc 88f3 253e 2ca1 b13d 2db8 903c
000003c0: 46bb 343d 8735 fc3d 3abd 25bd 7768 1f3e
000003d0: 12d1 92bd 953a 753d ddbe 1f3c e505 963e
000003e0: 839b 05bf 81ba 693b fd25 563d 505d 6a3b
000003f0: c861 13bc 68ee 603d e543 0fbc ef01 09bf
0.0017362143 -0.2644447 0.084909275 0.117233485 -0.20050395 -0.0061430787 -0.033847615 -0.080521345
-0.88915485 0.43289608 0.073435985 0.29386833 0.00574478 0.18877497 0.13051817 -0.40547496
-0.40207914 0.012056771 0.06302289 0.021862078 -0.008400906 0.34407043 -0.024208965 0.08162638
-0.064171106 0.049471658 0.0021254984 -0.8953042 -0.648711 0.014010302 0.013092798 0.045651235
-0.004224089 0.049387608 0.0017352476 0.067549154 -0.008097766 0.07468635 -0.029536054 0.09008925
0.00093982596 -0.0018065125 -0.019184383 0.21423525 0.0040715444 0.18637277 0.03741662 -0.02912055
0.011296304 -0.011579091 0.054789323 0.13606799 -0.9170068 0.18119697 0.010032277 0.003794596
-0.085384555 0.042711623 -0.003646086 0.07169014 -0.08038754 -0.11219993 0.07254294 -0.7750182
-0.6071151 0.078247555 0.016281182 -0.006678581 0.025893765 -0.036226023 -0.018475063 0.039796032
0.013530313 -0.07262713 -0.018499842 -0.35948053 -0.009947345 0.11291152 0.02192141 -0.052253924
0.021931743 0.63282835 0.064321496 0.044422295 -0.0044102212 0.1562243 -0.86365753 0.010755251
0.03503445 0.024245048 -0.011203946 0.19303074 -0.002814124 0.13500251 0.090854846 -0.003591319
0.22230542 0.007199005 0.0024107245 -0.00031478313 0.2597071 -0.01260103 -0.08511392 0.026944768
0.059375945 -0.019615434 -0.102402404 -0.029658394 0.19057491 0.029379504 0.11964873 -0.17740059
0.095091216 0.0012803277 -0.14872831 0.009708762 -0.026334142 0.059158873 0.021094402 0.021494094
0.010712099 0.09162999 0.42459813 0.02891691 -0.068517506 -0.029973892 0.06342256 0.036456455
0.16261494 0.0079992525 -0.05831518 -0.005337898 0.00085067004 0.035755716 0.1894685 0.015305146
-0.37976816 0.003370672 0.06786278 -0.010913678 -0.06428776 0.010299374 0.2797302 -0.004909323
0.12608069 0.13177748 -0.049684644 -0.017384404 -0.45835546 0.0905053 0.26463234 -0.024132589
-0.17059898 0.06446893 0.097599834 -0.030242614 -0.036226157 0.07217597 -0.16820814 -0.27143225
-0.13122824 0.09679118 0.06166806 0.0034273844 -0.0009191691 -0.062219232 0.1620052 0.033114493
-0.020205995 0.06608861 0.20660183 0.1856923 -0.048200484 0.049536783 0.042037107 0.108940646
0.021685319 0.024741309 -0.08247025 -0.025785703 -0.00062227924 -0.03702701 0.14694782 0.010444227
-0.18271193 0.007507596 -0.23319653 -0.06825392 -0.05198792 -0.12578984 -0.13331112 -0.0048494223
0.013746357 0.20814393 0.07334148 -0.19482386 -0.71745205 0.31185097 -0.0010636395 0.23981628
-0.95070493 -0.08436403 0.0012262283 0.13870105 -0.07025036 0.05596916 0.07411722 -0.011870766
-0.20343949 0.21031499 0.061094824 -0.02383793 0.028545123 0.5023956 0.0002523661 0.21066216
-0.02197747 -0.14036934 0.014193044 -0.1745599 -2.0009496 0.016867781 0.029086787 0.004532409
0.016486514 0.05657135 0.02934314 0.04236025 0.006122793 -0.01965654 -0.38982126 -0.08623207
0.026974536 0.011304505 -0.041746434 -0.043938387 -0.015200516 0.16206181 0.08673319 0.017665947
0.04412391 0.12314897 -0.040463664 0.15567194 -0.07168783 0.05987032 0.009750095 0.29301372
-0.5219042 0.0035664144 0.052282322 0.0035761185 -0.008995481 0.054914862 -0.008744215 -0.53518575

bias f4 [24]
00000000: bc4c bf3d ff01 e23e 787c d53b d35c 41bd
00000010: f187 2dbf 3019 403e 5551 4c3d 5122 f03f
00000020: 62bd 16be 092a 453e dcdd 283d 7ebd 613f
00000030: ad24 663f 5952 c6be 0544 a9be 300a e6be
00000040: b692 15bf 7889 a0bb 66e4 773e d667 d4be
00000050: c643 1fbe 9db6 0abe 7389 24be 804b 75bf
0.09340808 0.44142148 0.006515082 -0.047207665 -0.67785555 0.18759608 0.04988225 1.8760473
-0.14720681 0.19254316 0.041227207 0.8817977 0.8989971 -0.387347 -0.33059707 -0.44929647
-0.5842699 -0.0048992 0.24208221 -0.4148547 -0.15553197 -0.13546224 -0.16068058 -0.9581833

weight f4 [24, 32, 2, 1]
00000000: 7a40 8d3e 840a 823d dbdf ac3c 8327 173e
00000010: 2e94 193d 84d0 023e 298c a6bc ba36 943d
00000020: 4ccf 3abe 2c8a 14bd 5c1d 0b3e f80b ad3e
00000030: f91d 8f3e 6ac2 81bd 6ea1 7c3d 10f0 473e
00000040: 8f3b d8ba 6b58 733e 1da8 3ebd d414 29be
00000050: ae9c 07be 7af2 36bd 2789 42be 9919 cdbd
00000060: fa67 7fbe 8dc9 60be 2f52 c1bb 3916 483e
00000070: 551d 1b3d 1781 6f3e c442 783d 29ec da3d
00000080: 0169 adbd 1973 013e 0cdc 4b3d d135 e53d
00000090: ff30 abbd 8caa b53e eab9 56be b47e b43a
000000a0: 9dc4 5d3e 0c6a cfbe 36ca 41bd b233 d2be
000000b0: bc22 d43c 3bd6 84be c0d9 4bbc a42c 163e
000000c0: f88a 82bd e626 50bc 6889 1f3e 351a 7e3d
000000d0: d684 923b bc8c 083d f923 13be c74a abbd
000000e0: 9db1 bfbd c90f f4bb aaef f83c b86b 1f3e
000000f0: 206a 84be 565c 41be 3186 97bd ae9d cebc
00000100: c7c0 b6bd 8313 58bd b058 94bd bff9 c8bd
00000110: 8d44 9dbb 17e8 49bd 3477 debc b661 6abd
00000120: 5f9d 47bd 3882 063e ab23 82bd f797 85bd
00000130: 1b36 2fbe 083e b03c cf6d f43d 01ad 6e3e
00000140: b7ff 873e e57f 0b3e 240f 9fbc ba76 2abd
00000150: ff32 383e 5669 b5be 5627 853e 359e b63d
00000160: f8f3 f6bb 3dd5 01be a705 fd3d b5c0 af3d
00000170: 122a 0cbe 530e d4be c921 133d 720b ca3d
00000180: 0bca 34bf dc82 b23d 8625 b1bb 2aab 343d
00000190: 91de eabd e8bf 6a3d 9894 df3d 9dd5 97be
000001a0: 6cd4 dcbd 0753 063d b800 183e 2c99 533e
000001b0: 722b 053e 56af 3e3e 500f 393e 515b 38bd
000001c0: 6d75 81bd 60c0 183c 3c85 83bd d284 8d3d
000001d0: 5541 8d3e 6fc5 653b f2b0 0ebe c631 a23c
000001e0: e006 72bb e7f9 4abe 6163 3cbd b5a2 9e3c
000001f0: 624d f83d 80bc 9fbe 6a5d bc3b b1c7 7abd
00000200: 4279 bd3d 426a 153d 5004 adbb 8acb c03c
00000210: 2836 54be f7f8 923e a524 333e 0345 2fbf
00000220: 6a4c 03bf 00f3 a0be 50ef 1fbd 73fc 403e
00000230: d154 5bbe 09c5 62be 1581 3a3d 3ee0 83bc
00000240: 431b e43c 5d8c 73be 3e5c c3bd ff46 5a3e
00000250: cc25 d4bd f922 d43d 5b63 08be f812 123e
00000260: e86b e13c 15b5 9b3e 4b80 233e 0af5 5dbe
00000270: d619 9dbd 67ee 7cbe 18e4 88bc acc3 43be
00000280: af8e 0abf 4d91 b03e f3de de3d 60d7 67bd
00000290: ac9a 673e af5d 56bd b09b 683c 1243 76bf
000002a0: 9f90 983e 3700 45bf 0177 1b3c a1c8 123c
000002b0: d473 de3c c8b3 4dbd 5efc 703e 0c99 853d
000002c0: a620 4cbe 6f54 293d 3381 80bd 9335 2f3d
000002d0: 7e9b 853e b06c 873d 669a bbbd 3f55 803e
000002e0: 2d83 e6bc a928 4dbe fc0a 48bd 9e0f b3bd
000002f0: 38e9 77be 4dae 25be 6247 16bd 473c 523e
00000300: 0a08 293d bb25 f53c 74a5 ad3e 917d ed3d
00000310: fcaf 90bd 8b22 1bbc edd3 803e 2693 0c3d
00000320: 112d 063e 9580 bdbd 662f 8d3d b26e de3d
00000330: 88b2 a83d 13cb 9c3e 6f55 a8bd 11c4 8cbe
00000340: 8ae0 d43d dd9c 0ebd ca16 69bd 2f83 0ebe
00000350: c6a1 1d3e 6657 abbe 0b9d e73d a02a 13be
00000360: 6e2a 76bd 0210 4b3e 6725 d2be cad4 c4bc
00000370: db43 22be 825e 13bb b912 0f3e a185 8c3e
00000380: d47a bb3d a55f d3bd a86a 09be 30af dabd
00000390: f3a8 38bd 47c8 22bb c133 2bbe 6a58 df3d
000003a0: 06f7 0ebe 525d ad3e 78fd 0cbe fc3a 3fbd
000003b0: 55c1 1ebe 0b77 a8bd 3ad9 f0bc 981a 983c
000003c0: a724 8a3d 0486 923e 4e7b 76bd 928f ec3d
000003d0: 1547 34bd 2efc e4bd f845 533d ff0c 3c3d
000003e0: b493 e0bd 5b4e 72be 560c 95bc 6932 8ebd
000003f0: d23b 293e 3e74 eebd 5ea3 1bbe 0106 dcbd
0.27588254 0.06349662 0.021102836 0.14761166 0.03749483 0.12774855 -0.020330505 0.07237001
-0.1824314 -0.036264583 0.13585418 0.33798194 0.27952555 -0.0633591 0.06167739 0.1952517
-0.0016497242 0.23764198 -0.046547044 -0.16511852 -0.13243362 -0.044664837 -0.18997632 -0.10014648
-0.24942008 -0.21951886 -0.0058996896 0.19539727 0.03786977 0.23389088 0.060610548 0.10689575
-0.084672935 0.12641563 0.0497704 0.11191905 -0.08358955 0.3548168 -0.20969358 0.0013770671
0.21657033 -0.40510595 -0.047311984 -0.41055065 0.025895469 -0.25944695 -0.012442052 0.14665467
-0.063741624 -0.012704587 0.1557976 0.06203671 0.0044714017 0.03333734 -0.14369191 -0.08363872
-0.09360049 -0.007448171 0.030387718 0.15568435 -0.25862217 -0.1888288 -0.07398642 -0.025221672
-0.08923488 -0.052752983 -0.07243478 -0.0981326 -0.0047994317 -0.049293604 -0.02715645 -0.05722209
-0.048734065 0.13135612 -0.063544594 -0.065231256 -0.17110483 0.021513954 0.11935007 0.23308183
0.26562282 0.13623007 -0.0194164 -0.041617133 0.17988203 -0.35431927 0.26006573 0.08916894
-0.0075364076 -0.12679 0.12354594 0.08581678 -0.13687924 -0.4141718 0.035920892 0.09865464
-0.70620793 0.08716366 -0.0054060845 0.044108547 -0.114682324 0.057311922 0.10917014 -0.29655161
-0.10782704 0.032794025 0.14844024 0.20663899 0.13004854 0.18621573 0.18072248 -0.04500896
-0.06321225 0.0093232095 -0.06421897 0.06910099 0.27588907 0.0035060307 -0.13934687 0.019799124
-0.0036930367 -0.19821893 -0.045993213 0.019364694 0.121241346 -0.31198502 0.0057484405 -0.061225597
0.09251644 0.03647829 -0.005280055 0.023534555 -0.20723784 0.2870557 0.17494448 -0.6846468
-0.51288474 -0.31435394 -0.039046586 0.18846302 -0.21419074 -0.22145475 0.04553326 -0.016098138
0.02784503 -0.23784013 -0.09539078 0.21316145 -0.10358772 0.10358233 -0.13319151 0.14265049
0.027517274 0.30411592 0.15966909 -0.21675506 -0.076709434 -0.24700318 -0.016710326 -0.19117612
-0.5412397 0.34485856 0.10882368 -0.056601882 0.22617596 -0.052335437 0.014197275 -0.9619609
0.29797837 -0.7695345 0.009488822 0.0089589665 0.02715484 -0.05022028 0.2353377 0.06523332
-0.1993433 0.041340288 -0.06274643 0.0427757 0.26095194 0.06612527 -0.091603085 0.25065038
-0.028138721 -0.20035042 -0.0488386 -0.08743213 -0.2421006 -0.16179772 -0.03668917 0.20530806
0.041267432 0.029925218 0.33915293 0.115962155 -0.07064816 -0.009468685 0.25161687 0.03432002
0.13103129 -0.09253041 0.06893806 0.10860957 0.08237177 0.30623683 -0.0821942 -0.27493337
0.1039439 -0.034817565 -0.0569065 -0.1391723 0.15393743 -0.33465117 0.113092504 -0.14371729
-0.060099058 0.19830325 -0.4104416 -0.024027247 -0.15846197 -0.002248675 0.13971986 0.274457
0.09154287 -0.10320977 -0.13419592 -0.106779456 -0.045082998 -0.0024838613 -0.16718961 0.109055355
-0.1396142 0.3386026 -0.13768566 -0.04668711 -0.15503438 -0.08225831 -0.029400457 0.018567368
0.06745272 0.2861787 -0.060176186 0.11550821 -0.0440131 -0.11180912 0.0515804 0.04591083
-0.10965672 -0.23662703 -0.018194359 -0.06943209 0.16526726 -0.11643265 -0.15199038 -0.10743333

bias f4 [32]
00000000: 2498 d4bc 8cf4 09be 1af5 893e a0eb 773e
00000010: daee c53e 2f12 ea3c 6a93 83be 5d49 9f3e
00000020: 4041 703e 61b6 ca3e eaaa 56bd 6305 18bd
00000030: 8084 bdbe 4440 c8be d7f7 fa3e 16fc 8c3e
00000040: 6ac7 81be 28ea 88be 635d 6b3d 4a6c 063e
00000050: 323f c23d 8473 bd3d a0cf 11be 7f49 57be
00000060: 1f01 e83d df98 1fbf 7a66 14bf 6835 61be
00000070: 3cad 00be a63c 00be 12c3 1bbd a316 5abe
-0.025951453 -0.13472193 0.2694481 0.24210978 0.38658792 0.028573124 -0.25698406 0.3111066
0.23462391 0.3959227 -0.05240909 -0.037114512 -0.37015152 -0.3911153 0.49017212 0.27536076
-0.25347453 -0.26741147 0.057462107 0.13127246 0.0948471 0.092505485 -0.14239359 -0.2102413
0.11328339 -0.6234264 -0.57968867 -0.21993029 -0.12566084 -0.12523136 -0.03802783 -0.21297698

weight f4 [32, 32, 1, 1]
00000000: 8839 3e3e 5af3 01be 83a2 97bd 2213 4abc
00000010: 0e67 1ebe 1f51 fabd 7fa0 0e3c 797a 833e
00000020: 4092 aa3e e245 fd3d 84c5 813b f8a9 c13e
00000030: b4df 70be 327b bdbc 011c 47be 3869 f8bd
00000040: ae2c f13d 1302 c0bd 0b1f bc3d b6c7 71bc
00000050: 1337 fdbd c100 b8be ebcf fabc dc89 0ebe
00000060: 1050 f5bd 3a11 86bd 1da6 1abe eee0 453e
00000070: 0658 4d3d 1a7b b039 bbd5 f4bd 6ccf 813c
00000080: 510b 1e3e a924 243d 0364 3a3e 4919 51bd
00000090: 2402 3bbe c858 27be bff3 883d d159 43be
000000a0: 2120 d8be 95c7 7d3e 1e66 3abd de5b 5f3e
000000b0: d500 f8bc 9c5b 4abd 4bba 15bd 9d2f 3ebd
000000c0: 4be1 2b3d af2a 5cbd e49b 283e 1cc6 583e
000000d0: e7fa ac3d 07b5 953d 0e5c 393e d884 e0bd
000000e0: f63b 773e b18a 643e b05b cbbb 793a a13e
000000f0: 12aa a23d 213e a13e 1538 92be 2a0c d93d
00000100: 7419 2c3e 14e0 c3bd 815c c5bc 5a7a d03d
00000110: 57bc b0be 7402 4ebe 73f3 0e3e 34b4 5a3e
00000120: 3d56 563e a2f5 113e 1cd5 bc3b 0b22 2fbd
00000130: 7e25 ab3d eaac 3bbf a6e8 5cbd 921c d53e
00000140: 6db9 bd3d c5a5 80be cbed 2dbd 6818 8f3e
00000150: 14a0 7f3d fc6d 013e a909 cfbd 2867 c2bd
00000160: 403e 3dbe a505 8cbd e6b0 58bd aa6d 00be
00000170: d167 09bd f27f 15bd 822e 143e ab64 f73d
00000180: 6908 94bc 42e6 4d3e bad6 bb3c 99d9 203d
00000190: 3fb6 e83e 1607 3d3e d3a5 bf3e 22d7 80be
000001a0: e95e 2ebe 2dc5 d0bd fe7e 94be 55e2 0dbf
000001b0: d886 b73d 75b4 fd3e 6c87 33be 9b93 8ebd
000001c0: 8ef8 47bc 09c7 f0bd 550c 0e3e 4ef0 3a3e
000001d0: 9953 6dbd b43c 1a3b c75c 80be decd 21bd
000001e0: 6786 09be 5cc4 963d 9741 433e 6124 7a3c
000001f0: 131c babc 45cf 7fbd 0b74 f33d 8aa8 7bbd
00000200: 0304 14bd 4110 c8bd 8ca9 b0be dcfc ff3d
00000210: 98ba 96be 4c2e 68be aafa 3bbe 1af7 2bbe
00000220: d3f9 c4bc cea0 f23d 94aa f43d db87 86be
00000230: 672b 77bd e5b4 80be 7fde 9abd d931 95bd
00000240: 4396 14bd d568 5d3d 06c2 75bd edea 38bd
00000250: 8a5f e53d 11f1 3d3e 148e 843e b012 823d
00000260: ba96 10bf a6e1 03be 8b65 75bc 28f2 063e
00000270: 1b41 fb3d f9dd 5b3e 6cb3 02be ca9d af3e
00000280: 641d 043e 18f4 55bd 71ea cf3c 49f5 acbe
00000290: 351c 6a3e 105f aa3c ea00 113e e70f b03d
000002a0: 1dfe 493e 574d a23d 3a38 113d 6a16 8a3e
000002b0: fdd4 213d 07c8 dd3d 767f 043e 4a4d f8bb
000002c0: 1c55 1c3e e05f 6a3c f616 ffbc 000a cf3d
000002d0: 7b2e 343c 86b5 b53d 8605 8c3d 298b 6abd
000002e0: 530a 4e3d 0dfe 313e c42f debd 40f9 df3c
000002f0: 954e d6bd e9e7 93bd 6517 97bd fc08 8dbc
00000300: 14ef 11bc 9ba0 58bd 0868 373b 2bc0 4c3b
00000310: d373 d43c 9b58 14bd a768 b5bd 8baa 4e3e
00000320: b2ef 203d cbd0 3a3c ef70 3cbd eb15 0cbf
00000330: 82a5 8dbe 85fe 743e 1ef1 07be e1a7 23bc
00000340: d0ec 5dbb 7224 1bbd dbc0 c73d c1ad 8b3b
00000350: 4089 043d 443e 803e 37e8 cf3d 7758 3c3d
00000360: 3055 dcbd ab4f 8ebd a2ef 633e f790 d83b
00000370: 6d0b e8bc 486c 183e ff37 5c3c ba93 1a3d
00000380: a288 5f3e 2fe3 863d 9daa adbd 0e8d 90bd
00000390: 3d24 afbe 4602 713e d2d9 4fbe 384f 6a3e
000003a0: 6f25 39be d69a debd ff5b 3bbe 4c68 e9be
000003b0: 25e8 8cbe cc99 76bd d773 2cbd 2cd6 15be
000003c0: d547 ed3d b3d7 7d3e 75b2 f73d a852 c8bd
000003d0: 89fe c23e b588 6c3e 9404 34bf e8cc 7ebe
000003e0: 047c 71bd 7d60 e43c 27fe abbf 1356 7ebd
000003f0: 879e c2bd 57ba 28be 8c7d 813e f7a0 0ebf
0.18576634 -0.12690488 -0.074040435 -0.012333663 -0.15469 -0.12222504 0.008705257 0.25679377
0.33314705 0.12366845 0.0039603133 0.37824988 -0.23522836 -0.023130033 -0.19444276 -0.12129444
0.117761 -0.093753956 0.091856085 -0.014757087 -0.1236402 -0.35938075 -0.030616721 -0.13919777
-0.11978161 -0.065462545 -0.1510243 0.19324085 0.050132774 0.00033661054 -0.11954828 0.015845977
0.15434004 0.040074024 0.18202214 -0.051049504 -0.18262535 -0.16342461 0.06687116 -0.19077231
-0.42212012 0.24783166 -0.045507543 0.21812388 -0.030273834 -0.04940377 -0.036554616 -0.046432126
0.041962903 -0.053751644 0.16465718 0.21169323 0.08446293 0.07309919 0.18101522 -0.10962838
0.24143967 0.22318532 -0.0062059984 0.31489924 0.079425946 0.31492713 -0.28558412 0.10598023
0.16806585 -0.09564224 -0.02409196 0.10179587 -0.34518692 -0.20118123 0.13960056 0.21357805
0.20931335 0.14253858 0.0057627093 -0.042757075 0.083567604 -0.7331072 -0.05393281 0.4162336
0.09263883 -0.25126472 -0.042463105 0.27948308 0.06240852 0.12639612 -0.101092644 -0.09492332
-0.18480778 -0.06837014 -0.05290308 -0.12541834 -0.033546273 -0.03649897 0.14470866 0.12079748
-0.018070417 0.20107368 0.022929538 0.039270017 0.45451543 0.18459734 0.374312 -0.25164133
-0.17028393 -0.10193858 -0.29003137 -0.5542348 0.08961266 0.4955174 -0.17532128 -0.06961747
-0.012205256 -0.11756713 0.13871892 0.18255731 -0.057941053 0.0023534717 -0.25070783 -0.03950297
-0.13430177 0.07361671 0.1906799 0.0152674625 -0.022718465 -0.062453527 0.11887368 -0.06144003
-0.03613664 -0.09768725 -0.34504354 0.12499401 -0.29439235 -0.22673911 -0.1835734 -0.1679348
-0.024044907 0.11847077 0.11946598 -0.26275524 -0.060344126 -0.25138012 -0.07561969 -0.07284898
-0.036276113 0.054055054 -0.05999949 -0.045145918 0.11199863 0.18548991 0.25889647 0.063512206
-0.5647999 -0.12879047 -0.014977823 0.13178313 0.12268277 0.21471395 -0.12763757 0.3430007
0.12901837 -0.05223474 0.025380345 -0.33780888 0.22862323 0.020797282 0.14160505 0.08596783
0.19725843 0.07924908 0.035454012 0.26970226 0.039509762 0.10829168 0.12939247 -0.007577573
0.15266842 0.014305085 -0.031138878 0.10109329 0.01099741 0.088725135 0.06836991 -0.05726162
0.050302815 0.17382069 -0.10848954 0.027340531 -0.10464207 -0.07221968 -0.07377509 -0.017216198
-0.008907098 -0.05288754 0.0027985591 0.003124247 0.025934136 -0.036217313 -0.088578515 0.20182244
0.03929109 0.011402319 -0.04600614 -0.54720944 -0.27665335 0.23925216 -0.13275573 -0.009988756
-0.0033863075 -0.037876554 0.09753581 0.0042626564 0.032357454 0.25047505 0.10151713 0.045982804
-0.10758436 -0.06948789 0.22259381 0.006609078 -0.02832576 0.14885056 0.013441085 0.03773854
0.21829465 0.065863006 -0.084798075 -0.07058154 -0.34207335 0.23536023 -0.20297936 0.22881782
-0.18080686 -0.10869376 -0.18296812 -0.45587385 -0.27520862 -0.060205266 -0.04210266 -0.14632481
0.115859665 0.24789314 0.12094585 -0.097813904 0.3808482 0.23099025 -0.70319486 -0.24882853
-0.05895616 0.02787804 -1.3436936 -0.062093806 -0.09502893 -0.16477333 0.25291097 -0.5571436

bias f4 [32]
00000000: 8b21 3cbe cc11 31be 8f70 91be cff4 903e
00000010: 0c3a be3d d1ef 07be 45e4 123f f6ea 1b3e
00000020: 24eb 07be 605f 8fbc 5e07 7e3d 7fbd 10bf
00000030: 09b6 c03e 3088 543e 2fd9 553e 5e01 9cbd
00000040: 4db9 b8be 0992 55bc 4a4d 0fbc 5bd4 e9bd
00000050: 96d4 a2be 062d 82be b9f9 c93d 9ba4 8b3e
00000060: dcd7 56bd 25bc 92bd 6e39 7dbe eefe 1abe
00000070: 7427 d3bd f71b 203e 68a0 103f 0c14 ce3d
-0.1837217 -0.17291945 -0.28406188 0.28311774 0.09288415 -0.13275076 0.5737956 0.15226349
-0.13273293 -0.017501533 0.062018745 -0.5653915 0.37638882 0.20755076 0.2088363 -0.07617448
-0.36078873 -0.013035306 -0.0087464545 -0.11417457 -0.31802815 -0.25424975 0.09862084 0.27274022
-0.052451953 -0.07164792 -0.24728939 -0.1513631 -0.103102595 0.15635668 0.5649476 0.100624174

beta f4 [32]
00000000: eb9a f13e 1705 213f 8fb2 5a3f e893 fc3e
00000010: 35f0 f73e db1d 523f b1a9 7f3e 485c 423e
00000020: 7fa4 ed3e 04cc 213f e3b5 173f 67d8 0240
00000030: 553a df3e e1e9 2a3f e6ee 383e 525a 803f
00000040: 1251 3e3f 1441 e13e 7bb4 303f 6a97 c23f
00000050: 8960 383f cf0d fd3e d0e9 183f 1963 d23a
00000060: 85d6 723f df7f 2a3f 5264 193f 7efa 1c3f
00000070: 8375 8c3f e550 263f d146 c53e ee64 923f
0.47188506 0.6289839 0.8542871 0.49331594 0.4842545 0.82076806 0.24967076 0.18980515
0.46414563 0.6320193 0.5926191 2.0444582 0.4359919 0.6676312 0.18059883 1.0027564
0.74342453 0.43994963 0.6902539 1.5202458 0.720223 0.49424598 0.5973177 0.0016051262
0.9485858 0.66601366 0.599187 0.6131972 1.0973362 0.64967185 0.3853059 1.1437051

gamma f4 [32, 32]
00000000: f84d 603e 5e71 7eb9 f78f d5bc 79e2 43bb
00000010: 3d61 8bbb 85e0 47bb 6abc c7b8 8ab3 8137
00000020: 567f adbc 1518 0aba b8ab 7fbb 8b35 07bc
00000030: c849 c8bc fa0f fbb9 9d05 78bc f944 25bc
00000040: bcb4 2ab9 67ee 5ebc 553d 36bc e38d 94bc
00000050: d049 9ebc f00b c2ba b1a0 04bc bd0d a1bc
00000060: b6eb cabc 9b28 8f37 42fd c8bc 2816 eabc
00000070: 807e aebc 0b62 8ebc 4cb8 3ebc 231d 70b9
00000080: b7fa 5abb a9d7 183e f9fe c6ba f965 2cbc
00000090: 0320 30b9 90b5 9cbc b7be febc b21e 4a3e
000000a0: bd88 103e 72e2 acbc 2e8c 8c3d 6202 4ebc
000000b0: c427 dcbb 1da4 72b9 08df 76bb 8603 d3bc
000000c0: f16e c4bb 76c4 c6bb ade0 4dba 632e 4aba
000000d0: 28b8 72bc 9521 403d 362d b1bc 3246 9abc
000000e0: ed09 17b7 002a c7bc ad50 a5ba e2f5 7abb
000000f0: 7ffc f3bb d204 49bc 6ca2 c6ba be47 cb3d
00000100: 4964 15bb 657f a8bb ed6e 563e e10a bbbc
00000110: e3e2 6fb8 868b 20b8 97bb 31bb 1256 bcbb
00000120: 70ed 9aba 1605 b0ba cd88 5237 e0d6 a23f
00000130: 8850 86ba f40f 38bc eda5 afbc 3bb5 9ebc
00000140: 2c16 91bc 1460 f0b9 43bd 9fbc 39d9 dfbc
00000150: 4cb5 c6b9 bebf 8eba 622f d4ba 8801 60b9
00000160: 9aa0 94bc 25c1 06ba f7f1 ccb9 ff97 cabc
00000170: 644a 2fba 99ba 99bb 2e32 ffbc bc70 7eb9
00000180: 4154 c9bc 84c9 6cbc 113e 90bc cc5f 093e
00000190: 1b88 76bc ff72 edba 8010 10ba f811 22bb
000001a0: a286 47ba d832 81bb 43d5 1dbc 8a46 a1b8
000001b0: f18b 23bc 2de5 7abc 1299 2abc 74f8 75bc
000001c0: 8aea 06ba ace3 7839 4abe aeba 9ba9 c0bb
000001d0: bfd6 86b8 126b 89bc 32a5 10bc 5acf c0bb
000001e0: 0fa6 8fbb 5982 00bc 0c48 d1bb fb9b d7bc
000001f0: 7c3c 35bc 4aa0 14bb 02a5 c6ba f99a 67bb
00000200: 7462 69bc cb2d c0bb eec0 0fbb 221b 9e37
00000210: 46d8 fd3c 73ac 9b3d 7e74 46bc 4474 deba
00000220: e3c9 8fbc a7fc 14bc 4096 d73d da2b 82b9
00000230: e2a1 80b9 4dc8 cb3d d111 acbc 02aa 6fba
00000240: 555e f436 554e e4bb 740a 5936 7dfb 983d
00000250: 87ad 4fbc 3331 92bb 2f3f c9bc 166b d4bc
00000260: c8c7 87bc db42 73bc 4a50 6ebb bb9c 84ba
00000270: 9268 aabc 2719 d5bc 442f 9ebc 6086 07b9
00000280: 52ce 3dbb 5868 babc baaa eebc b3ee acbc
00000290: fb82 bbbc baff 1b3e 8da7 0dbb 0999 2fbb
000002a0: 6635 22bc 0a3f cabc c7da 4b3e 7366 52ba
000002b0: 5a0e 2fb9 d929 f33d 59f7 57bb 020a 7abb
000002c0: 30fc aebb a696 cbbc 6d74 87ba 1e1f 3ebc
000002d0: 15b1 edb9 6b44 90bc a931 1eba 473e b8bc
000002e0: f688 e8b8 9281 95ba 7707 adbc e77a a6bb
000002f0: 7a55 8bbc 1277 c43d b4f0 a4bc 0e6f 48bb
00000300: 1da0 06bb 474e 9abc b308 29bc 65d6 03bb
00000310: aefe c4bb 035a 62ba df24 353e 10aa ee36
00000320: 70bd 8dbb 126d d0bc 83f1 a3bc 4cfd 09bc
00000330: 93a6 bdba fe0e faba ee9b 22bb 3e10 ac36
00000340: 99bd b2bc ca3b 96b9 63e6 17b8 ddb3 85b9
00000350: 7482 debc f503 91bc 3536 c2bb bf2a 0abc
00000360: 53a0 79bc 044c 12ba 16bf e5bb 4575 82bc
00000370: ec2b a2bc d8ad 82ba 0eb0 cabb a165 1f3d
00000380: 27c9 86bc a377 9dbc 6382 d4ba afca 53bb
00000390: 6d0a 5eb6 a9e5 5cbc 53f5 cf3d 0ce7 3d3e
000003a0: e105 9abb 6d14 8bba bc5c 61bb 042d 3ebc
000003b0: 6b70 f33d 3655 6eba 4f76 82bc 7a22 91bc
000003c0: e7cb 1cba 7249 86bb 1439 abbc 1f61 0fbc
000003d0: d2dd 5dbc 7a8e 06bb d02f 9abc 4ffd 0c3d
000003e0: e50f 7ebb 5ac6 38bb 76da d6bc 31cc 2fbc
000003f0: 9a19 61bc 02b0 e9bb be12 81bb 409b 873d
0.21904743 -0.0002426556 -0.026069624 -0.0029889627 -0.004253535 -0.0030498814 -9.524154e-05 1.5461603e-05
-0.021178883 -0.0005267871 -0.0039012264 -0.008252512 -0.024449244 -0.00047886354 -0.015138057 -0.010087245
-0.00016279792 -0.013606644 -0.011123021 -0.018134063 -0.019322306 -0.0014804583 -0.008094952 -0.019659871
-0.024770599 1.7065837e-05 -0.024534825 -0.028575018 -0.021300554 -0.017380735 -0.0116406195 -0.00022899038
-0.0033413598 0.14926018 -0.0015182189 -0.010522359 -0.00016796593 -0.019129544 -0.0310968 0.19738272
0.14114662 -0.021104071 0.06862675 -0.01257381 -0.0067186076 -0.00023140055 -0.0037669558 -0.025758516
-0.0059946706 -0.0060659004 -0.00078536087 -0.00077126006 -0.014814414 0.046907026 -0.021628004 -0.0188323
-9.002612e-06 -0.02431202 -0.0012612544 -0.003829353 -0.0074458714 -0.012269216 -0.0015154607 0.09925793
-0.002279537 -0.0051421397 0.20940752 -0.022832336 -5.7193345e-05 -3.8276914e-05 -0.002711987 -0.005747565
-0.001182003 -0.001342925 1.2548827e-05 1.2721825 -0.0010247389 -0.011234272 -0.021441424 -0.019373527
-0.017710768 -0.0004584795 -0.019499427 -0.02732526 -0.0003790058 -0.0010890884 -0.0016188438 -0.00021362875
-0.018142987 -0.0005140475 -0.0003909019 -0.02473068 -0.0006686805 -0.0046914336 -0.031151857 -0.00024265324
-0.024576308 -0.014452342 -0.01760772 0.1341545 -0.0150470985 -0.0018115937 -0.0005495623 -0.0024729948
-0.00076113094 -0.0039428286 -0.009633365 -7.690217e-05 -0.009982095 -0.015313429 -0.010412471 -0.015012849
-0.00051466434 0.00023735937 -0.0013331857 -0.0058795935 -6.4296175e-05 -0.016774688 -0.008828448 -0.005884093
-0.0043838094 -0.007843577 -0.0063867625 -0.026319494 -0.011061784 -0.0022678548 -0.0015155377 -0.0035340174
-0.014244664 -0.005864834 -0.0021935063 1.8847702e-05 0.030986916 0.076012515 -0.012112735 -0.0016971906
-0.017552322 -0.00909344 0.10526705 -0.00024828204 -0.00024534675 0.09950314 -0.02100459 -0.00091424596
7.2827484e-06 -0.0069673457 3.2341604e-06 0.074698426 -0.0126756495 -0.0044614314 -0.024566261 -0.025929969
-0.016574755 -0.014847483 -0.0036363774 -0.001011751 -0.020801816 -0.02601297 -0.019309647 -0.00012924662
-0.0028962088 -0.022754833 -0.029134143 -0.021109914 -0.022889605 0.1523427 -0.002161476 -0.0026794097
-0.0099004265 -0.024688262 0.19907676 -0.00080261304 -0.00016694647 0.11873216 -0.0032953827 -0.0038152938
-0.0053401217 -0.024852108 -0.001033438 -0.011604099 -0.000453361 -0.01761075 -0.00060346216 -0.022490634
-0.00011088133 -0.0011406413 -0.021121724 -0.005080569 -0.017008532 0.09593023 -0.020134307 -0.0030583772
-0.0020542212 -0.018836154 -0.010317015 -0.0020116803 -0.0060118055 -0.00086346286 0.17689846 7.1127506e-06
-0.004325561 -0.025442634 -0.020012623 -0.008422207 -0.0014469199 -0.0019077954 -0.002481218 5.1278903e-06
-0.021818923 -0.00028654776 -3.621577e-05 -0.00025501745 -0.027161814 -0.017702082 -0.005926872 -0.008433043
-0.015235978 -0.0005580785 -0.0070113046 -0.01592506 -0.019796334 -0.0009970022 -0.006185538 0.03891528
-0.016453339 -0.019222086 -0.0016213175 -0.0032316854 -3.3086646e-06 -0.01348249 0.10154214 0.18545169
-0.004700408 -0.0010610946 -0.003438755 -0.011607412 0.118866764 -0.0009091677 -0.015925555 -0.017716635
-0.00059813116 -0.004098111 -0.02090124 -0.008751183 -0.013541656 -0.00205317 -0.018821627 0.03442126
-0.0038766798 -0.0028194399 -0.026227217 -0.010729835 -0.013739014 -0.0071315775 -0.003939002 0.066214085

weight f4 [32, 48, 1, 2]
00000000: 1bb0 b23d bcd4 d43d ee55 0ebe 52d6 43be
00000010: 4f9d 87be e806 82be 58ca 2e3d f1fa 063e
00000020: 1d4a acbb d5ad 33bc ff4f 84bd cc1c be3d
00000030: 7a7f fb3d 29a6 42be 0978 a93c bf20 873b
00000040: 0a1a a5be a4a1 3a3e d257 5bbe 7913 99bd
00000050: 6b36 e83d 4b68 503e f2cd 6e3d 108f f43c
00000060: 15c6 a7be 6657 233d 042b dd3d 0fde 713e
00000070: e6d4 2abd 8702 563d a648 85bd 1470 05be
00000080: 8d57 513e 7d5a 0ebd 726b e5bc 7c12 1cbe
00000090: 2011 c7be f7d7 3f3e b094 e5bd b8af bc3d
000000a0: bb74 bbbd 8c60 80bc 0beb 24bd b320 2cbe
000000b0: 4abe 353e 4896 0fbe f56f 1dbd f329 a03d
000000c0: 11ba 133e 7692 973c c586 503e 10ab b43e
000000d0: 0604 a2bd c738 54be ccd4 103d bf23 0a3d
000000e0: 6dca 2dbd 5fee 1c3e 2381 2dbc 8d5a 123e
000000f0: f648 553e 91b6 983e 6936 38be 0421 93be
00000100: fa36 843d e293 fdbc 00dd 5ebe 091a 923d
00000110: 39b7 69bd 8cdf 793e f699 7d3d fa2d 86bd
00000120: d8e6 003e 6a4e 2bbe 2d75 923e 11b0 583d
00000130: 4520 713e f155 a6bd 9aae 113e ee0e 583b
00000140: 9ff7 dcbd 077c 843d e060 593d 662f f4be
00000150: a2ef 6abd 5d46 8d3d 62d4 d73d d010 2d3e
00000160: 8f37 8abd 8e69 0d3e 2a03 5a3e fc5d bd3d
00000170: 1e1a d13b 1123 efbd 38a9 503d 1c46 fcbd
00000180: 0ed2 563e b7e1 003d a130 993e f3f2 7d3e
00000190: b4da b83e a4d8 a83e 9b62 09be 1336 16be
000001a0: 6e97 243c 3fcd dc3b b26e 103e a884 ee3d
000001b0: 064a 7bbe e27a e53e af63 e33d 7bb2 1d3e
000001c0: 5684 6d3e c973 90be a491 59bb 54ad 863d
000001d0: 9b19 75bc 5e17 debc afb5 85bd 5430 86bd
000001e0: d9ad f6bc 155c 02be 7aa2 863d 26d7 3dbe
000001f0: 0cd5 a43d 0544 9e3d e425 d3bc 9a8f 883d
00000200: 0d98 163d 6d87 373e d5a7 19be 4ee2 72be
00000210: 7f2a f9bd 0954 58be dc0c b43d 53cd 553c
00000220: b187 2a3e 4c7e c9bd e12c 15be 46ac 88bd
00000230: 0323 433d 7703 9abd 2b6d 023e 8e83 b93c
00000240: fb1e 6fbe 12d4 76bd f9bb 02bd 3508 8bbf
00000250: a63d a53d e891 58bb c140 a3be 4ff3 8bbd
00000260: ba7b babd 3653 1abe 42ec 533d 66f0 613d
00000270: b247 9bbc cc48 d0bd 45be d83d a851 5e3e
00000280: f2c1 73bd 7482 a53b 2088 d83d 2138 c43b
00000290: bbc2 0dbc c611 413d 8427 31be 1368 873c
000002a0: 2659 9e3e a611 403f 28e9 813c 8e6a a43e
000002b0: c37d 57be ffe0 123c e774 abbc 2e41 923e
000002c0: fb5d 5b3e dd12 f0bd e911 00be f6a2 a73d
000002d0: c7bc b53d 66e3 c23d 42ba 37bc e412 18bd
000002e0: c280 71ba 90f6 033c 79cf 23be 523f 3dbd
000002f0: f9ef c63d 569e 913c aa89 ed3d e8ef d33d
00000300: 7ee4 6cbe a6e7 233e ca38 38be c06c d9bc
00000310: 5e72 2abd 5af1 de3d ab4e 9d3e 4a44 ba3e
00000320: 44b8 6ebe 9cec f63d 5cdd 8cbe 7b6d 15be
00000330: 9cb3 bb3e 501f fabd 5e6e c33d 3b19 b83e
00000340: 0f95 823e 20f6 d8bc cf18 bc3d 9c28 e63e
00000350: 3161 3a3e 99f4 9bbe 6ac6 21be 905d 90be
00000360: b422 453d 9403 9f3e 6ded 2cbe d0bb 843d
00000370: f14b 2a3e be78 9d3d c36c 6b3c 1c67 07be
00000380: fa53 b03d 962b 1fbe f97a 533e 3002 a3be
00000390: 13cc 413e aaf7 113e ca74 513e a2f0 96bd
000003a0: 0a4b 353d c021 5fbe 92e3 e8bd 0ed5 ad3a
000003b0: e676 56bd 95de 573e 3943 ae3e aa41 eb3d
000003c0: 7b2e 5bbc 168f 80bc c6dc 9abe 1826 53bf
000003d0: 0e54 103e ec44 e13e cc7e bbbc 6df0 fd3d
000003e0: dce3 0dbe 8bd3 a1be e97a 9cbe b842 0d3d
000003f0: 2156 813d 6d0e bebb dbee 743e 3977 023e
0.08724996 0.10392138 -0.13899967 -0.19124725 -0.26487204 -0.25395894 0.04267344 0.13181664
-0.0052578584 -0.010966738 -0.064605705 0.09282836 0.122801736 -0.19008698 0.02068712 0.0041237767
-0.3224643 0.18225724 -0.2142022 -0.07474417 0.113385044 0.20352285 0.058301874 0.029853374
-0.32768312 0.03987827 0.1079922 0.23619865 -0.041706942 0.052248504 -0.06507997 -0.13031036
0.20443554 -0.034754265 -0.028005335 -0.15241426 -0.38880253 0.18734728 -0.112100005 0.09213203
-0.09153124 -0.015671037 -0.040263217 -0.16809349 0.17748371 -0.14022171 -0.03843685 0.07820501
0.14426447 0.018502455 0.2036391 0.3528676 -0.07910924 -0.20724784 0.03535919 0.033725496
-0.042429376 0.15325306 -0.010589871 0.14292355 0.20828614 0.29826787 -0.17989506 -0.28736126
0.064557984 -0.030954305 -0.21763992 0.07133872 -0.0570595 0.24401683 0.061914407 -0.06551738
0.1258806 -0.16729131 0.28605023 0.052902285 0.23547466 -0.08121861 0.14226761 0.0032967883
-0.107894175 0.06468969 0.053070903 -0.47692412 -0.057357438 0.06898186 0.10538556 0.16900945
-0.06748878 0.13809797 0.2129027 0.09246442 0.0063812872 -0.1167661 0.05094263 -0.1231806
0.20978567 0.03146526 0.29919913 0.24799709 0.36104357 0.32977784 -0.13416521 -0.14669065
0.010045869 0.0067383344 0.14104727 0.11646396 -0.24539956 0.44820315 0.111029975 0.15400116
0.23195013 -0.28213337 -0.003319838 0.065760285 -0.014959718 -0.027110752 -0.06528794 -0.065521866
-0.030112194 -0.12730439 0.06573959 -0.18539104 0.08048448 0.077278174 -0.025774904 0.06668015
0.0367661 0.17922755 -0.15005429 -0.23719141 -0.121663086 -0.21125807 0.08791515 0.013049441
0.16653325 -0.09838542 -0.14567901 -0.066734836 0.04764081 -0.07520192 0.12736957 0.022645738
-0.23351662 -0.06026084 -0.031917546 -1.086188 0.08068399 -0.0033045951 -0.3188534 -0.06833517
-0.0910563 -0.15070805 0.051738985 0.055160902 -0.018955085 -0.10170135 0.10583166 0.21710837
-0.059511133 0.0050509516 0.10572839 0.0059881364 -0.008652384 0.04713609 -0.1730023 0.016529119
0.3092739 0.7502693 0.015858248 0.32112545 -0.21044068 0.008964776 -0.020929767 0.28565353
0.2142257 -0.11722348 -0.12506832 0.08185379 0.08873897 0.09516029 -0.011213841 -0.03712739
-0.0009212607 0.008054391 -0.15997113 -0.046202965 0.0971374 0.017775696 0.11598523 0.10348493
-0.23134038 0.16006336 -0.17990413 -0.026541114 -0.041612975 0.10885878 0.3072408 0.36380225
-0.2331248 0.120568484 -0.27512634 -0.14592545 0.3666047 -0.12213004 0.09542535 0.3595675
0.25504348 -0.026484549 0.09184419 0.44952857 0.18201138 -0.3046005 -0.15798345 -0.28196383
0.0481288 0.31057417 -0.16887446 0.06481135 0.16630532 0.07689045 0.0143691925 -0.13222927
0.08609767 -0.1554397 0.20652379 -0.31837606 0.18925504 0.14254633 0.20454708 -0.07370116
0.044261016 -0.21790218 -0.113715306 0.0013262348 -0.052359484 0.21081002 0.34035662 0.11487134
-0.013377781 -0.015693229 -0.30246562 -0.8248 0.14094564 0.43997896 -0.02288761 0.12399373
-0.13856453 -0.31606707 -0.30562523 0.034487456 0.06315256 -0.0058000595 0.23919241 0.12740792

bias f4 [48]
00000000: f601 0f3d ca03 35bc 11e8 e4be 9815 d0bd
00000010: 7900 3fbd fea0 4e3e 6476 f3bd 329a a73d
00000020: 571c c6bd d57e 38be 7d7d 603e 3aec 36be
00000030: 0bb1 53be 88ee 7d3d 180d a8bc d58d 3cbd
00000040: 498c 3f3e b567 47bd f64f 66bd fcdc 80bd
00000050: eb23 40bd dd70 1a3d 4d10 0b3e 9c47 c9bc
00000060: 1d85 3dbd 509e a13e 59e2 853e c17c b13d
00000070: 16a0 253d 0b5b d6bd c46a 5cbe fff8 87be
00000080: 59ee 043d 6cc9 30be fa41 663e 0411 18be
00000090: e804 b83d 142a 283e 9f3c df3c 2614 143d
000000a0: b5e0 45be 3224 e9bd b187 b13a 456f c3bd
000000b0: 06d4 913e b61b 89bd 4726 a8bd fdeb 13bd
0.03491398 -0.011048267 -0.44708303 -0.10160369 -0.04663131 0.20178601 -0.118878156 0.08183707
-0.09673374 -0.18017133 0.2192287 -0.17863551 -0.20673005 0.06199506 -0.020514056 -0.0460337
0.18705858 -0.048682887 -0.0562286 -0.062921494 -0.046909254 0.03770529 0.13580437 -0.024570279
-0.046269525 0.31566095 0.26149252 0.08666373 0.040435873 -0.10466584 -0.21525103 -0.26557156
0.03245387 -0.17264336 0.22486106 -0.14850241 0.08985311 0.16422302 0.027250586 0.036152028
-0.19324 -0.11383857 0.0013544468 -0.09542707 0.28482074 -0.066947386 -0.08210426 -0.036113728

weight f4 [48, 64, 2, 1]
00000000: 26d8 09be 3d6b ad3e 6e6c 423e 1553 2e3c
00000010: 325a 5e3b 56df 133e da22 94bf 9ac3 e03d
00000020: 07fe 52bd 3bc0 bdbd 382b 3c3c f72b efbd
00000030: 76e4 a8be 1bb8 a13d 4c68 26be 8881 803d
00000040: 167e b3bd 3b64 423d cadb 173e 6dcc cdbe
00000050: 75f9 463d 0233 43bf 084d b73d 148c 083e
00000060: c8d7 6cbe 16af a9bf 03b2 af3a 95e5 87be
00000070: e8a3 8dbd fe4e 883e 3b14 2d3e ad8d 053f
00000080: f20e 44bf 51fb eebd 12b2 7cbe 89a1 05bd
00000090: c5ff 89bc 879f 05bd b95d e83c 9dfd 88bf
000000a0: f771 8dbc bc68 9cbc 275f 1a3e ac36 ed3d
000000b0: a388 8c3c 18f5 873e a7a7 fbbc 728d 023e
000000c0: c26a 3dbe 4d36 4c3e 8304 f33d 4212 143f
000000d0: dee4 b6bd 44be b93d f42d 953c 599e eabd
000000e0: c153 213e be09 0dbe 7619 023e cd0f 75bd
000000f0: 8ec5 e4bd ca1b e8bc 9726 45be f87c 87be
00000100: d894 333e af73 2f3c 88e8 32be 2605 68be
00000110: 5115 bdbd 6657 c3bc 8f08 513e e216 7b3e
00000120: bf04 9dbe 1072 003e 1110 49bd 10d9 8fbe
00000130: f9a2 03be dd3a 99be e5a5 5dbe 599d 213e
00000140: e66b f1bc da30 8bbc e809 15be d00d 39c0
00000150: 8f45 9f3d 2f54 8fbd 9b52 f0be bd57 da3d
00000160: 1d86 a13d 725f a63d c74d 39bd ee8a 2d3e
00000170: 79f8 58bd 7fdd 96bc e598 083e 9442 0abf
00000180: 9ea2 d1be e109 2a3d 0544 2b3d a089 17bd
00000190: 62bd febc 1e06 b1be 036f 16bd 33e5 cebd
000001a0: 3532 4d3e 5e59 993e 93cf 9f3e 34d1 b4bd
000001b0: 935c 39be 8a34 5abe 6b9e 0dbe 8e37 33bd
000001c0: 2431 893d 3854 5c3b 3705 933e 333f ae3d
000001d0: a854 5abd 7035 533e 1ac9 f2bd 0b85 373e
000001e0: 15a9 6dbd 0611 14be 568f f3bd d5d8 89be
000001f0: fe3e 84be 3f52 333e 9c74 0e3b 984a 0a3e
00000200: 496a ca3d b126 fb3e f9ac 513e 1152 e8bd
00000210: 710a 553d bcea f8bc 9bde 363e 57ef acbc
00000220: 58c9 223e 3399 0cbd 219d f13c d689 e43d
00000230: 32d9 503c b2e0 c83e 5b17 0ebe 3bb7 04bf
00000240: cf2c 643e 3c2d 4c3e 5981 8f3e dded 93be
00000250: 3459 9abe d898 f23e 931a 84bd 7941 de3d
00000260: ba0e c5bd 6283 cabc 84bc 873e e95d f5bd
00000270: ae2b 04be 4cd5 33be 1369 4d3f 3635 863e
00000280: 5615 a6be c193 a8bd b806 9a3d 91cc bdbd
00000290: 8ab0 bcbc ecdb 923c 7e60 1a3e 983f 29be
000002a0: b7de 1cbd fad7 acbd aa68 143e 7ede 283c
000002b0: 6709 19be 96d4 73bd 5e2a 97bc 4228 563e
000002c0: 889c bf3e e3f6 8fbd 1ebf c0bd 0e30 713c
000002d0: d350 16be ed51 ffbd 414f b5bd 4b32 22bd
000002e0: 868d 603e cc8a 0cbe 5b4e 14be 256a 9f3c
000002f0: 4e2b 1ebe 419c b43e 0cde 74bb 1114 f33e
00000300: 4f8a 76be 5287 2d3e 38be a43d ccea 573d
00000310: a736 73bc f3ff bbb9 ee51 2f3c 74a5 5c3b
00000320: 82e6 cbbd 58cc 123d 5f6e 793e 619a bc3d
00000330: a365 88be 9be7 8dbe e136 703e 6a5b cebb
00000340: 035c 89be 10f3 a03d 7fd2 883d 28fa 64be
00000350: c072 d13d 0493 663e 8a67 56bd 1717 ebbd
00000360: e44a e13c e460 003e fa43 813e b2ec 07bd
00000370: f0f0 15be 329c 62bd dd16 853c 91e5 333e
00000380: 813f b7bd c305 0abe c358 103e 472a d83d
00000390: 48ae 323e 7c30 abbb 836c 25bd 8a12 04bc
000003a0: 3fe1 dc3d 792c 653e 8f90 1d3e 54c3 173e
000003b0: c91e b73d d15f 1dbd fd85 8a3e 37cb 353c
000003c0: 93dc 523e c794 2c3d 9c91 d7bd 1b8b 243e
000003d0: 9d28 3ebe bef7 6f3d ceda 083e 762a 1dbe
000003e0: e07e 00bf 1e79 07bd 4e7d 253e 4b89 55be
000003f0: 087c a9be 7f96 083a 1d1a b83d 594d dfbc
-0.1346136 0.3387088 0.18986675 0.0106399255 0.0033928272 0.14440665 -1.1573136 0.10974808
-0.05151179 -0.09265181 0.0114849135 -0.116783075 -0.32986802 0.078964435 -0.16250724 0.06274706
-0.08764283 0.04745887 0.14829937 -0.40195027 0.048577745 -0.76249707 0.089502394 0.13334686
-0.23129189 -1.3256557 0.0013404492 -0.26542345 -0.06916028 0.26622766 0.16902249 0.52169305
-0.76585305 -0.116690286 -0.24677303 -0.032624755 -0.016845593 -0.03262284 0.028365003 -1.0702397
-0.017266257 -0.01909291 0.1507536 0.115826935 0.017154997 0.2655418 -0.030719591 0.1274927
-0.18497756 0.19942589 0.11866095 0.5784036 -0.08930372 0.090694934 0.018210389 -0.11455984
0.15754606 -0.13773248 0.12705025 -0.059829522 -0.11170493 -0.028333563 -0.19253002 -0.2646253
0.17537248 0.010708733 -0.17471516 -0.22658214 -0.092325814 -0.023845386 0.20413421 0.24520448
-0.30667683 0.12543511 -0.049087588 -0.28095293 -0.12855138 -0.29927722 -0.21645315 0.1578268
-0.029470395 -0.016991068 -0.1455456 -2.891468 0.07776939 -0.069984786 -0.46938023 0.10661266
0.07886908 0.081236735 -0.04524019 0.16947529 -0.052971337 -0.018416164 0.13339575 -0.5400784
-0.4094438 0.041513328 0.041812915 -0.036996484 -0.031096164 -0.3457498 -0.036726963 -0.1010231
0.20038684 0.29950994 0.31213054 -0.08828965 -0.1810172 -0.21309105 -0.13829963 -0.043754153
0.06698826 0.0033619534 0.28714916 0.08508148 -0.05330339 0.20625854 -0.11854763 0.17921846
-0.058022577 -0.14459619 -0.118925735 -0.26923242 -0.2582931 0.17511843 0.0021736985 0.13505018
0.098835535 0.49052957 0.2047614 -0.11343778 0.05201191 -0.030385368 0.17858355 -0.02111022
0.15897119 -0.03432579 0.02949387 0.111591026 0.012747096 0.3923393 -0.13876097 -0.5184209
0.22282718 0.1993913 0.28028372 -0.28892413 -0.30146182 0.47382236 -0.06450381 0.10852332
-0.096219495 -0.024720851 0.26511014 -0.119808026 -0.12907287 -0.17561835 0.80238456 0.26212472
-0.32438153 -0.08231307 0.07520813 -0.092675336 -0.0230334 0.017927133 0.15075871 -0.16528165
-0.038298335 -0.08439632 0.14493051 0.0103069525 -0.14944993 -0.05952891 -0.01845282 0.20913795
0.3742411 -0.07029512 -0.09411453 0.01472093 -0.1467927 -0.12466798 -0.08853007 -0.039598744
0.21928987 -0.13724822 -0.14483015 0.019459793 -0.15446207 0.35275462 -0.0037363796 0.47476247
-0.24076198 0.16946152 0.08044094 0.052714154 -0.014844573 -0.00035858116 0.010700686 0.0033667954
-0.09956075 0.03583941 0.2435851 0.09209133 -0.26640043 -0.27715763 0.23458435 -0.0062975185
-0.26828012 0.078588605 0.06680774 -0.22361052 0.10226965 0.2251702 -0.052344836 -0.114790134
0.027501531 0.12536961 0.25247175 -0.033184715 -0.14642692 -0.05532474 0.016246254 0.17568041
-0.08947659 -0.1347876 0.1409636 0.10554939 0.17449296 -0.0052242856 -0.040386688 -0.008061061
0.1078515 0.22380246 0.15387176 0.14820606 0.08941419 -0.038421456 0.2705535 0.0110958135
0.20591955 0.042134073 -0.1052582 0.1606869 -0.1857018 0.058585875 0.13364717 -0.15348229
-0.50193596 -0.03307449 0.16161081 -0.20853154 -0.3310244 0.0005210414 0.08989356 -0.027258562
