models/decNet_1.py.pkl (torch_old, 900824 bytes, 25 tensors)

weight f4 [256, 1, 1, 1]
-0.18972716 0.96505433 -0.17155686 0.3970937 0.27229586 0.3736783 -0.53521305 -0.8393635
0.36827528 0.90400237 -0.13621347 -0.26798084 0.55912894 -0.8694306 0.1772505 -0.30685607
0.777409 0.42335358 -0.37614653 0.8966339 -0.7640984 -0.15429582 -0.9728509 0.72510076
0.70870733 0.62763506 -0.006257285 -0.13485256 -0.65975016 0.78313255 0.6125017 0.0605263
-0.47658312 -0.4664452 0.32302007 -0.9048426 -0.005368367 -0.5977806 0.70725864 -0.6227637
0.33684558 0.37650692 -0.84182376 -0.98702157 -0.65894204 0.4270417 0.27565023 -0.56660455
-0.43515736 -0.36122733 -0.7695564 0.89513814 0.37003744 -0.6242161 0.4590196 0.7725761
-0.85852253 0.26216152 -0.8136498 0.52133656 -0.6874631 0.31059998 0.9747334 0.6487739
-0.6504117 -0.039581254 -0.3583794 -0.982011 0.21403266 0.9522567 0.15850626 -0.30792505
-0.6272362 0.15999126 -0.45415336 0.8424981 0.29831588 -0.49481082 -0.6143678 0.6479972
-0.40145475 -0.80004317 -0.6088193 0.8733198 0.95460194 0.80054903 -0.4679197 0.39718333
-0.90303856 -0.28125274 -0.68182665 -0.26848188 0.6081404 -0.98186094 0.77487695 -0.98694533
-0.31287783 0.36254233 -0.5061502 -0.007161328 0.33752763 0.36926237 0.79930824 -0.15778188
-0.97230214 0.022652986 -0.49296767 0.84685487 0.51270515 0.8716157 -0.24083446 0.23782614
0.23679322 -0.42095512 -0.40240103 -0.45344442 0.4208695 -0.44078383 -0.12045017 0.34705663
0.8158191 -0.2351236 -0.9516467 -0.33865383 0.123518035 -0.15724373 -0.04403097 0.030662889
-0.5252533 0.54807425 0.21435747 0.92627823 0.687869 -0.22312905 -0.014452041 -0.16160858
-0.5062413 -0.77623576 -0.3951047 0.848949 -0.21168676 0.93522716 -0.48975807 -0.09956193
-0.2600109 0.042553734 0.08421167 0.7298966 0.8961973 -0.6957462 -0.59912694 -0.21442442
0.52122784 0.9287281 -0.40131602 0.26630497 -0.5507485 0.16303243 -0.4143037 -0.41397503
0.9068594 0.6736287 0.59538114 -0.7165491 -0.96121943 -0.9307958 0.42129934 0.31991565
-0.24882822 -0.108850844 -0.747868 -0.7248477 0.534846 -0.57703984 0.9223829 0.726119
0.6733758 0.15835413 -0.4513619 -0.514678 0.85070384 0.05614522 0.96997 0.78132564
-0.945139 -0.50347954 -0.45847493 -0.7595649 -0.55661273 0.66591406 -0.20613858 0.9591285
0.5616112 0.75705695 -0.73294884 -0.056944348 -0.44080922 0.09912772 -0.31650785 -0.8900141
0.427334 0.39914754 0.47674826 -0.5289282 -0.18651317 -0.5391175 -0.46317163 0.9809675
-0.8713161 0.274722 0.9563007 -0.38536635 -0.9115134 -0.7237689 0.8149851 0.022556515
0.1874534 0.37041947 0.44580585 0.9815061 0.098075494 -0.36159697 0.3513991 0.1977828
0.14102401 -0.49014056 0.6224836 0.041117374 -0.60414743 0.53054774 -0.56307304 0.22432783
0.8752125 -0.45270786 0.19235598 -0.054825652 -0.50378466 0.7934604 0.87072086 0.913153
-0.43869847 -0.07600153 -0.9062171 -0.87290514 -0.018481612 -0.9052449 0.036223833 0.10004317
0.56799686 0.7308501 0.67251194 0.9036306 0.8764602 -0.033979908 0.68838066 -0.38663512
00000000: d647 42be cd0d 773f 9aac 2fbe de4f cb3e
00000010: 5d6a 8b3e c352 bf3e b903 09bf 87e0 56bf
00000020: 948e bc3e b36c 673f 8b7b 0bbe c934 89be
00000030: 1323 0f3f 0193 5ebf 2881 353e 3d1c 9dbe
00000040: 4704 473f cdc1 d83e 4796 c0be cd89 653f
00000050: f49b 43bf b9ff 1dbe c20c 79bf 34a0 393f
00000060: d86d 353f b1ac 203f e909 cdbb ca16 0abe
00000070: 63e5 28bf 607b 483f e9cc 1c3f 6dea 773d
00000080: b402 f4be e8d1 eebe e362 a53e c4a3 67bf
00000090: 20e9 afbb 2608 19bf e70e 353f 716d 1fbf
000000a0: 0677 ac3e 84c5 c03e c381 57bf 72ad 7cbf
000000b0: 6db0 28bf 36a5 da3e 0722 8d3e ff0c 11bf
000000c0: f2cc debe caf2 b8be a601 45bf c627 653f
000000d0: 8c75 bd3e a0cc 1fbf 9e04 eb3e 8cc7 453f
000000e0: 22c8 5bbf 093a 863e 5a4b 50bf 5076 053f
000000f0: 95fd 2fbf f606 9f3e 2188 793f 0c16 263f
00000100: 6281 26bf f41f 22bd 817d b7be 1365 7bbf
00000110: 612b 5b3e 18c7 733f 774f 223e 5aa8 9dbe
00000120: 8d92 20bf c0d4 233e ca86 e8be f5ad 573f
00000130: dcbc 983e d857 fdbe 3547 1dbf 25e3 253f
00000140: 7a8b cdbe a1cf 4cbf 95db 1bbf e391 5f3f
00000150: cb60 743f c8f0 4c3f 2c93 efbe 9d5b cb3e
00000160: 892d 67bf 5c00 90be 318c 2ebf 7576 89be
00000170: 17af 1b3f 3d5b 7bbf 565e 463f 73a8 7cbf
00000180: 8631 a0be 269f b93e 0f93 01bf 93a9 eabb
00000190: 6cd0 ac3e f50f bd3e 779f 4c3f 9391 21be
000001a0: cbe8 78bf c192 b93c 4266 fcbe 7bcb 583f
000001b0: a540 033f 3522 5f3f 4f9d 76be b288 733e
000001c0: ec79 723e 6e87 d7be 8207 cebe de29 e8be
000001d0: 357c d73e 6bae e1be 94ae f6bd 68b1 b13e
000001e0: 85d9 503f 3ec4 70be 1e9f 73bf 0964 adbe
000001f0: 06f7 fc3d 8004 21be d259 34bd bd30 fb3c
00000200: 0077 06bf 984e 0c3f 8680 5b3e 9220 6d3f
00000210: 2f18 303f f17b 64be 41c8 6cbc b87c 25be
00000220: 0899 01bf 63b7 46bf 2a4b cabe b954 593f
00000230: 6ac4 58be 0c6b 6f3f 92c1 fabe 20e7 cbbd
00000240: 2620 85be d34c 2e3d 2b77 ac3d 81da 3a3f
00000250: 306d 653f 6c1c 32bf 6260 19bf 1392 5bbe
00000260: 306f 053f 20c1 6d3f 4b79 cdbe 2059 883e
00000270: dbfd 0cbf f9f1 263e 9d1f d4be 89f4 d3be
00000280: f027 683f ee72 2c3f e66a 183f c36f 37bf
00000290: 7a12 76bf a248 6ebf 8cb4 d73e fccb a33e
000002a0: d3cc 7ebe 31ed debd 4774 3fbf 9e8f 39bf
000002b0: abeb 083f e2b8 13bf 4921 6c3f efe2 393f
000002c0: 5b62 2c3f 9627 223e e818 e7be f0c1 03bf
000002d0: bac7 593f 88f8 653d f44f 783f f504 483f
000002e0: a1f4 71bf 09e4 00bf 3abd eabe d872 42bf
000002f0: 2c7e 0ebf 5879 2a3f fe15 53be 7289 753f
00000300: c0c5 0f3f 7cce 413f 89a2 3bbf 7a3e 69bd
00000310: bfb1 e1be 7903 cb3d 510d a2be f7d7 63bf
00000320: 86cb da3e 115d cc3e 5918 f43e d767 07bf
00000330: 4ffd 3ebe 9b03 0abf d524 edbe b020 7b3f
00000340: 920e 5fbf 5da8 8c3e 1fd0 743f bd4e c5be
00000350: f158 69bf eb48 39bf dda2 503f 71c8 b83c
00000360: c9f3 3f3e 9fa7 bd3e aa40 e43e fc43 7b3f
00000370: cedb c83d 3d23 b9be 95ea b33e 9387 4a3e
00000380: 9968 103e b4f3 fabe 165b 1f3f b16a 283d
00000390: 68a9 1abf fad1 073f 8e25 10bf 32b6 653e
000003a0: ed0d 603f 53c9 e7be f7f8 443e dd90 60bd
000003b0: 08f8 00bf 3920 4b3f 90e7 5e3f 65c4 693f
000003c0: 169d e0be b1a6 9bbd d8fd 67bf b676 5fbf
000003d0: c066 97bc 21be 67bf 715f 143d 6fe3 cc3d
000003e0: 3e68 113f fe18 3b3f be29 2c3f 5654 673f
000003f0: b25f 603f 842e 0bbd b739 303f 0af5 c5be

beta f4 [16]
1.0 1.0 1.0 1.0 1.0 1.0 1.0 1.0
1.0 1.0 1.0 1.0 1.0 1.0 1.0 1.0
00000000: 0000 803f 0000 803f 0000 803f 0000 803f
00000010: 0000 803f 0000 803f 0000 803f 0000 803f
00000020: 0000 803f 0000 803f 0000 803f 0000 803f
00000030: 0000 803f 0000 803f 0000 803f 0000 803f

gamma f4 [16, 16]
0.31622776 3.8146973e-06 3.8146973e-06 3.8146973e-06 3.8146973e-06 3.8146973e-06 3.8146973e-06 3.8146973e-06
3.8146973e-06 3.8146973e-06 3.8146973e-06 3.8146973e-06 3.8146973e-06 3.8146973e-06 3.8146973e-06 3.8146973e-06
3.8146973e-06 0.31622776 3.8146973e-06 3.8146973e-06 3.8146973e-06 3.8146973e-06 3.8146973e-06 3.8146973e-06
3.8146973e-06 3.8146973e-06 3.8146973e-06 3.8146973e-06 3.8146973e-06 3.8146973e-06 3.8146973e-06 3.8146973e-06
3.8146973e-06 3.8146973e-06 0.31622776 3.8146973e-06 3.8146973e-06 3.8146973e-06 3.8146973e-06 3.8146973e-06
3.8146973e-06 3.8146973e-06 3.8146973e-06 3.8146973e-06 3.8146973e-06 3.8146973e-06 3.8146973e-06 3.8146973e-06
3.8146973e-06 3.8146973e-06 3.8146973e-06 0.31622776 3.8146973e-06 3.8146973e-06 3.8146973e-06 3.8146973e-06
3.8146973e-06 3.8146973e-06 3.8146973e-06 3.8146973e-06 3.8146973e-06 3.8146973e-06 3.8146973e-06 3.8146973e-06
3.8146973e-06 3.8146973e-06 3.8146973e-06 3.8146973e-06 0.31622776 3.8146973e-06 3.8146973e-06 3.8146973e-06
3.8146973e-06 3.8146973e-06 3.8146973e-06 3.8146973e-06 3.8146973e-06 3.8146973e-06 3.8146973e-06 3.8146973e-06
3.8146973e-06 3.8146973e-06 3.8146973e-06 3.8146973e-06 3.8146973e-06 0.31622776 3.8146973e-06 3.8146973e-06
3.8146973e-06 3.8146973e-06 3.8146973e-06 3.8146973e-06 3.8146973e-06 3.8146973e-06 3.8146973e-06 3.8146973e-06
3.8146973e-06 3.8146973e-06 3.8146973e-06 3.8146973e-06 3.8146973e-06 3.8146973e-06 0.31622776 3.8146973e-06
3.8146973e-06 3.8146973e-06 3.8146973e-06 3.8146973e-06 3.8146973e-06 3.8146973e-06 3.8146973e-06 3.8146973e-06
3.8146973e-06 3.8146973e-06 3.8146973e-06 3.8146973e-06 3.8146973e-06 3.8146973e-06 3.8146973e-06 0.31622776
3.8146973e-06 3.8146973e-06 3.8146973e-06 3.8146973e-06 3.8146973e-06 3.8146973e-06 3.8146973e-06 3.8146973e-06
3.8146973e-06 3.8146973e-06 3.8146973e-06 3.8146973e-06 3.8146973e-06 3.8146973e-06 3.8146973e-06 3.8146973e-06
0.31622776 3.8146973e-06 3.8146973e-06 3.8146973e-06 3.8146973e-06 3.8146973e-06 3.8146973e-06 3.8146973e-06
3.8146973e-06 3.8146973e-06 3.8146973e-06 3.8146973e-06 3.8146973e-06 3.8146973e-06 3.8146973e-06 3.8146973e-06
3.8146973e-06 0.31622776 3.8146973e-06 3.8146973e-06 3.8146973e-06 3.8146973e-06 3.8146973e-06 3.8146973e-06
3.8146973e-06 3.8146973e-06 3.8146973e-06 3.8146973e-06 3.8146973e-06 3.8146973e-06 3.8146973e-06 3.8146973e-06
3.8146973e-06 3.8146973e-06 0.31622776 3.8146973e-06 3.8146973e-06 3.8146973e-06 3.8146973e-06 3.8146973e-06
3.8146973e-06 3.8146973e-06 3.8146973e-06 3.8146973e-06 3.8146973e-06 3.8146973e-06 3.8146973e-06 3.8146973e-06
3.8146973e-06 3.8146973e-06 3.8146973e-06 0.31622776 3.8146973e-06 3.8146973e-06 3.8146973e-06 3.8146973e-06
3.8146973e-06 3.8146973e-06 3.8146973e-06 3.8146973e-06 3.8146973e-06 3.8146973e-06 3.8146973e-06 3.8146973e-06
3.8146973e-06 3.8146973e-06 3.8146973e-06 3.8146973e-06 0.31622776 3.8146973e-06 3.8146973e-06 3.8146973e-06
3.8146973e-06 3.8146973e-06 3.8146973e-06 3.8146973e-06 3.8146973e-06 3.8146973e-06 3.8146973e-06 3.8146973e-06
3.8146973e-06 3.8146973e-06 3.8146973e-06 3.8146973e-06 3.8146973e-06 0.31622776 3.8146973e-06 3.8146973e-06
3.8146973e-06 3.8146973e-06 3.8146973e-06 3.8146973e-06 3.8146973e-06 3.8146973e-06 3.8146973e-06 3.8146973e-06
3.8146973e-06 3.8146973e-06 3.8146973e-06 3.8146973e-06 3.8146973e-06 3.8146973e-06 0.31622776 3.8146973e-06
3.8146973e-06 3.8146973e-06 3.8146973e-06 3.8146973e-06 3.8146973e-06 3.8146973e-06 3.8146973e-06 3.8146973e-06
3.8146973e-06 3.8146973e-06 3.8146973e-06 3.8146973e-06 3.8146973e-06 3.8146973e-06 3.8146973e-06 0.31622776
00000000: 9be8 a13e 0000 8036 0000 8036 0000 8036
00000010: 0000 8036 0000 8036 0000 8036 0000 8036
00000020: 0000 8036 0000 8036 0000 8036 0000 8036
00000030: 0000 8036 0000 8036 0000 8036 0000 8036
00000040: 0000 8036 9be8 a13e 0000 8036 0000 8036
00000050: 0000 8036 0000 8036 0000 8036 0000 8036
00000060: 0000 8036 0000 8036 0000 8036 0000 8036
00000070: 0000 8036 0000 8036 0000 8036 0000 8036
00000080: 0000 8036 0000 8036 9be8 a13e 0000 8036
00000090: 0000 8036 0000 8036 0000 8036 0000 8036
000000a0: 0000 8036 0000 8036 0000 8036 0000 8036
000000b0: 0000 8036 0000 8036 0000 8036 0000 8036
000000c0: 0000 8036 0000 8036 0000 8036 9be8 a13e
000000d0: 0000 8036 0000 8036 0000 8036 0000 8036
000000e0: 0000 8036 0000 8036 0000 8036 0000 8036
000000f0: 0000 8036 0000 8036 0000 8036 0000 8036
00000100: 0000 8036 0000 8036 0000 8036 0000 8036
00000110: 9be8 a13e 0000 8036 0000 8036 0000 8036
00000120: 0000 8036 0000 8036 0000 8036 0000 8036
00000130: 0000 8036 0000 8036 0000 8036 0000 8036
00000140: 0000 8036 0000 8036 0000 8036 0000 8036
00000150: 0000 8036 9be8 a13e 0000 8036 0000 8036
00000160: 0000 8036 0000 8036 0000 8036 0000 8036
00000170: 0000 8036 0000 8036 0000 8036 0000 8036
00000180: 0000 8036 0000 8036 0000 8036 0000 8036
00000190: 0000 8036 0000 8036 9be8 a13e 0000 8036
000001a0: 0000 8036 0000 8036 0000 8036 0000 8036
000001b0: 0000 8036 0000 8036 0000 8036 0000 8036
000001c0: 0000 8036 0000 8036 0000 8036 0000 8036
000001d0: 0000 8036 0000 8036 0000 8036 9be8 a13e
000001e0: 0000 8036 0000 8036 0000 8036 0000 8036
000001f0: 0000 8036 0000 8036 0000 8036 0000 8036
00000200: 0000 8036 0000 8036 0000 8036 0000 8036
00000210: 0000 8036 0000 8036 0000 8036 0000 8036
00000220: 9be8 a13e 0000 8036 0000 8036 0000 8036
00000230: 0000 8036 0000 8036 0000 8036 0000 8036
00000240: 0000 8036 0000 8036 0000 8036 0000 8036
00000250: 0000 8036 0000 8036 0000 8036 0000 8036
00000260: 0000 8036 9be8 a13e 0000 8036 0000 8036
00000270: 0000 8036 0000 8036 0000 8036 0000 8036
00000280: 0000 8036 0000 8036 0000 8036 0000 8036
00000290: 0000 8036 0000 8036 0000 8036 0000 8036
000002a0: 0000 8036 0000 8036 9be8 a13e 0000 8036
000002b0: 0000 8036 0000 8036 0000 8036 0000 8036
000002c0: 0000 8036 0000 8036 0000 8036 0000 8036
000002d0: 0000 8036 0000 8036 0000 8036 0000 8036
000002e0: 0000 8036 0000 8036 0000 8036 9be8 a13e
000002f0: 0000 8036 0000 8036 0000 8036 0000 8036
00000300: 0000 8036 0000 8036 0000 8036 0000 8036
00000310: 0000 8036 0000 8036 0000 8036 0000 8036
00000320: 0000 8036 0000 8036 0000 8036 0000 8036
00000330: 9be8 a13e 0000 8036 0000 8036 0000 8036
00000340: 0000 8036 0000 8036 0000 8036 0000 8036
00000350: 0000 8036 0000 8036 0000 8036 0000 8036
00000360: 0000 8036 0000 8036 0000 8036 0000 8036
00000370: 0000 8036 9be8 a13e 0000 8036 0000 8036
00000380: 0000 8036 0000 8036 0000 8036 0000 8036
00000390: 0000 8036 0000 8036 0000 8036 0000 8036
000003a0: 0000 8036 0000 8036 0000 8036 0000 8036
000003b0: 0000 8036 0000 8036 9be8 a13e 0000 8036
000003c0: 0000 8036 0000 8036 0000 8036 0000 8036
000003d0: 0000 8036 0000 8036 0000 8036 0000 8036
000003e0: 0000 8036 0000 8036 0000 8036 0000 8036
000003f0: 0000 8036 0000 8036 0000 8036 9be8 a13e

weight f4 [16, 24, 1, 2]
0.008520767 -0.062934294 -0.124424346 0.02995634 0.12156317 -0.0555987 -0.08971988 0.13186315
0.049499482 -0.061318472 -0.09805131 -0.07084367 -0.09231107 0.105237395 0.04049021 0.11720458
0.079411805 -0.11931287 0.07214135 0.06499095 0.065545425 0.032528937 -0.04505354 0.020875737
0.02626592 -0.017008722 0.12507272 -0.110390976 -0.033239834 -0.14169107 0.027111843 -0.10773459
-0.07076937 -0.13467032 0.11545429 -0.08566552 -0.12766385 0.029909626 -0.06387861 -0.014075518
-0.10673815 -0.09356018 -0.028238542 -0.081577696 -0.083612934 -0.03331998 0.07261966 -0.097074926
-0.11900824 -0.07804616 -0.13163482 0.105654925 -0.06264381 0.00065642595 0.0039366335 0.030717462
-0.050953522 -0.09648684 -0.09300098 -0.011837959 0.006052032 -0.06022083 0.11382812 0.048221275
-0.0756646 -0.0803463 0.0958924 -0.064824015 -0.10968029 0.08479771 0.011243463 0.07145104
-0.040660992 -0.07036027 -0.10472755 -0.086825676 -0.08969432 -0.08488994 0.13014016 0.060212314
-0.023439802 -0.14271478 -0.045315117 0.14309216 0.07668479 -0.003054455 0.067634985 0.050900906
0.0147720575 0.08059032 -0.093656436 -0.13305569 0.10460009 -0.081109405 8.672476e-06 -0.052944988
0.061545983 -0.12074208 0.11450529 0.12819642 -0.088885576 0.13027808 -0.023794651 -0.033178523
-0.06021007 -0.12282032 -0.12657546 0.0816804 -0.052791923 0.03216161 0.024262205 -0.011397928
-0.04211466 0.06019403 -0.013150781 -0.011982352 0.03242609 0.13969555 -0.03877884 -0.08346494
0.068628386 -0.051884472 0.024661303 0.13938841 -0.0144435465 -0.11853505 0.06678219 0.14266425
-0.14413804 0.0836892 0.078247085 0.030404955 -0.14267652 -0.016532153 -0.11407874 -0.035185516
0.05409272 0.09907992 0.06339425 -0.0050577223 -0.1273114 -0.072165854 0.021251515 0.018494025
-0.04000292 0.005106181 0.13533276 0.13373691 0.11180076 -0.0674175 -0.0010331571 -0.04669983
-0.011373192 -0.11174404 -0.09819728 0.08936034 0.11469242 0.13482973 0.09781696 0.10776469
-0.0038624406 0.13324669 0.034366116 0.0981393 -0.08339476 0.07943481 0.004901007 0.14125428
-0.11594689 0.04351619 0.013691187 -0.12383635 0.056953624 -0.093230456 0.04443638 0.03079839
-0.1302332 0.10266717 -0.1402632 0.077041194 -0.014334962 -0.12988 -0.0392308 -0.054837503
0.034486607 0.07373795 -0.025744684 -0.08129646 -0.0042085797 0.13973829 -0.037791334 0.056609064
0.033616424 -0.11235808 0.05933608 0.11585441 0.010178119 0.06204006 0.043511882 0.048715234
-0.03766554 0.08200368 0.028471023 0.08436684 -0.026875123 0.13867432 -0.071413524 -0.018433914
0.016092971 -0.115401976 0.12812331 0.0049655586 0.12122667 0.13940513 -0.024774946 0.035247386
0.12551978 -0.048814394 -0.12591785 0.020923838 0.0006778389 -0.05868929 0.11241457 -0.104580194
-0.047700368 -0.0017418116 0.06741062 -0.043020144 -0.0032419413 0.030724838 -0.030209616 -0.07920292
0.06381218 0.008296654 0.042874068 0.08424349 0.09758487 0.13869455 -0.028137095 -0.13301189
-0.097973675 0.07153423 -0.08556357 -0.08328916 -0.13432568 0.06530659 0.016235217 0.026159689
0.10003653 -0.13526878 -0.03766545 0.11487275 -0.13607788 -0.14143692 -0.021029845 0.09210919
00000000: b09a 0b3c b2e3 80bd 31d2 febd 0067 f53c
00000010: 1cf6 f83d 76bb 63bd 0ebf b7bd 2207 073e
00000020: f8bf 4a3d 1429 7bbd 20cf c8bd 7c16 91bd
00000030: 960d bdbd b486 d73d 10d9 253d f408 f03d
00000040: a8a2 a23d 4e5a f4bd d8be 933d fa19 853d
00000050: ae3c 863d 103d 053d 108a 38bd 9803 ab3c
00000060: a02b d73c e055 8bbc 1013 003e aa14 e2bd
00000070: 7e26 08bd 7717 11be a819 de3c f4a3 dcbd
00000080: 88ef 90bd 04e7 09be 4c73 ec3d 6771 afbd
00000090: 50ba 02be 0805 f53c cad2 82bd 009d 66bc
000000a0: 8899 dabd 7b9c bfbd 8454 e7bc 3512 a7bd
000000b0: 423d abbd 887a 08bd 9eb9 943d 38cf c6bd
000000c0: 98ba f3bd aad6 9fbd 47cb 06be 9c61 d83d
000000d0: 664b 80bd 0014 2c3a e0fe 803b 30a3 fb3c
000000e0: a4b4 50bd e49a c5bd 4c77 bebd 00f4 41bc
000000f0: 2050 c63b 1eaa 76bd b81e e93d ac83 453d
00000100: 0bf6 9abd 9a8c a4bd 3c63 c43d 74c2 84bd
00000110: 0fa0 e0bd 6caa ad3d 8036 383c ec54 923d
00000120: 248c 26bd 0c19 90bd 667b d6bd a9d1 b1bd
00000130: a8b1 b7bd c7da adbd 7643 053e 30a1 763d
00000140: d404 c0bc d323 12be 589c 39bd c086 123e
00000150: ea0c 9d3d 402d 48bb 3684 8a3d 787d 503d
00000160: 8006 723c 8a0c a53d f2ce bfbd c03f 08be
00000170: 9238 d63d b01c a6bd 0080 1137 d8dc 58bd
00000180: a417 7c3d a047 f7bd c081 ea3d ec45 033e
00000190: a409 b6bd 9e67 053e 00ed c2bc 34e6 07bd
000001a0: d69e 76bd 3889 fbbd ff9c 01be 0e48 a73d
000001b0: 583c 58bd e4bb 033d 88c1 c63c 60be 3abc
000001c0: 6c80 2cbd 048e 763d 6076 57bc a051 44bc
000001d0: 38d1 043d 5a0c 0f3e 90d6 1ebd abef aabd
000001e0: 0a8d 8c3d d084 54bd 8006 ca3c d6bb 0e3e
000001f0: a0a4 6cbc 81c2 f2bd 1ac5 883d 9416 123e
00000200: ec98 13be 3e65 ab3d 0240 a03d d013 f93c
00000210: cb19 12be 706e 87bc 1da2 e9bd b01e 10bd
00000220: 5490 5d3d 6aea ca3d d8d4 813d 40bb a5bb
00000230: eb5d 02be b1cb 93bd a817 ae3c c880 973c
00000240: 1ada 23bd c051 a73b ac94 0a3e 54f2 083e
00000250: ccf7 e43d 3012 8abd 006b 87ba 5248 3fbd
00000260: a056 3abc 0fda e4bd a81b c9bd 8e02 b73d
00000270: dce3 ea3d ce10 0a3e 4254 c83d bcb3 dc3d
00000280: 0021 7dbb d271 083e 7cc3 0c3d 42fd c83d
00000290: dfca aabd b8ae a23d a098 a03b f6a4 103e
000002a0: 9075 edbd 083e 323d 0051 603c ea9d fdbd
000002b0: 3448 693d 9cef bebd ec02 363d e84c fc3c
000002c0: da5b 05be 2a43 d23d 28a1 0fbe c6c7 9d3d
000002d0: 30dd 6abc 43ff 04be 7ab0 20bd 4a9d 60bd
000002e0: d441 0d3d ec03 973d 84e6 d2bc c27e a6bd
000002f0: 20e8 89bb 8e17 0f3e 16cb 1abd e8de 673d
00000300: 60b1 093d fe1b e6bd 640a 733d 1445 ed3d
00000310: 20c2 263c b81d 7e3d 8439 323d a089 473d
00000320: 2e47 1abd 8cf1 a73d 103c e93c 86c8 ac3d
00000330: 3829 dcbc a400 0e3e 4141 92bd b802 97bc
00000340: 68d5 833c df57 ecbd c232 033e 20b6 a23b
00000350: b045 f83d 38c0 0e3e d4f4 cabc 905f 103d
00000360: 4288 003e 9af1 47bd 9cf0 00be 7868 ab3c
00000370: 00b1 313a 2e64 70bd 9c39 e63d 242e d6bd
00000380: 7661 43bd 804d e4ba 940e 8a3d e435 30bd
00000390: c076 54bb a8b2 fb3c 287a f7bc 2435 a2bd
000003a0: f6af 823d b0ee 073c b89c 2f3d da87 ac3d
000003b0: 94da c73d f205 0e3e c47f e6bc 4534 08be
000003c0: 6ca6 c8bd 8a80 923d f43b afbd 8293 aabd
000003d0: ac8c 09be 76bf 853d b8ff 843c d84c d63c
000003e0: f4df cc3d e683 0abe 1647 1abd 6842 eb3d
000003f0: 0058 0bbe d7d4 10be c846 acbc bea3 bc3d

bias f4 [24]
0.010113086 -0.077032335 -0.1400242 0.13357769 0.08406335 -0.09575887 -0.0120503735 0.09630949
0.038271572 0.121323414 0.10584673 -0.1364687 0.01828906 0.13133447 0.116823375 0.0237448
0.08084963 0.11113229 0.1374427 -0.12939082 0.057741977 -0.033509903 0.11007254 0.12839642
00000000: 5bb1 253c 21c3 9dbd 8162 0fbe 97c8 083e
00000010: 6829 ac3d 3a1d c4bd ee6e 45bc e93d c53d
00000020: a7c2 1c3d 6978 f83d 2cc6 d83d 73be 0bbe
00000030: f0d2 953c 8b7c 063e 1841 ef3d 7484 c23c
00000040: 7e94 a53d 5399 e33d c7bd 0c3e 077f 04be
00000050: da82 6c3d ae41 09bd b66d e13d 5a7a 033e

weight f4 [24, 32, 2, 1]
0.076977365 -0.007022571 -0.03779932 0.12027502 0.066016726 -0.047348253 0.08410068 -0.00042221445
0.0874186 -0.056809317 -0.02107335 -0.10853396 -0.008361071 -0.056789454 -0.07890431 0.038020287
-0.095351994 -0.018357964 0.058705073 -0.031594217 0.06897415 0.12593292 0.07002737 -0.040977094
-0.005618798 -0.09618321 0.037815485 -0.036629215 -0.10645432 0.012979065 0.005768061 -0.029301824
0.119732656 0.12608281 0.033102468 -0.039944667 -0.07324391 0.07333881 -0.015263818 0.09442795
-0.05588118 -0.026352992 0.09842393 0.09098983 -0.01849011 -0.04276129 -0.06566097 0.033049017
0.100047365 0.030749474 0.02750882 0.044703607 -0.056590375 -0.10977875 0.01675165 0.061387464
0.0070723523 -0.058468375 0.024320463 0.09461997 0.084903225 0.028924713 0.06567512 -0.086768486
0.052359357 -0.029998476 0.051614076 0.038745914 0.10151875 -0.077345036 0.12385859 -0.02175644
-0.007982515 -0.038809884 0.015580988 0.057585735 -0.013688711 -0.063595526 0.04404247 -0.1181873
-0.088287376 -0.099856704 -0.0955351 0.09054814 -0.001192245 0.02014787 -0.08570302 -0.12106504
-0.009486435 -0.097375184 -0.06684064 -0.071686246 0.0494294 0.0075029708 -0.045834105 -0.051268417
-0.07948263 0.06950864 0.030530874 -0.105053194 -0.037745953 0.04691464 -0.0018912436 -0.018841775
0.11634651 -0.050752044 -0.06910584 0.04423262 -0.034735516 -0.10211136 -0.01789717 0.027241841
0.08666319 0.0409831 -0.05794436 0.027365735 0.05920297 -0.025907641 0.11677185 0.038888514
0.04833969 0.068544455 -0.10831539 0.05132493 0.033911444 0.09752141 0.042046197 0.07493527
0.057900783 0.11579992 0.1077926 0.00013104772 -0.067025095 0.111766614 0.054332595 -0.11271412
0.040562 0.109308586 -0.03685207 0.06775135 0.05579978 0.04124037 -0.010195083 -0.053461403
-0.024608871 0.121124335 0.07484133 0.09767839 -0.05947786 -0.082170315 -0.015267326 -0.0527108
0.12365848 -0.076594435 -0.09451559 -0.084648155 -0.10748544 0.0013948313 -0.11220982 0.024441328
-0.09711092 -0.11760031 0.112688735 -0.058717817 -0.013831402 0.09758245 0.021156805 -0.11297911
-0.062610775 -0.114121735 -0.00358813 -0.019917673 0.025642933 -0.11336578 0.101237714 0.08956067
0.09883094 0.0673073 0.030048903 -0.006224605 -0.1018757 -0.07332663 0.029677074 -0.106174126
0.0274744 0.10888639 0.07371812 0.020469904 -0.0027748346 -0.0065437253 -0.028187979 -0.08836763
-0.07526317 0.034097925 0.111489326 0.016254338 -0.016787864 0.0950648 0.10942457 0.10586865
-0.103421435 -0.0017488569 -0.0044818604 0.07726616 0.06459122 -0.04775965 0.037667494 0.12513992
-0.062469285 0.10235869 0.04025343 -0.059997886 0.12579194 0.1238976 0.11839636 0.009430019
0.11734404 -0.063296445 0.08039872 0.10829443 0.019581627 -0.06972551 -0.03122191 -0.11763021
-0.013534895 0.01993397 -0.0311869 -0.10846925 -0.095312245 0.07833959 0.117371544 0.021188373
-0.089018576 0.112724334 -0.002536515 0.1211011 -0.060436506 -0.08003688 -0.010055851 -0.014715054
0.039203215 -0.012027449 -0.059235882 0.016321046 0.101381935 0.10889521 -0.026889686 0.06697844
0.088868 -0.02051101 0.10839228 0.054461733 -0.033377223 0.11947873 -0.040442068 -0.107153855
00000000: 4fa6 9d3d 981d e6bb 76d3 1abd c052 f63d
00000010: c733 873d 3ef0 41bd fa3c ac3d aa5c ddb9
00000020: 8608 b33d e3b0 68bd 05a2 acbc 0e47 debd
00000030: e0fc 08bc 0f9c 68bd 9598 a1bd 29bb 1b3d
00000040: e847 c3bd 7163 96bc bb74 703d f068 01bd
00000050: 5242 8d3d 8ff4 003e 826a 8f3d 99d7 27bd
00000060: e51d b8bb b4fb c4bd 69e4 1a3d 8408 16bd
00000070: b904 dabd 25a6 543c 0102 bd3b 610a f0bc
00000080: 6536 f53d da1b 013e 7496 073d 059d 23bd
00000090: e700 96bd a832 963d 1815 7abc 7163 c13d
000000a0: aae3 64bd 3be2 d7bc 7c92 c93d e058 ba3d
000000b0: 9278 97bc 7626 2fbd 4279 86bd 685e 073d
000000c0: a2e5 cc3d 52e6 fb3c 2d5a e13c 211b 373d
000000d0: 4fcb 67bd aed3 e0bd c23a 893c 6c71 7b3d
000000e0: 31bf e73b 897c 6fbd b53b c73c 1dc8 c13d
000000f0: bee1 ad3d 85f3 ec3c ad80 863d adb3 b1bd
00000100: c476 563d 5dbf f5bc 4869 533d 09b4 1e3d
00000110: 10e9 cf3d 1367 9ebd 93a9 fd3d 903a b2bc
00000120: 18c9 02bc 1df7 1ebd 6647 7f3c 05df 6b3d
00000130: 9e46 60bc 5f3e 82bd e165 343d 2f0c f2bd
00000140: 03d0 b4bd ac81 ccbd e8a7 c3bd 4e71 b93d
00000150: 1b45 9cba 250d a53c 1185 afbd f3f0 f7bd
00000160: fe6c 1bbc a46c c7bd bfe3 88bd 3dd0 92bd
00000170: 7c76 4a3d 7bdb f53b 8bbc 3bbd d5fe 51bd
00000180: cac7 a2bd 8c5a 8e3d e21b fa3c 2126 d7bd
00000190: 809b 1abd 9129 403d 9be3 f7ba 115a 9abc
000001a0: 1447 ee3d 60e1 4fbd 5d87 8dbd 442d 353d
000001b0: d446 0ebd c31f d1bd 169d 92bc 482a df3c
000001c0: 787c b13d e5dd 273d 1157 6dbd 1b2e e03c
000001d0: d07e 723d 433c d4bc 1426 ef3d 9049 1f3d
000001e0: d7ff 453d 0961 8c3d 76d4 ddbd 173a 523d
000001f0: bae6 0a3d 4eb9 c73d a238 2c3d aa77 993d
00000200: 5f29 6d3d 8228 ed3d 5ec2 dc3d db69 0939
00000210: 7444 89bd e5e5 e43d db8b 5e3d a9d6 e6bd
00000220: 5724 263d 2edd df3d 32f2 16bd 38c1 8a3d
00000230: 4f8e 643d aaeb 283d 4709 27bc 58fa 5abd
00000240: 8b98 c9bc 0910 f83d 6946 993d 9c0b c83d
00000250: 0e9f 73bd e948 a8bd ce23 7abc 48e7 57bd
00000260: a840 fd3d 8bdd 9cbd 6491 c1bd 035c adbd
00000270: 5421 dcbd c6d2 b63a 43ce e5bd 2e39 c83c
00000280: 17e2 c6bd 6ed8 f0bd 5ac9 e63d 1882 70bd
00000290: 1b9d 62bc 4fd9 c73d 0951 ad3c 9761 e7bd
000002a0: 143a 80bd a8b8 e9bd d526 6bbb 632a a3bc
000002b0: 2111 d23c 512c e8bd b855 cf3d 966b b73d
000002c0: e067 ca3d 69d8 893d 1e29 f63c c5f7 cbbb
000002d0: 35a4 d0bd 462c 96bd 561d f33c d271 d9bd
000002e0: fe11 e13c d4ff de3d 87f9 963d 80b0 a73c
000002f0: 00da 35bb bf6c d6bb 7aea e6bc 17fa b4bd
00000300: 9423 9abd 44aa 0b3d 8454 e43d d127 853c
00000310: b486 89bc 55b1 c23d fd19 e03d aad1 d83d
00000320: 9ece d3bd e639 e5ba 92dc 92bb b83d 9e3d
00000330: 6748 843d 9f9f 43bd 3b49 1a3d ae24 003e
00000340: cbdf 7fbd 6fa1 d13d c8e0 243d 58c0 75bd
00000350: 9acf 003e 06be fd3d ca79 f23d 5e80 1a3c
00000360: 1252 f03d 91a1 81bd 16a8 a43d 78c9 dd3d
00000370: a669 a03c 40cc 8ebd 17c5 ffbc 1ce8 f0bd
00000380: 77c1 5dbc 914c a33c ab7b ffbc 2025 debd
00000390: 1133 c3bd 8270 a03d 7e60 f03d 3d93 ad3c
000003a0: 5f4f b6bd 04dc e63d a93b 26bb db03 f83d
000003b0: 458c 77bd 60ea a3bd 4cc1 24bc 6917 71bc
000003c0: 8d93 203d c70e 45bc 53a1 72bd b7b3 853c
000003d0: 55a1 cf3d 7404 df3d c247 dcbc fe2b 893d
000003e0: 6d00 b63d b506 a8bc c6fc dd3d 4413 5f3d
000003f0: 8eb6 08bd 44b1 f43d 95a6 25bd 7b73 dbbd

bias f4 [32]
-0.045212936 -0.08802827 -0.020625139 -0.08927704 -0.11976796 0.042206395 0.110213205 -0.07598597
-0.09726834 -0.08784814 0.0676859 -0.07005454 0.007372564 -0.117012106 -0.099702165 0.070454195
0.01050342 0.036476687 0.00095989526 -0.09891534 -0.07094063 0.057898026 -0.119504385 -0.083848044
-0.018555295 -0.07764732 -0.11482102 -0.010623699 0.014497175 -0.040092528 0.06628418 0.024368174
00000000: 3331 39bd 2a48 b4bd 0df6 a8bc e1d6 b6bd
00000010: e748 f5bd 9de0 2c3d 76b7 e13d 889e 9bbd
00000020: a034 c7bd bae9 b3bd e89e 8a3d c178 8fbd
00000030: 8d95 f13b 0ba4 efbd a630 ccbd 4a4a 903d
00000040: 8916 2c3c 9468 153d 7ba1 7b3a 2094 cabd
00000050: 5249 91bd 7b26 6d3d b7be f4bd 86b8 abbd
00000060: 4601 98bc 8f05 9fbd 4827 ebbd 060f 2ebc
00000070: 8f85 6d3c 1038 24bd 00c0 873d c49f c73c

beta f4 [32]
1.002655 1.0026464 1.0038067 0.9984136 1.0028944 0.99749386 0.9975106 0.9979513
1.0038142 1.0046612 1.0027422 0.99642885 1.0032405 0.998483 1.0031393 1.0025171
1.004119 1.0029579 0.99847925 1.0002195 1.0007097 1.0043145 0.99682134 0.9954586
1.000502 1.005138 0.99415386 1.0017188 1.0037302 1.0060219 1.0058931 0.9970732
00000000: 0057 803f b856 803f bd7c 803f 0998 7f3f
00000010: d85e 803f c25b 7f3f db5c 7f3f bd79 7f3f
00000020: fc7c 803f bd98 803f db59 803f f615 7f3f
00000030: 2f6a 803f 959c 7f3f de66 803f 7b52 803f
00000040: f986 803f ed60 803f 569c 7f3f 3107 803f
00000050: 4117 803f 618d 803f af2f 7f3f 60d6 7e3f
00000060: 7310 803f 5da8 803f de80 7e3f 5238 803f
00000070: 3b7a 803f 53c5 803f 1bc1 803f 3040 7f3f

gamma f4 [32, 32]
0.3165014 3.8144015e-06 3.634722e-06 3.8144635e-06 3.8144244e-06 -8.5557537e-07 -3.210699e-05 3.814671e-06
3.8146404e-06 3.8141939e-06 -2.023804e-06 3.8146904e-06 3.8146459e-06 3.8144988e-06 3.8141948e-06 -5.131381e-06
8.542163e-07 3.1842837e-06 3.68928e-06 3.8144824e-06 3.8145429e-06 -6.9631224e-06 3.814418e-06 3.8144688e-06
3.837376e-06 3.8146727e-06 3.8144262e-06 3.8146734e-06 3.6328524e-06 3.8146773e-06 2.9645503e-06 3.8590256e-06
3.8098035e-06 0.31622702 3.8086037e-06 3.8147e-06 3.8146675e-06 3.841455e-06 3.67789e-06 3.8146973e-06
3.8146882e-06 3.8146861e-06 3.6110846e-06 3.8146927e-06 3.8146957e-06 3.8146898e-06 3.8146609e-06 3.7201503e-06
3.7939965e-06 3.8089613e-06 3.8117848e-06 3.8146925e-06 3.8146882e-06 3.6830713e-06 3.8146907e-06 3.8147014e-06
3.8171293e-06 3.814678e-06 3.8146995e-06 3.8146957e-06 3.8081776e-06 3.8146957e-06 3.6917575e-06 3.817339e-06
3.882413e-06 3.815001e-06 0.31725708 3.815056e-06 3.8153057e-06 5.3322333e-06 1.0220678e-05 3.8147728e-06
3.814896e-06 3.8151356e-06 5.497814e-06 3.8148005e-06 3.814718e-06 3.815131e-06 3.815548e-06 6.0811767e-06
4.679074e-06 4.10899e-06 3.8558883e-06 3.8148746e-06 3.814861e-06 6.182574e-06 3.815417e-06 3.81511e-06
3.8508874e-06 3.814967e-06 3.8152357e-06 3.814713e-06 3.863683e-06 3.8147127e-06 4.750198e-06 3.8473186e-06
3.8294993e-06 3.8147427e-06 3.8294984e-06 0.3162305 3.8147796e-06 4.0090868e-06 4.8265347e-06 3.814706e-06
3.8147195e-06 3.8147646e-06 4.303599e-06 3.8147077e-06 3.8147004e-06 3.814751e-06 3.814815e-06 4.2151196e-06
3.9592055e-06 3.864859e-06 3.8233766e-06 3.8147236e-06 3.814721e-06 4.2635643e-06 3.8147837e-06 3.8147487e-06
3.817444e-06 3.8147327e-06 3.8147646e-06 3.8146995e-06 3.826881e-06 3.8147e-06 4.034945e-06 3.81721e-06
3.801942e-06 3.814686e-06 3.7918119e-06 3.814711e-06 0.3162286 3.7983655e-06 2.2188058e-06 3.8147014e-06
3.8147045e-06 3.8146748e-06 2.8796685e-06 3.814707e-06 3.814692e-06 3.8147186e-06 3.814697e-06 3.365712e-06
3.698354e-06 3.7803422e-06 3.8071212e-06 3.8146864e-06 3.8146864e-06 3.2014464e-06 3.8147464e-06 3.814719e-06
3.822771e-06 3.8147004e-06 3.814726e-06 3.8146936e-06 3.800947e-06 3.814691e-06 3.4749603e-06 3.8212124e-06
6.5673025e-06 3.820262e-06 5.7845928e-06 3.8214134e-06 3.820505e-06 0.31392998 0.00058662787 3.815962e-06
3.8162257e-06 3.8236426e-06 0.000116512296 3.8151097e-06 3.8153294e-06 3.8201506e-06 3.8249136e-06 0.00014825624
5.0349743e-05 1.5014871e-05 5.395697e-06 3.818413e-06 3.817143e-06 0.00017890923 3.82394e-06 3.8221656e-06
4.2499396e-06 3.815709e-06 3.823788e-06 3.8150793e-06 5.7901693e-06 3.8150206e-06 2.5477426e-05 4.257021e-06
6.762654e-06 3.824617e-06 7.2258986e-06 3.8240337e-06 3.8360918e-06 8.4339656e-05 0.3137652 3.8166763e-06
3.821251e-06 3.8286857e-06 0.00048584453 3.81813e-06 3.815525e-06 3.8274497e-06 3.843702e-06 0.00032602806
5.4988697e-05 1.5837282e-05 5.4989655e-06 3.820502e-06 3.8206267e-06 0.00037510262 3.834812e-06 3.825394e-06
4.3068667e-06 3.8249295e-06 3.8291873e-06 3.815424e-06 6.2254694e-06 3.815563e-06 0.00018329262 4.2734077e-06
3.815386e-06 3.814693e-06 3.8140308e-06 3.8146902e-06 3.8146995e-06 3.8231483e-06 3.889694e-06 0.3162276
3.8146973e-06 3.8146895e-06 3.8092169e-06 3.814698e-06 3.814697e-06 3.8146943e-06 3.814696e-06 3.7746597e-06
3.8208145e-06 3.8170556e-06 3.8150924e-06 3.814694e-06 3.8146964e-06 3.7706216e-06 3.814691e-06 3.8146893e-06
3.814768e-06 3.814699e-06 3.814688e-06 3.814697e-06 3.8151666e-06 3.814697e-06 3.812429e-06 3.814753e-06
00000000: 790c a23e ebfa 7f36 0cec 7336 fcfb 7f36
00000010: 50fb 7f36 b1aa 65b5 9eaa 06b8 8cff 7f36
00000020: 06ff 7f36 5af7 7f36 b0d0 07b6 e2ff 7f36
00000030: 1eff 7f36 97fc 7f36 5ef7 7f36 3a2e acb6
00000040: 4c4d 6535 94b1 5536 5995 7736 4ffc 7f36
00000050: 59fd 7f36 c4a4 e9b6 34fb 7f36 13fc 7f36
00000060: cfc2 8036 94ff 7f36 58fb 7f36 97ff 7f36
00000070: eecb 7336 a8ff 7f36 96f2 4636 c77c 8136
00000080: edab 7f36 82e8 a13e 5097 7f36 0600 8036
00000090: 7dff 7f36 d9e5 8036 abd1 7636 0000 8036
000000a0: d8ff 7f36 cfff 7f36 f655 7236 ecff 7f36
000000b0: f9ff 7f36 dfff 7f36 60ff 7f36 b2a7 7936
000000c0: 5d9c 7e36 759d 7f36 f7cd 7f36 ebff 7f36
000000d0: d8ff 7f36 af2a 7736 e3ff 7f36 0900 8036
000000e0: e414 8036 abff 7f36 0500 8036 f9ff 7f36
000000f0: fe8f 7f36 f9ff 7f36 e9bf 7736 b116 8036
00000100: ac45 8236 9c02 8036 856f a23e 1503 8036
00000110: 3a05 8036 89eb b236 7a79 2b37 a600 8036
00000120: b501 8036 c403 8036 dd79 b836 e300 8036
00000130: 2e00 8036 ba03 8036 4f07 8036 e90c cc36
00000140: f100 9d36 f5df 8936 d461 8136 8601 8036
00000150: 6801 8036 e873 cf36 2f06 8036 8c03 8036
00000160: df36 8136 5102 8036 a004 8036 2300 8036
00000170: c9a4 8136 2200 8036 e463 9f36 3718 8136
00000180: 267f 8036 6400 8036 247f 8036 f7e8 a13e
00000190: b500 8036 cb85 8636 9ef3 a136 1300 8036
000001a0: 3100 8036 9400 8036 a267 9036 1700 8036
000001b0: 0700 8036 7600 8036 0301 8036 9a6f 8d36
000001c0: 51d9 8436 e3ae 8136 8e4a 8036 3a00 8036
000001d0: 3400 8036 bd0f 8f36 be00 8036 7100 8036
000001e0: 9817 8036 4e00 8036 9400 8036 0500 8036
000001f0: a868 8036 0600 8036 ea63 8736 9615 8036
00000200: de24 7f36 ceff 7f36 d576 7e36 1e00 8036
00000210: b7e8 a13e 6ce7 7e36 cbe6 1436 0900 8036
00000220: 1000 8036 9dff 7f36 5440 4136 1500 8036
00000230: e9ff 7f36 2f00 8036 ffff 7f36 7ede 6136
00000240: 3d31 7836 c9b1 7d36 d87d 7f36 d0ff 7f36
00000250: d0ff 7f36 6ed8 5636 6c00 8036 3000 8036
00000260: 5a45 8036 0700 8036 3f00 8036 f0ff 7f36
00000270: c613 7f36 e4ff 7f36 5d33 6936 f737 8036
00000280: b35c dc36 cd2f 8036 4619 c236 b139 8036
00000290: e331 8036 6ebb a03e eec7 193a dd0a 8036
000002a0: 210d 8036 d74c 8036 1058 f438 8b03 8036
000002b0: 6e05 8036 d82e 8036 c257 8036 3b75 1b39
000002c0: a02e 5338 61e8 7b37 af0c b536 eb1f 8036
000002d0: 0215 8036 9599 3b39 654f 8036 2740 8036
000002e0: b49a 8e36 b108 8036 174e 8036 4803 8036
000002f0: 2d49 c236 c702 8036 5bb8 d537 88d7 8e36
00000300: c1ea e236 3655 8036 ff75 f236 3350 8036
00000310: c7b7 8036 82df b038 d5a5 a03e 0011 8036
00000320: 4c38 8036 2978 8036 f3b8 fe39 7d1d 8036
00000330: 1c07 8036 8b6d 8036 26f9 8036 bfee aa39
00000340: aaa3 6638 4eda 8437 c183 b836 dd31 8036
00000350: ef32 8036 6ca9 c439 c9ac 8036 e25b 8036
00000360: b483 9036 e557 8036 787c 8036 3e06 8036
00000370: 60e4 d036 7007 8036 3d32 4039 4b64 8f36
00000380: eb05 8036 edff 7f36 8df4 7f36 e1ff 7f36
00000390: 0500 8036 9848 8036 3884 8236 96e8 a13e
000003a0: 0000 8036 deff 7f36 d9a1 7f36 0200 8036
000003b0: ffff 7f36 f3ff 7f36 faff 7f36 2950 7d36
000003c0: 8c34 8036 4214 8036 6503 8036 f2ff 7f36
000003d0: fcff 7f36 c90a 7d36 e4ff 7f36 ddff 7f36
000003e0: 9c00 8036 0400 8036 d7ff 7f36 ffff 7f36
000003f0: 0804 8036 ffff 7f36 08d9 7f36 7b00 8036

weight f4 [32, 48, 1, 2]
0.10469985 0.05659044 0.024195604 0.059369087 -0.05980358 0.046788007 -0.03140551 0.0018398068
0.10194864 -0.092898354 -0.034625888 -0.005809337 -0.04504555 0.012692227 -0.046456374 -0.06727281
-0.09639209 0.014894961 -0.085964724 -0.050425358 0.049757976 0.0656432 0.07201983 -0.041142274
-0.072420426 0.07820297 -0.102518335 -0.033209376 -0.011662218 -0.019331219 -0.014180448 -0.06766909
0.07564875 -0.10032686 -0.032215167 -0.09603336 -0.097885124 0.038581286 -0.08850499 -0.094843864
-0.027174745 -0.055487096 -0.043951627 0.061983764 0.057726167 -0.09980357 0.09391726 -0.07975022
0.0013874428 -0.047833774 0.06007686 -0.08186818 -0.025420029 -0.026087038 -0.08233248 0.016026456
-0.09503883 0.02927352 0.040624373 0.038152333 -0.01998841 -0.015030073 0.019339802 -0.048546255
-0.051120266 0.00045042866 0.01357876 0.034657467 -0.039279338 0.0687102 0.05543059 0.045479313
0.065310575 -0.08540123 -0.10134697 -0.040347718 0.071563184 0.013634618 -0.047271196 -0.05113004
-0.08565926 -0.09903513 0.025038771 0.09627863 0.08158744 -0.020868087 -0.054648783 -0.101701885
-0.009514337 0.0536333 -0.07668868 0.06651694 -0.041198887 0.08157012 -0.103113145 0.0842816
-0.025062526 -0.07046006 -0.09609881 -0.030652856 0.09128727 -0.09637764 -0.047872063 -0.018335024
0.08633812 -0.048838604 0.054135244 0.07913721 -0.07512739 0.020325553 0.090451226 0.004147763
-0.032331716 0.09286716 -0.08404116 0.05434083 -0.04462544 0.04056056 0.04979152 -0.01832038
0.09513949 0.028966652 0.070280105 0.07609495 -0.022342097 0.09651432 -0.0834443 -0.07571004
0.06266301 0.012495915 0.056597408 -3.5408234e-06 -0.019209526 -0.086914994 -0.06995714 -0.0040089954
0.10274792 0.038501807 -0.005070804 -0.084568165 -0.09526217 0.089327246 -0.09846083 0.03871616
-0.020243874 -0.016005164 -0.052671343 0.09205506 -0.088226 -0.07745859 0.05814148 0.10348394
-0.035232916 -0.0634114 -0.07823786 0.06785527 -0.007557075 0.041723173 0.024427133 -0.06778805
0.036741376 -0.077921286 0.01250315 -0.0793446 -0.045313954 0.095850885 0.0034366203 0.09416156
0.04188392 -0.047548912 0.03736104 0.001000178 -0.060352296 0.040684346 0.0041441256 0.031589527
0.043416455 0.046147183 -0.030459367 0.027026324 -0.0055251797 0.014394215 -0.025853883 -0.023633689
-0.04271127 0.063605264 -0.08835546 0.0580031 -0.031138463 -0.047266133 0.009965417 -0.028192075
0.038222767 -0.01585118 0.05142781 0.055215843 -0.023597319 0.01240921 0.027317245 -0.063398086
0.042162094 0.02016352 -0.06706657 -0.07462873 0.05310372 0.020044805 0.021154072 -0.04110668
0.039453797 0.033440523 -0.008710757 -0.07169847 0.058047958 0.059545223 0.0887599 0.043430768
-0.06824135 -0.018781837 -0.07508742 0.093063965 -0.09886299 -0.09219623 -0.07212789 0.016991386
0.07490817 -0.044827223 0.08855017 0.018138072 -0.07431692 -0.041716088 -0.010178408 0.01583054
0.063226424 0.080858134 0.017861856 -0.092811786 0.009613612 -0.095999785 0.07475801 0.023862785
0.08594055 0.085941926 0.007054253 -0.08254069 0.041370153 0.082436286 0.010622537 0.01751296
0.01344968 -0.053343195 -0.08008051 0.07879261 0.10349189 0.07709774 -0.0417527 -0.06548483
00000000: e06c d63d 61cb 673d dc35 c63c 002d 733d
00000010: 99f4 74bd c8a4 3f3d 10a3 00bd ac25 f13a
00000020: 73ca d03d 7e41 bebd e0d3 0dbd 405c bebb
00000030: af81 38bd 0ff3 4f3c 0a49 3ebd 54c6 89bd
00000040: 3769 c5bd ff09 743c 460e b0bd d28a 4ebd
00000050: 05cf 4b3d f16f 863d 227f 933d cd84 28bd
00000060: 2951 94bd e128 a03d 22f5 d1bd 8e06 08bd
00000070: e312 3fbc 815c 9ebc 1c55 68bc 1896 8abd
00000080: bbed 9a3d 2b78 cdbd 0df4 03bd 23ad c4bd
00000090: ff77 c8bd 6907 1e3d 1b42 b5bd 803d c2bd
000000a0: 929d debc 7046 63bd 9f06 34bd b0e2 7d3d
000000b0: 4672 6c3d d065 ccbd b157 c03d 1554 a3bd
000000c0: dbda b53a 59ed 43bd 2713 763d 81aa a7bd
000000d0: aa3d d0bc 7cb4 d5bc ee9d a8bd ea49 833c
000000e0: b8a3 c2bd 05cf ef3c be65 263d 9f45 1c3d
000000f0: bcbe a3bc b240 76bc 816e 9e3c 70d8 46bd
00000100: 7c63 51bd 8327 ec39 7379 5e3c fdf4 0d3d
00000110: 5fe3 20bd efb7 8c3d 300b 633d 8448 3a3d
00000120: 8dc1 853d d7e6 aebd 008f cfbd a643 25bd
00000130: b88f 923d bc63 5f3c 719f 41bd bc6d 51bd
00000140: 1f6e afbd eed2 cabd 1c1e cd3c bb2d c53d
00000150: 5117 a73d 8df3 aabc 67d7 5fbd 1449 d0bd
00000160: 06e2 1bbc 97ae 5b3d f40e 9dbd 093a 883d
00000170: 2ac0 28bd 3c0e a73d fc2c d3bd d59b ac3d
00000180: ed4f cdbc 5d4d 90bd 74cf c4bd b31b fbbc
00000190: d2f4 ba3d a461 c5bd 7f15 44bd 5533 96bc
000001a0: 0ad2 b03d fd0a 48bd ebbc 5d3d b112 a23d
000001b0: 64dc 99bd c681 a63c 7e3e b93d f5e9 873b
000001c0: 436e 04bd 2331 be3d c61d acbd 7d94 5e3d
000001d0: 2ac9 36bd d422 263d 31f2 4b3d 9f14 96bc
000001e0: 7ed8 c23d 794b ed3c 04ef 8f3d abd7 9b3d
000001f0: c606 b7bc 4da9 c53d d8e4 aabd de0d 9bbd
00000200: 7755 803d abbb 4c3c afd2 673d e29e 6db6
00000210: 4c5d 9dbc 7d00 b2bd b045 8fbd e45d 83bb
00000220: 806d d23d 12b4 1d3d fd28 a6bb 1332 adbd
00000230: d018 c3bd 34f1 b63d d5a5 c9bd d694 1e3d
00000240: 7bd6 a5bc 431d 83bc e8bd 57bd 5d87 bc3d
00000250: d5af b4bd 9ca2 9ebd c325 6e3d 63ef d33d
00000260: 6450 10bd d6dd 81bd 2c3b a0bd b4f7 8a3d
00000270: 57a1 f7bb ebe5 2a3d 691b c83c 76d4 8abd
00000280: 207e 163d 3295 9fbd 03da 4c3c 6c7f a2bd
00000290: 209b 39bd 784d c43d ec38 613b c7d7 c03d
000002a0: 798e 2b3d a6c2 42bd e407 193d 6818 833a
000002b0: f833 77bd a1a4 263d 72cb 873b 0564 013d
000002c0: 74d5 313d d404 3d3d ec85 f9bc 4f66 dd3c
000002d0: 910c b5bb b7d5 6b3c 86cb d3bc 709b c1bc
000002e0: 03f2 2ebd 7a43 823d b5f3 b4bd a994 6d3d
000002f0: 1716 ffbc 229a 41bd fd45 233c 11f3 e6bc
00000300: 7a8f 1c3d 55da 81bc f8a5 523d 022a 623d
00000310: 2a4f c1bc 0050 4b3c 6ac8 df3c dbd6 81bd
00000320: 29b2 2c3d f72d a53c 335a 89bd f3d6 98bd
00000330: 4983 593d 0135 a43c 4e4b ad3c 7a5f 28bd
00000340: 4e9a 213d eef8 083d 90b7 0ebc a6d6 92bd
00000350: b2c3 6d3d b1e5 733d c0c7 b53d 76e4 313d
00000360: 1fc2 8bbd 5edc 99bc 6fc7 99bd 5298 be3d
00000370: ae78 cabd 61d1 bcbd cab7 93bd 8531 8b3c
00000380: 7469 993d c09c 37bd cb59 b53d 4b96 943c
00000390: 7833 98bd 7dde 2abd 56c3 26bc 0caf 813c
000003a0: db7c 813d f398 a53d 0753 923c 1b14 bebd
000003b0: 6982 1d3c 899b c4bd ba1a 993d e37b c33c
000003c0: 9901 b03d 5202 b03d 5d27 e73b 180b a9bd
000003d0: c073 293d 5bd4 a83d 260a 2e3c 5777 8f3c
000003e0: 0c5c 5c3c 657e 5abd 4001 a4bd 055e a13d
000003f0: 8ef3 d33d 6be5 9d3d e104 2bbd e91c 86bd

bias f4 [48]
-0.030858481 -0.04278701 -0.039361868 0.05202957 0.10276149 0.041047912 0.031252053 0.020234838
0.08319493 0.065623656 -0.03818218 0.017228972 -0.09568694 -0.02060452 0.037529305 0.038087416
-0.08691292 -0.048365057 0.074359246 0.08076112 -0.078284666 -0.005274481 0.08143825 -0.0003724343
0.07348516 0.004339015 -0.034512773 0.08740952 0.039343137 -0.067593485 0.07916077 0.012700144
0.02540705 0.0866333 -0.019680029 0.015872708 -0.07417979 0.061278462 0.086616136 -0.089783795
0.068486735 0.015257711 -0.0855476 0.014621422 -0.04489194 -0.02619061 -0.016047891 -0.064900264
00000000: edca fcbc 6f41 2fbd e939 21bd f51c 553d
00000010: 9e74 d23d db21 283d 2702 003d 88c3 a53c
00000020: 1a62 aa3d b265 863d eb64 1cbd c623 8d3c
00000030: 84f7 c3bd cfca a8bc 54b8 193d 8d01 1c3d
00000040: 67ff b1bd 701a 46bd a949 983d 1666 a53d
00000050: b653 a0bd 8ed5 acbb 19c9 a63d 4943 c3b9
00000060: 637f 963d 4c2e 8e3b 445d 0dbd c303 b33d
00000070: 4526 213d 746e 8abd 0b1f a23d 4414 503c
00000080: 7222 d03c cd6c b13d 0338 a1bc 7b07 823c
00000090: 93eb 97bd 20ff 7a3d cd63 b13d 91e0 b7bd
000000a0: c642 8c3d 7afb 793c 9533 afbd b08e 6f3c
000000b0: 9ce0 37bd b18d d6bc de76 83bc 6eea 84bd

weight f4 [48, 64, 2, 1]
-0.056493137 -0.039857376 0.069410324 -0.070016414 0.07682466 0.018233385 -0.010110529 -0.03991457
0.030052148 -0.04184122 -0.016334007 -0.0759602 0.08813293 0.07907416 -0.017915037 0.044121493
-0.052544426 0.029208388 0.074155904 0.052115515 -0.048179913 0.023283847 -0.049145177 -0.05170674
-0.013853533 -0.05649715 0.046378624 -0.063066885 0.018051762 0.03589038 0.04010425 -0.05651187
0.085615814 -0.0045132516 -0.0067624445 0.038955126 0.042227633 -0.058197454 0.021920934 -0.05710764
0.030613335 -0.0044296263 0.06766711 -0.0139366295 0.056293834 0.0055938493 -0.06548024 -0.018339423
-0.034627765 0.06936546 -0.005407423 0.009332494 -0.06883186 -0.08337452 -0.08528224 0.08044423
-0.00032347906 -0.053135723 0.0736354 0.08752821 -0.05894259 0.006725317 -0.08100025 -0.055525534
-0.07887376 0.0035313442 -0.07304198 -0.0540307 0.0022955446 -0.055976853 0.0527339 0.07585175
-0.029516812 -0.066863574 -0.00458608 0.038982306 -0.03710696 -0.05963251 -0.08330793 0.052560557
0.03742872 -0.05744301 -0.013368539 0.032613985 -0.006507697 0.0099706 -0.012393531 -0.06438968
0.06925409 0.002282549 0.06469101 -0.056782905 -0.019914776 0.049492676 0.06295647 0.07040537
0.08999118 -0.022547685 0.0797859 -0.027963722 -0.09082572 0.06342041 -0.024167893 0.031954795
-0.06692207 0.06164346 -0.07351928 -0.021341978 -0.04557832 -0.03525673 0.040137537 0.053971216
-0.024518134 0.077176236 0.037786745 0.065034606 0.051461805 -0.028891316 0.040549282 0.023249533
-0.08413352 -0.061073028 0.036164206 0.077418774 -0.0049333377 -0.060799927 0.00937439 -0.045288377
-0.02054313 0.024796449 0.06353701 -0.043176774 0.04672095 -0.080632344 -0.05293341 0.08114998
0.05663013 0.024116132 -0.067780435 -0.0027277614 -0.03222849 -0.02544027 0.08720672 0.085794315
0.08328964 0.05019753 -0.030621158 -0.030013388 -0.044827126 -0.022167444 -0.040902756 -0.04325413
-0.0481889 -0.079241104 0.08973398 -0.03429016 0.014083529 -0.060024396 -0.052012444 -0.06973332
-0.066281244 -0.0731159 -0.0023281444 0.070896655 -0.014491071 0.0027857276 0.0013903276 0.051232208
0.017667612 0.02113353 0.043289516 0.061108645 -0.05262197 0.012251137 -0.063810974 -0.011587162
0.026675124 -0.08084943 -0.012766938 -0.040578425 0.051435247 -0.017840736 -0.006340103 0.052330483
0.027522998 -0.031800486 0.0056808465 -0.018577684 0.08231943 0.00019150604 -0.022565136 -0.019967042
-0.085508354 0.032741114 0.041620933 0.09169546 -0.07448681 0.04293533 -0.026653137 -0.0774592
0.041189697 0.034310006 0.057764925 -0.031193526 0.015488801 -0.011587204 0.029297045 -0.02191997
-0.020163734 -0.075628474 -0.06017203 0.0075139794 0.029535221 0.044410493 0.0007018622 -0.0393542
-0.015792433 0.073531985 0.06497097 -0.029365603 0.089828506 0.04636268 0.037608154 0.00067606685
0.029320883 0.037011057 0.08586495 0.0035583249 -0.08507954 -0.005314366 0.010002603 -0.07718632
-0.054524772 -0.043884285 0.0600995 0.041376106 -0.037121028 -0.05240084 0.081395075 -0.08669094
-0.015968459 -0.048293352 -0.056765705 0.084095396 0.08188803 0.0008110713 -0.034975003 0.0632187
-0.014516825 -0.09172746 0.08118257 0.06000993 -0.028389106 0.009820429 0.040983625 0.0048876083
00000000: 5965 67bd 7d41 23bd 0027 8e3d c464 8fbd
00000010: 3f56 9d3d 2e5e 953c a2a6 25bc 767d 23bd
00000020: ec2f f63c b361 2bbd e5ce 85bc 0591 9bbd
00000030: 0a7f b43d a2f1 a13d 8ec2 92bc bdb8 343d
00000040: d338 57bd 6e46 ef3c 0ddf 973d 1477 553d
00000050: 4d58 45bd c4bd be3c 744c 49bd 72ca 53bd
00000060: eef9 62bc 8e69 67bd 83f7 3d3d 3629 81bd
00000070: 4ae1 933c cb01 133d 5b44 243d fe78 67bd
00000080: 5857 af3d e6e3 93bb 7f97 ddbb 698f 1f3d
00000090: e2f6 2c3d 7460 6ebd 8893 b33c b3e9 69bd
000000a0: d1c8 fa3c 6626 91bb 0e95 8a3d 7656 64bc
000000b0: 5d94 663d 9c4c b73b 811a 86bd 8f3c 96bc
000000c0: d8d5 0dbd 7a0f 8e3d c030 b1bb 51e7 183c
000000d0: b8f7 8cbd 43c0 aabd 74a8 aebd f2bf a43d
000000e0: a098 a9b9 d8a4 59bd 28ce 963d fd41 b33d
000000f0: c96d 71bd 0c60 dc3b 76e3 a5bd be6e 63bd
00000100: 9188 a1bd 206e 673b 0997 95bd 4c4f 5dbd
00000110: d970 163b fc47 65bd 80ff 573d 2a58 9b3d
00000120: 3ecd f1bc c5ef 88bd d446 96bb e9ab 1f3d
00000130: 78fd 17bd 3841 74bd 599d aabd bd49 573d
00000140: dc4e 193d 5d49 6bbd b707 5bbc 3e96 053d
00000150: 853e d5bb ba5b 233c 3d0e 4bbc bdde 83bd
00000160: 17d5 8d3d d196 153b b87c 843d 3195 68bd
00000170: 5024 a3bc d5b8 4a3d 52ef 803d b130 903d
00000180: 4c4d b83d ecb5 b8bc ca66 a33d 2d14 e5bc
00000190: d602 babd 8fe2 813d bffb c5bc 08e3 023d
000001a0: 700e 89bd da7d 7c3d 4791 96bd 5fd5 aebc
000001b0: 55b0 3abd 5c69 10bd 4267 243d ec10 5d3d
000001c0: 41da c8bc 930e 9e3d 46c6 1a3d dd30 853d
000001d0: 9dc9 523d 7bad ecbc 0117 263d ce75 be3c
000001e0: 324e acbd b627 7abd eb20 143d bc8d 9e3d
000001f0: d6a7 a1bb 5809 79bd 0b97 193c 4e80 39bd
00000200: 114a a8bc ec21 cb3c b11f 823d 21da 30bd
00000210: 785e 3f3d 9222 a5bd b4d0 58bd f631 a63d
00000220: fff4 673d 328f c53c 78d0 8abd 3ec4 32bb
00000230: 0502 04bd 1d68 d0bc 7099 b23d eeb4 af3d
00000240: c293 aa3d ed9b 4d3d 39d9 fabc a3de f5bc
00000250: a69c 37bd 8098 b5bc a689 27bd 3e2b 31bd
00000260: b961 45bd 2949 a2bd 73c6 b73d d773 0cbd
00000270: 9abe 663c 24dc 75bd 000b 55bd 58d0 8ebd
00000280: 76be 87bd cabd 95bd c893 18bb 4432 913d
00000290: f56b 6dbc c190 363b a73b b63a ddd8 513d
000002a0: abbb 903c 3a20 ad3c 5950 313d 0f4d 7a3d
000002b0: 238a 57bd feb8 483c 54af 82bd 14d8 3dbc
000002c0: ca85 da3c 6394 a5bd 6b2c 51bc 9035 26bd
000002d0: c4ad 523d bc26 92bc a4c0 cfbb 7d58 563d
000002e0: e977 e13c 3a41 02bd 6526 ba3b 3a30 98bc
000002f0: 1797 a83d 03cf 4839 85da b8bc ec91 a3bc
00000300: 011f afbd 8c1b 063d b67a 2a3d d4ca bb3d
00000310: 8a8c 98bd f5dc 2f3d ae57 dabc eea2 9ebd
00000320: 87b6 283d a688 0c3d ea9a 6c3d 9189 ffbc
00000330: bdc4 7d3c 42d8 3dbc 5b00 f03c 8291 b3bc
00000340: 6a2e a5bc 1ae3 9abd f276 76bd d437 f63b
00000350: d9f3 f13c c7e7 353d 2dfd 373a df31 21bd
00000360: 225f 81bc f097 963d 800f 853d 2290 f0bc
00000370: 02f8 b73d cbe6 3d3d 020b 1a3d 143a 313a
00000380: 5932 f03c e898 173d f7d9 af3d c932 693b
00000390: 2f3e aebd 2224 aebb f5e1 233c dd13 9ebd
000003a0: 5e55 5fbd 02c0 33bd e52a 763d fe79 293d
000003b0: 380c 18bd 43a2 56bd 76b2 a63d 058b b1bd
000003c0: 49d0 82bc 40cf 45bd 2883 68bd 353a ac3d
000003d0: e9b4 a73d 139e 543a f341 0fbd ce78 813d
000003e0: fad7 6dbc 9bdb bbbd 0c43 a63d f9cc 753d
000003f0: 4590 e8bc dde5 203c 72de 273d 3b28 a03b

bias f4 [64]
0.011759722 0.03093126 0.08176655 -0.011510691 0.032756448 0.027881669 -0.040076412 0.060308322
-0.052412853 -0.001069008 -0.037886046 0.015708255 0.06309098 0.02107861 0.0015270287 -0.0633303
-0.021637207 -0.023891287 0.0071412665 0.065916196 0.059947733 -0.06311341 0.046045322 0.040790692
-0.007949044 -0.01317534 0.035158835 -0.068119995 -0.08721266 0.06648088 -0.037735164 0.07085811
-0.06555208 -0.010778592 0.052608285 -0.023678267 0.017724194 0.058075324 -0.066563666 0.021325376
0.046811797 -0.056715675 -0.06935941 0.08735024 -0.08107115 0.06305337 0.053346813 -0.02275753
-0.08513777 -0.057746038 -0.037419226 0.016791679 0.03479925 -0.07382553 0.004387955 0.050092775
0.013210704 0.07378921 0.07386724 -0.034840662 -0.079180226 -0.041776784 -0.083512485 -0.08308252
00000000: d9ab 403c 8e63 fd3c 3975 a73d 5697 3cbc
00000010: a02b 063d 1968 e43c 2a27 24bd dc05 773d
00000020: dcae 56bd f51d 8cba 662e 1bbd 99ae 803c
00000030: d835 813d 0dad ac3c 9526 c83a 51b3 81bd
00000040: 8340 b1bc a9b7 c3bc 4901 ea3b 12ff 863d
00000050: c18b 753d 9a41 81bd 059a 3c3d 2414 273d
00000060: b53c 02bc 62dd 57bc b602 103d 7f82 8bbd
00000070: 8d9c b2bd 2127 883d 3090 1abd 0f1e 913d
00000080: 2b40 86bd b198 30bc c97b 573d edf8 c1bc
00000090: 5432 913c 64e0 6d3d 8852 88bd 8eb2 ae3c
000000a0: babd 3f3d b24e 68bd 4e0c 8ebd afe4 b23d
000000b0: a208 a6bd 2022 813d 3082 5a3d 006e babc
000000c0: b65c aebd 1c87 6cbd e744 19bd b48e 893c
000000d0: a989 0e3d d731 97bd d6c8 8f3b 152e 4d3d
000000e0: b571 583c cc1e 973d b547 973d 15b5 0ebd
000000f0: 3e29 a2bd 221e 2bbd 9808 abbd 2b27 aabd
