models/encNet_4.py.pkl (torch_old, 918218 bytes, 28 tensors)

weight f4 [16, 1, 1, 1]
00000000: 6c98 f7bf 283e acbe 1c10 483f f7a2 24bf
00000010: a58d 88bf 6c7d a6be 3c20 19be 425a 20bf
00000020: 4be6 c6be 04d7 bfbe 0488 7bbf a11b cc3e
00000030: de87 363f ac6b 8b3f 7c6f 82bf 4fde 193f
-1.934339 -0.3364117 0.7814958 -0.64311165 -1.0668226 -0.32517564 -0.14953703 -0.6263772
-0.38847575 -0.3746873 -0.9825442 0.3986483 0.71301067 1.0892234 -1.0190272 0.6010484

bias f4 [16]
00000000: 6e0d 4d3d 5f48 93be 5968 493f 82d6 8bbe
00000010: fcd5 a1be cea4 863e 6d41 debe 904c ddbe
00000020: a52a 1a3f eb8f bf3e 2ae5 2d3f db62 bebe
00000030: fd39 893e 9019 32bf f7eb a63d 2875 47bd
0.050061636 -0.28766152 0.78674847 -0.27312094 -0.3160857 0.2629761 -0.4340929 -0.43222475
0.6022132 0.37414488 0.679278 -0.37184796 0.26802054 -0.69570255 0.081504755 -0.048695713

weight f4 [256, 16, 1, 1]
00000000: 7138 b03e 392d 34be 91bb 91be 3aa3 4fbc
00000010: 3ba6 923e 2e05 bf3d e776 8cbc f7fc c33d
00000020: dc4b 02bd 807a e5bd 06fd 1e3e 0cfe f2bc
00000030: 297f 4bbe c87a adbe 2f53 e33e 14b8 30bf
00000040: 59ae 9f3d b959 b33b 8564 a3be ed3a 5d3e
00000050: eab2 a33e 6817 4b3e 422a 48be c1c9 843e
00000060: 3702 44be 9b43 f4bd 550d bc3e 5766 d4bc
00000070: 87f7 c53d 1f6b 4bbe 0aeb a73c 0d63 303c
00000080: f703 d93e 4fe6 9f3b 53e6 77bd 0c91 953e
00000090: 9669 1cbe 949b bb3d 202f 803e 841d b23e
000000a0: f1ca 353e 2355 0fbe 5be4 70be b4cd fabd
000000b0: 6324 79be 4e82 0abd 92c4 dbbd b2f7 35bd
000000c0: b2c4 673e 2ef7 913d f2f4 38be 38b3 ff3d
000000d0: d991 f93c d11e 88bd dfbd 913e 3439 073d
000000e0: a742 123e 8d6a 9f3d 68bc acbd 59c6 823c
000000f0: ed4b 0a3e 0dc4 f03d bc42 c83e 0719 de3d
00000100: 01a3 adbd cde8 be3c f99d 12be 676a 78bd
00000110: 818a 023d 942c e83d 54c1 47be e043 98bd
00000120: 97b1 1a3e bb6b f2bd 6d1a c73d 5528 713a
00000130: 1734 093e db94 a13e 444a 9d3e 039b 9d3e
00000140: 8759 5c3e cb26 1b3e 8ea4 48bc be3c 873e
00000150: ffb7 863e f078 b1bd 8f19 253e 683e ea3e
00000160: c45b 833c 295b 8bbe 9fd2 a43d 7af0 853e
00000170: 854d 8ebe 0f51 813c 6219 6fbe 191e a63d
00000180: 4c0b 913d 10a3 fc3d 1db0 fabd c887 4f3b
00000190: cc8a 4ebe d3f9 343e 4b17 313e cc4d 31be
000001a0: b903 903e c734 25be ec12 01be 2c30 053e
000001b0: d4e9 11be f965 8fbc 2aac f03e aebf d03e
000001c0: 6fdf 883e cd2e b3bd 2212 0bbe 7d9b c43e
000001d0: 0b9d 843e a41c 66bd 8203 0f3d 32a7 8d3d
000001e0: f75e 07be 1910 8e3d 7c08 373e c33e 94bd
000001f0: e1e6 3a3d 088b 8ebc 5a6e a63c 14e8 813e
00000200: 27e4 09bf 4c03 79be 4243 143e ed10 61bd
00000210: be2a 24be bb49 7bbe b1a6 c4bc c964 93be
00000220: 2090 e53d 1cca f23b 2fc2 50be ab1a cabd
00000230: be4c c83e fb49 1f3f 4db0 0dbf a4fb c73e
00000240: e886 c03e 294a 8d3e 0bb6 9cbe 4c8e b2bb
00000250: 6ff5 263e 9208 3cbe f8c9 f0bd 0a8f ac3d
00000260: 725b 133e 74da 18be 04a2 8e3e 9448 88be
00000270: d2c2 eabb 294a 47be c2ca 2c3f a51d 0fbf
00000280: 8a46 21bf 8792 b53e 534d 8dbe 3ea1 6f3e
00000290: 773c a93e e3e3 87bc 7558 09be 8bbe a93e
000002a0: 7d97 363d 3630 3d3b 5c1f 3a3d 597d 903e
000002b0: d5a1 65be e8fc 0cbf 953e 1cbd 9fe2 7cbe
000002c0: e00c ee3e 591d 3a3e 4523 ac3d 15b2 983d
000002d0: 4958 083b 93ab f2bd b665 9fbc 593a 193c
000002e0: 0097 2fbe 9b28 183e 29cb 883e 572e 753e
000002f0: 6eb8 b4bd 0a43 20bd 5013 44be c5aa 4c3e
00000300: f66a 8a3d 9217 1ebe 97ec 30be 41d9 7c3e
00000310: 968d 5abe dc71 40be 4928 393e eda4 33be
00000320: 20d5 c83d 97ac 42be fac9 413d f20d 813e
00000330: 9373 603e f07d d7bd 32a0 8f3e 546c a93d
00000340: c906 c3bd 26fe a3be 5b33 7b3e 1a46 a5be
00000350: aba5 b3be bce5 223d cb9f f6bd 84b7 b7be
00000360: 0b4a 13bd e09e e2bc 6ab9 89be e89d 0ebe
00000370: 41c3 a33e 3cce 283f fc96 8cbe c682 133f
00000380: 2e1b 923d fe8a 34bd ff3a 70bd f988 e73d
00000390: 3fdf 943d 2119 fdbc ee5d 353e 4b29 593d
000003a0: 7d01 8abd 3d4e c5bd a147 073e 63f9 64bc
000003b0: 0003 1e3e f010 19bd 5a2f e33d 2e05 62bd
000003c0: b1d0 293e b1d9 d6bd b04e 1abe 83b2 b83e
000003d0: 3e05 ae3e d71c 363e 73f0 06be 41c1 6f3e
000003e0: a518 85bd d9c4 0b3e 7c28 d83c 7028 1d3e
000003f0: e8aa acbe 8c2d 4dbe a54d 983e 7a77 efbe
0.3441806 -0.17595376 -0.28463414 -0.012673194 0.2864245 0.0932716 -0.01714654 0.095697336
-0.031810626 -0.11205006 0.15526208 -0.029662155 -0.19872727 -0.33882737 0.44399402 -0.6903088
0.07796926 0.0054733423 -0.31912628 0.2160451 0.31972438 0.19833148 -0.1954737 0.25935176
-0.1914147 -0.11926957 0.36728922 -0.025927706 0.09666353 -0.19865082 0.020497818 0.010765803
0.42385837 0.00487975 -0.06052239 0.29212224 -0.15274653 0.091605335 0.25035954 0.34788144
0.17753197 -0.13997321 -0.2352461 -0.12246266 -0.24330287 -0.033815674 -0.10730852 -0.044425674
0.22633627 0.07127224 -0.18062189 0.12485355 0.030465053 -0.06646503 0.28465173 0.033013538
0.14283238 0.07783995 -0.08434373 0.01596372 0.13505526 0.11756144 0.39113414 0.10844617
-0.08478356 0.023304367 -0.14318074 -0.06064835 0.03187037 0.113366276 -0.19507343 -0.07434821
0.15106808 -0.11836954 0.09721837 0.00091994304 0.13398777 0.3155888 0.30720723 0.30782327
0.21518527 0.15151517 -0.012246264 0.2641353 0.26312253 -0.08665645 0.16123031 0.45750737
0.016034968 -0.27217987 0.08047985 0.26160032 -0.27793518 0.015785722 -0.23349527 0.081112094
0.07082233 0.12335789 -0.12240622 0.0031666625 -0.20170134 0.17673425 0.17294042 -0.17314833
0.2812784 -0.16133414 -0.12604874 0.13006657 -0.14249355 -0.017504679 0.4700635 0.4077124
0.26732966 -0.08749161 -0.13581136 0.38399878 0.25901064 -0.056179658 0.034915455 0.069166556
-0.1321982 0.06936664 0.1787433 -0.07238533 0.04563034 -0.01740028 0.020316292 0.25372374
-0.5386376 -0.24317664 0.14478782 -0.054947782 -0.1603193 -0.24539845 -0.024005266 -0.2878783
0.1120913 0.007409347 -0.20386575 -0.09868368 0.3912105 0.6222226 -0.5534714 0.39059174
0.37602925 0.27595642 -0.30607638 -0.005449092 0.16304563 -0.18362644 -0.117572725 0.0842572
0.14390352 -0.14927083 0.27857983 -0.26617873 -0.0071643377 -0.19461884 0.67496884 -0.5590461
-0.6299826 0.35463354 -0.27598056 0.23401353 0.33053944 -0.016588157 -0.1341265 0.33153185
0.044578064 0.0028867847 0.045440063 0.28220633 -0.22425015 -0.55073404 -0.03814562 -0.24695824
0.46494198 0.18175258 0.08405165 0.074558415 0.0020804575 -0.118491314 -0.01945768 0.00935229
-0.17147446 0.1485924 0.267175 0.23943458 -0.0882424 -0.039126433 -0.19147992 0.19987018
0.067586824 -0.15438679 -0.17277752 0.24692251 -0.21343073 -0.18793434 0.18081774 -0.17543383
0.09806275 -0.1901115 0.04731176 0.25205952 0.21919088 -0.105220675 0.28051907 0.08272615
-0.095227785 -0.32029837 0.2453131 -0.32280046 -0.35087332 0.039769873 -0.12042197 -0.358822
-0.035959285 -0.027663648 -0.26899272 -0.13927424 0.31984904 0.6593969 -0.27458942 0.5762142
0.0713409 -0.044077866 -0.058650013 0.11305422 0.07269143 -0.030895771 0.17711613 0.053017896
-0.06738565 -0.096340634 0.13210918 -0.013975474 0.15430832 -0.03736967 0.11093016 -0.05518072
0.16583516 -0.1049074 -0.1506908 0.36073694 0.33988374 0.17784439 -0.13177662 0.23413564
-0.06498841 0.1364931 0.026386492 0.15347457 -0.3372414 -0.20036906 0.29746738 -0.4677084

bias f4 [256]
00000000: 39d1 c63d c7ec 613b bd44 263e 3f59 88bd
00000010: aabe 52be fcfa 9e3d 0cfe 21bc 8ea5 ebbb
00000020: d06e 053d b03f 8fbd 2a75 183e 0856 82be
00000030: b468 86ba a3f5 c6bb 6b89 dfbc e794 c63c
00000040: 36ee 60be a90f 1fbe 5115 2dbd cbc6 2c3b
00000050: 9a6d 8cbd a8c9 3abd db4a 0ebe 5a34 8bbd
00000060: 3be3 1dbe 0d58 aa3d d743 b4bd e454 e8bd
00000070: 4d25 2e3e bc33 0bbe 7871 8cbc 82c2 3d3e
00000080: 5d83 b33d 6e7e aa3c bdb7 1a3e 7fd4 93be
00000090: 5e18 3cbd 2d91 d93c 0d66 853e 06b8 d03c
000000a0: 29f8 a93d 1a15 0e3e 1e12 c43c bf94 2f3e
000000b0: 0712 68bc 27b3 f93d 43a1 95bd 7944 3cbe
000000c0: 9b5b 46be 6747 55be 9394 bbbd d119 79be
000000d0: 15eb b5bd e5eb c13d 8b14 cdbd 0469 22be
000000e0: 8dcc 9b3c 0cd3 b8bc 40b4 54be fa89 7a3d
000000f0: aefa 8dbe 81b6 d0bc 2938 e23c 4ddc 04be
00000100: ff77 193d 2fba e6bd 599d 4abe 72f4 53be
00000110: 0d97 06bc 1801 32be 416b 803d 4afe 63be
00000120: 4834 6b3d 3b37 99bd 7fdf dfbc 6170 4abd
00000130: 54b4 0e3c 0f66 73bc 49d2 5cbe bac6 003d
00000140: 4583 1fbd ccf6 a5be fabf a0be 949c c9bd
00000150: eb61 d6bd f45f fbbc 5c71 7cbd f81e 88be
00000160: 6bca 9b3d f96d 42be 5a81 47be 1fe2 3e3e
00000170: 34e0 abbd 8fad 3f3d dfdc 53bb 40bf 833d
00000180: c561 8bbc 6107 67bd 9eb0 b33d 1d46 29be
00000190: b604 383d f75a 483e eabb 843d cd47 52bd
000001a0: 48aa 37be b433 4a3e 54ca 973d b615 763d
000001b0: cd2a 20bc 09b5 85be 5f02 79be 269a 703c
000001c0: 1213 073e 0e1c 1cbd ae98 a13d 0e70 f0bd
000001d0: 277d 8abd d3b1 ab3d cdf8 0b3e f4e6 b8bc
000001e0: d199 813d eadc 283e f618 75be 7be5 f13d
000001f0: 8038 64be 1174 3cbe e433 c03d 944b 3b3d
00000200: 1cd0 ba3d 1040 583e a7b4 4cbd 7b19 9fbd
00000210: b4f1 cbbd 0082 b53d d7eb fdbd d38c 4cbe
00000220: 5052 b63d e9ea 48bd e263 553d a25c 983d
00000230: 2c90 2cbb b0fb c33d e58c 7cbe f4c4 16be
00000240: 239b bc3d b751 06bc 92ae 533e 7a04 d83d
00000250: 2c42 abbd 5a82 e7bc 75e9 823e 0261 eb3d
00000260: d5c4 c6bd dac3 a33d 8a96 73be dfe5 543d
00000270: f103 87bd 5dc6 143e 29c2 d3bd 8bd5 24be
00000280: 3fb0 2f3e 703e 563e 0f1c a9be 8c75 333e
00000290: dbce c93d f59a 10be af0c 70be a41e bf3d
000002a0: 4f42 ab3c b68d 143d 2e24 92bd d27a 443b
000002b0: 30d5 55be f1d3 3a3b 566a 023e 8445 b9bd
000002c0: 1a7d 2dbe fd44 5b3d 6dc4 fbbc ab68 c23d
000002d0: 7343 42be 17a8 f6bd 8fdf 953d 5f72 053d
000002e0: e0f4 793e 8795 c5be 67d8 e23d 24a8 28be
000002f0: 4726 a5bd cd97 04bd 0f64 a2bd 6285 8bbe
00000300: 13be dabd 2e5a 84bd c0e7 94bc ccbf 4abe
00000310: 9c2f a13d 57b7 57be f5d2 0cbe 0e9c 15be
00000320: 5e26 55be da58 8abd 8e8b 0b3e 0ebe d7bd
00000330: 3646 72be 948d e53d c56f 96be c02a aabc
00000340: 0c98 2fbe a397 dabd 2df7 2cbe 1a34 f3bd
00000350: 4d35 c0bd 959e f6bd 913c 70be 1398 5e3d
00000360: a3a8 84be b9c3 c5bc 710d 25bd faad 14bd
00000370: dfaa b03b a469 1cbe 6ea4 48be d164 12be
00000380: f5dc 82bd 2aa3 ecbc 156b ec3d 16ef 333c
00000390: 9769 11be 0527 91be 8301 6a3d 751d 893d
000003a0: 96ce 763d a805 d0bd 876d e73d 6de4 fc3d
000003b0: 5812 bb3c b60a 3abe 2993 a8bc 6399 3f3d
000003c0: 132e 4ebe 4ed0 81be 04e1 80be 803e 313d
000003d0: e764 6fbd 50a7 22bd 5345 2abe 0ae8 86bd
000003e0: fac5 08bd a530 803b c5e6 ac3d 0a42 88be
000003f0: 09d8 2dbd 31d9 8e3c e0e9 8abe a26d a5bd
0.09707875 0.0034473406 0.16237159 -0.06657647 -0.20580545 0.07762715 -0.00988723 -0.0071913665
0.032576382 -0.06994569 0.14888445 -0.25456262 -0.0010254593 -0.0060717626 -0.027287206 0.024240924
-0.2196587 -0.15533318 -0.042256657 0.0026363607 -0.06856842 -0.04560247 -0.13895743 -0.06797095
-0.15418713 0.083175756 -0.08802002 -0.113443166 0.17006417 -0.13593954 -0.01714395 0.1853123
0.0876529 0.02081224 0.15109153 -0.2887306 -0.045921676 0.026558483 0.2605442 0.025478374
0.08299286 0.13875237 0.02393442 0.17146586 -0.014164454 0.12192374 -0.07306149 -0.18385495
-0.19370882 -0.20828019 -0.09159198 -0.24326254 -0.08882729 0.094688214 -0.10013684 -0.15860373
0.019018436 -0.022561572 -0.20771885 0.06116674 -0.27730316 -0.02547765 0.02761467 -0.12974663
0.037467953 -0.112659805 -0.19786586 -0.20698717 -0.008214724 -0.1738323 0.06270457 -0.22264972
0.057422906 -0.074812375 -0.02732825 -0.04942358 0.008709986 -0.014855876 -0.21564592 0.03143952
-0.038943548 -0.32414854 -0.31396466 -0.09844318 -0.10467895 -0.030685402 -0.061631545 -0.26586127
0.076069675 -0.18987264 -0.19482937 0.18640946 -0.08392373 0.046796378 -0.0032327694 0.064329624
-0.017014394 -0.05640352 0.087739214 -0.16530652 0.044926368 0.1956595 0.06481154 -0.051338006
-0.17936051 0.19746286 0.07411638 0.0600793 -0.0097758295 -0.2611468 -0.24317311 0.014685189
0.13190868 -0.038112693 0.078904495 -0.11740123 -0.06762152 0.08383527 0.13669129 -0.022571065
0.06328166 0.16490522 -0.23935303 0.11811348 -0.22287178 -0.18403651 0.09384897 0.045726374
0.09121725 0.21118188 -0.04997697 -0.07768532 -0.099582106 0.08862686 -0.123984985 -0.19975595
0.089024186 -0.049052153 0.05209721 0.07439543 -0.002633105 0.0956949 -0.24663122 -0.14723569
0.092092775 -0.008198193 0.20672062 0.10547729 -0.08362231 -0.028260399 0.2556874 0.11493112
-0.097055115 0.0799634 -0.23787895 0.051977035 -0.06592549 0.14528795 -0.103397675 -0.16097085
0.17157076 0.20922256 -0.3302922 0.1752531 0.09853908 -0.14121611 -0.23442338 0.09332016
0.020905642 0.03626796 -0.07135807 0.0029980433 -0.20882106 0.0028507675 0.12735876 -0.09046462
-0.16942254 0.05353259 -0.030733312 0.0949262 -0.18971042 -0.12043779 0.07318031 0.032579776
0.24409819 -0.38590643 0.11076432 -0.1647039 -0.080639414 -0.03237133 -0.07929241 -0.272502
-0.10680785 -0.06462513 -0.018176913 -0.19799727 0.07870409 -0.21066032 -0.13752349 -0.14610311
-0.20815417 -0.06755228 0.13627455 -0.10534297 -0.23659596 0.112086445 -0.29382148 -0.020772338
-0.17147845 -0.10673454 -0.16891165 -0.11875172 -0.09385166 -0.12041966 -0.23460604 0.054344248
-0.2590991 -0.02414118 -0.04029602 -0.03629873 0.005391463 -0.15274674 -0.19593975 -0.14296271
-0.063898005 -0.028886396 0.11543862 0.0109822955 -0.14200436 -0.28350082 0.057130348 0.066950716
0.06025561 -0.10157329 0.113001876 0.12348256 0.022835895 -0.18168148 -0.020577984 0.04677714
-0.20134763 -0.25354236 -0.25171673 0.043272495 -0.058445837 -0.039710343 -0.16628008 -0.06587227
-0.03339193 0.003912049 0.08442453 -0.26612884 -0.042442355 0.01743755 -0.27131557 -0.080775514

weight f4 [192, 256, 2, 1]
00000000: ad4b 443e a548 323e 1825 103d ca64 23bc
00000010: 786f ae3d 13db ed3c 5ebd a8bd 8ca2 72bd
00000020: a6f8 bdbd 6d7d dfbd 4290 37bd d44d f0bd
00000030: 93dd b13d c8a0 523d 8216 f4bc f522 aebd
00000040: 265f 39bd 8f8f a5bc 12b4 863e 469d 2c3e
00000050: 7a3d 10bd 7164 41be 65b8 52bc a2bf 84bc
00000060: 3694 6bbd da24 6cbd a478 913d 84a3 283d
00000070: 7d3f a7bd b875 babd 6a91 133d de5a a9bc
00000080: 1974 fbbc 29f6 1cbd b23a d13d 87ca 5e3d
00000090: 6bc9 463c a034 1c3d 0d0e f3bc 3c9a 043d
000000a0: 31e1 963d 5dc8 393d 8a93 0fbd 4b1a 1dbd
000000b0: 0d85 913d 4ae4 e43c 441c b43b 60d3 2e3c
000000c0: 5d24 a63d 0433 053e 0335 623d 4353 dd3c
000000d0: 6c65 38bd d58b 89bd b7d3 d83d 741b 7d3c
000000e0: 7f69 a6bd e129 3bbd c90e 053c f158 c03c
000000f0: 8978 44bd 153e 143a e634 fdbd ef88 dabd
00000100: abe6 c93d 5ab9 bc3d 34e6 9a3c beac af3c
00000110: cffa 70be ee01 9ebe cf60 3e3b 27f0 92bc
00000120: cc9e ba3a 027e ee3c cd42 9dbd e65c fcbc
00000130: ea06 7ebe 0723 dcbe bc6b b43c a607 0b3d
00000140: a1cc b5bd 9482 33bd ce3d 9bbc e5cc 6abc
00000150: e050 9bbc 3436 8e3b 1bd4 fc3c ee4f 063d
00000160: 6011 683d e0d9 f13c 431c 293d 498b b1bc
00000170: b02b 6ab9 90e8 433c f5a9 663c 108d 4b3c
00000180: 751c 0dbd 9949 cabc 2a36 35bd 7bb8 24bd
00000190: 9f10 14be f6b4 d2bd d93f 6a3d 575e 933d
000001a0: 0109 113d 2f9a bd3c 9a58 72be 30bc c0be
000001b0: 9c40 41bb 6dcb f7bc b1e2 273b b545 8a3d
000001c0: 3039 3e3d a2ee 863c 9a14 893c aa23 2f3c
000001d0: c90b fcbc 9ac2 91bd 8065 cabb 8e9b 603c
000001e0: 1898 e23d dfa0 a13d e318 0b3c 04b0 0b3d
000001f0: 7c6c 82bd 6a1d 4ebd 79ca ae3d d30b ee3c
00000200: 2b55 75bc 6f5c 1f3d 00ea 703d 0346 5dbc
00000210: 30dd 143d 455f e53b 5597 a7bd eb9d a5bd
00000220: df53 9bbd 809b e2be e936 4a3d 0b7d 993d
00000230: 388f f23c 5f7a 123d 9f23 bc3d f3b5 1f3e
00000240: 3385 993d 282d 183d 11c5 7bbd 40c9 9f3b
00000250: 94b3 d43d 2eb1 ae3d 2cb5 57bd d27c 473c
00000260: a17a b53d 38fc 543d c8a9 dfbc 93e2 db3c
00000270: 252e 523e 53a8 4a3e b668 113c 6ba4 753c
00000280: 8840 8b3d 7a62 103c d426 053c 3ad2 10bc
00000290: babd ce3c 3195 bebb 7796 cebc bd8b 89bd
000002a0: c994 033e 8b86 a93d 16e1 76bc 1b81 f43a
000002b0: 0956 3a3d 4957 123c 37db 903e 54d7 693e
000002c0: b5fc b93d 5e00 ab3d 256f 7abb 0d04 90bb
000002d0: dbd6 9e3d bab6 9b3d df53 493e 63ff 643e
000002e0: 8bb2 893c 594b 843d 432f 84bd 3026 5dbd
000002f0: 8886 77bd 0391 95bd a5c0 06bd 2be7 1f3b
00000300: 0a3f 623d 8d01 833d 0607 cdbd 9987 f6bd
00000310: 511b a23c c19e 813c 45f0 3f3e 2110 5f3e
00000320: e336 073d 5aeb 7e39 5672 13bd 5e77 0a3d
00000330: 58a0 cabd 6a89 47bd 8502 92bc 1fd4 f23c
00000340: c488 da3c 1b5f 143d 95fc 4fbe 1272 b0be
00000350: 00e5 a13c 1981 9c3c c2f6 973d a57d 7b3d
00000360: 34e2 22be 7ff3 b7be d0ad b9bd e659 95bc
00000370: b506 d73d 37a8 af3d f3d9 d4bd 4b92 08bd
00000380: c42a 6bbc c8b6 77bd 8c20 21bd 5ece bbba
00000390: b250 74ba 50b4 753d 7c4e de3d c9e4 e63d
000003a0: e4dc 7abd 78e9 913c 99d8 1cbd d2ec e8bc
000003b0: ad73 a73c 3636 f63c d027 6dbc 451f 4bbc
000003c0: bab0 2f3d e41e d63c 6500 233d df8f 0f3d
000003d0: cfb7 51bd 0b88 6ebd 545c 093e 6138 2a3e
000003e0: 7e3d 703d bfc7 9e3d f1af 30bd 6fdc a7bd
000003f0: df3d f1bd 4ab8 90be cc79 f0bc f7b8 47bd
0.19169493 0.17410524 0.035191625 -0.00997276 0.08517355 0.029035127 -0.08239244 -0.059237048
-0.092759416 -0.10912595 -0.04481531 -0.117335945 0.0868484 0.051422864 -0.029795889 -0.08502761
-0.045256756 -0.020210056 0.26309258 0.1685687 -0.03521488 -0.18885972 -0.012861346 -0.016204659
-0.05751439 -0.057652332 0.071030885 0.041171566 -0.08166406 -0.09104484 0.03602735 -0.020673212
-0.030695008 -0.038320694 0.10216273 0.054392364 0.012132983 0.038136125 -0.029669786 0.03237365
0.073671706 0.045357097 -0.035052814 -0.038355153 0.071054555 0.027940888 0.0054965336 0.010670513
0.081124045 0.13007742 0.055226337 0.027017241 -0.0450186 -0.06716124 0.105872564 0.01544844
-0.081255905 -0.045694236 0.008121201 0.02347991 -0.047966514 0.0005655003 -0.12363605 -0.10670649
0.098584495 0.092150405 0.018908598 0.021444675 -0.23533176 -0.30860847 0.0029049402 -0.01793678
0.0014237999 0.02911282 -0.07678757 -0.030806016 -0.24807325 -0.42995474 0.022024028 0.03394284
-0.088769205 -0.0438257 -0.01895037 -0.014331077 -0.018959463 0.0043399576 0.030862859 0.03279107
0.056657195 0.029522836 0.041286718 -0.021672862 -0.00022332254 0.011957303 0.014078607 0.012423769
-0.034450967 -0.024693297 -0.044241108 -0.040214997 -0.14459465 -0.10288422 0.057189796 0.07195728
0.035408977 0.02314481 -0.23666611 -0.37643576 -0.0029487973 -0.030248368 0.0025617296 0.06751577
0.046441257 0.01647121 0.016733456 0.010689655 -0.030767338 -0.071171954 -0.0061766505 0.013708962
0.11064166 0.07892012 0.00848982 0.03410341 -0.06368348 -0.05032102 0.08534712 0.029058373
-0.014973919 0.03890651 0.05881691 -0.013505462 0.036343753 0.0069998824 -0.08183161 -0.08086761
-0.075843565 -0.44259262 0.049368773 0.07494553 0.029609308 0.035761233 0.09186482 0.15596752
0.07496109 0.03715244 -0.061467234 0.004876286 0.10385814 0.08529888 -0.052663013 0.012175756
0.0886128 0.051998347 -0.027302638 0.026841437 0.20525415 0.19790773 0.008875063 0.014992814
0.06799418 0.008812541 0.008126933 -0.008839184 0.025236953 -0.005816125 -0.025218232 -0.06716106
0.12849726 0.08277615 -0.015068313 0.0018654199 0.045492206 0.008931943 0.28292248 0.22836047
0.09081403 0.083496794 -0.003821322 -0.004395014 0.07755824 0.07603212 0.196609 0.22363047
0.016808769 0.06459684 -0.06454327 -0.053991497 -0.060431033 -0.073030494 -0.032898564 0.0024399261
0.0552359 0.0639678 -0.10011105 -0.12037582 0.019788416 0.01582277 0.18744 0.21783496
0.03301133 0.00024311003 -0.03599771 0.033805244 -0.098938644 -0.048715033 -0.017823467 0.029642163
0.026676543 0.036223512 -0.20311196 -0.3446203 0.019762516 0.019104527 0.07420112 0.06139912
-0.15906602 -0.3592796 -0.09066355 -0.018231343 0.10499326 0.08577006 -0.10393133 -0.03334264
-0.014353458 -0.06047705 -0.03933768 -0.001432847 -0.0009319886 0.059986413 0.108548135 0.11274106
-0.061245814 0.017811522 -0.0382925 -0.028433237 0.0204409 0.030055147 -0.014474824 -0.012397592
0.04289315 0.026137777 0.039795298 0.035049316 -0.051200684 -0.05823521 0.13414127 0.1662307
0.058652394 0.07752942 -0.04313654 -0.08196341 -0.11779379 -0.282656 -0.029354952 -0.04876038

bias f4 [192]
00000000: 0cc5 3ebe 305d 4fbe 795b 5bbe b631 afbd
00000010: 27e8 1b3d e21d 813d 9d94 a53d 9812 a9bc
00000020: b798 1ebd 3c90 1ebe 0826 2cbe 9c7b 17be
00000030: 854f 7ebe 80d4 76be 2127 d33e c628 753d
00000040: b517 06be fb4d 68be e4ad f8bc fdda 37be
00000050: f8ac e0bc 789b 94bd 67a6 383d 0343 463d
00000060: 7641 8c3c 6582 c93d 84c8 4cbd b7ce 9d3c
00000070: 91e5 383e e1d8 78bd 7ea7 953d 93db e3bc
00000080: 2621 4cbc bc33 983d ef4e 24bd fd36 efbb
00000090: 181d 92bb e0d2 aabd 478a 6cbd 8fe3 1fbd
000000a0: e9e9 41be 031e ecbd 0d30 213e efea bdbd
000000b0: 981e b4bd e9cf b63c 9d0d 80bc d950 efb9
000000c0: 19ed babd 6ed1 98bc 1349 213d ac7e 26be
000000d0: c4ae 283d 5b15 e7bd a08d 39be 1d1a de3b
000000e0: c6ff c3bd af1f 2fba 193c 6ebd fbb2 5e3d
000000f0: d80a eebc 47de 1d3d 730b 84bd 317c 07bb
00000100: 3f76 03bd 1c6b febc 1de8 093d 05cd 123e
00000110: 987d 60bd a530 0ebe 7361 9dbd 4d23 823c
00000120: ca38 80ba 06f3 543c d727 8fbd d066 033d
00000130: 1460 bebd a8cd 79be c6f4 9e3d d70e 5ebd
00000140: 835c a13d ac5c 12be 8e44 06bd 4922 903d
00000150: 0f4d 83bd dd4c 2cbe a601 85bd 428b 12be
00000160: 0c45 53bd 7176 d5bc dcc4 913c 866c 35be
00000170: e11e febd 4912 25be 98df 26be 3a1b dbbd
00000180: 74fb 2fbe 01c6 edbc 3302 a83d ec7d 7ebd
00000190: 45bf fabd ded7 8ebd 83d0 b23d 7e64 79bd
000001a0: 2c1c acbd baee d93d 2259 2fbd 714d dfbd
000001b0: 362a c1bd 893d ae3c 9b33 5abd fee5 8abd
000001c0: 71d8 efbd ae82 0a3d a081 813d de5a f33d
000001d0: f5da b33c 9c61 0fbd 19dd 32bd ce15 9dbc
000001e0: 4290 adbd ba3a a53d 72fe aa3c c6fc bbbd
000001f0: 4b95 cc3b 60f8 dd3c 6ff5 a2be 0070 8fbd
00000200: 19f6 dcbc 4909 843c 1279 14bd d50b 12bd
00000210: 4c47 a83d fbae 01be 6746 72be fca8 e3bc
00000220: 6bbf 0bbd d414 36bb 9440 16bc f60a b33d
00000230: 2570 5a3d 00fe c53c 923f 46bd 2678 e1bd
00000240: 7a78 e9bc 855a df3e f653 38bc 9469 66be
00000250: d495 82bd 6b41 a9bd 828a 44bd 1c60 5bbe
00000260: 34a6 bbbd df6e 83bc 4993 11be 2029 fbbd
00000270: 3c35 13be 44a1 e83c fa9d a73d 06a8 5f3d
00000280: acf0 b3be c8a7 3ebe 87cc 9f3c 35d9 bfbd
00000290: bc78 3ebe 103f f0bc 0528 023d 9cfa 7abb
000002a0: 49a2 9a3d e94a 9dbe 27c2 e73d 9d1f a1bc
000002b0: 2add fcbc 484a 623d 99ca b6be 6f05 573d
000002c0: a947 13bd 76b8 4f3d dc8b dfbc 27b1 dabd
000002d0: dc65 aebd 7863 16bd 7f90 d3bd ec01 81bd
000002e0: 6e41 16bd a307 483c a34d 94bd 2c8c 3fbd
000002f0: 04ad a3bc b845 09be f5c9 3bbe 2d5d b23d
-0.18629855 -0.20250392 -0.21421613 -0.085544035 0.038063195 0.06304528 0.08084986 -0.020638749
-0.03871986 -0.15484709 -0.16811383 -0.14793247 -0.24835022 -0.241045 0.4124079 0.059853338
-0.13094981 -0.22685997 -0.030356355 -0.17954631 -0.027426228 -0.07256216 0.04508057 0.04840375
0.017121058 0.09839324 -0.049995914 0.019263608 0.18056323 -0.060753707 0.07307337 -0.027814662
-0.012459075 0.074317425 -0.04011434 -0.0073002563 -0.0044590347 -0.083410025 -0.05774906 -0.039035376
-0.18936886 -0.11529162 0.15740986 -0.09273326 -0.08794898 0.022315936 -0.015631491 -0.00045645869
-0.09127254 -0.018654551 0.03937633 -0.16259259 0.041182294 -0.1128337 -0.18120432 0.0067780153
-0.09570269 -0.00066804414 -0.058162782 0.054369908 -0.029057905 0.03854206 -0.06447496 -0.002067339
-0.03209519 -0.031056933 0.033668626 0.14336021 -0.054807276 -0.13885744 -0.076846026 0.015885973
-0.000978255 0.012997394 -0.06990021 0.03208047 -0.09295669 -0.24394858 0.077615306 -0.05421337
0.07878973 -0.14293164 -0.032780223 0.070377894 -0.06411182 -0.16826196 -0.06494455 -0.14310935
-0.05157952 -0.026057454 0.017794065 -0.1771718 -0.124082334 -0.16120256 -0.16296232 -0.106985524
-0.17185766 -0.02902508 0.082035445 -0.062131807 -0.12243513 -0.06974767 0.08731177 -0.060886852
-0.08403811 0.106412366 -0.042809613 -0.10903443 -0.09431879 0.021269577 -0.05327187 -0.06782149
-0.11711205 0.033816032 0.06323552 0.11882566 0.021954993 -0.035005197 -0.043667886 -0.019175436
-0.084747806 0.08067842 0.020873282 -0.09179072 0.006243383 0.027095973 -0.31827876 -0.07003784
-0.026972817 0.016117709 -0.036248274 -0.035655815 0.08216724 -0.12664406 -0.23659669 -0.027790539
-0.034118097 -0.002778341 -0.00917067 0.08742325 0.053329606 0.024168968 -0.04840047 -0.110092446
-0.02849983 0.43623748 -0.011250487 -0.22501212 -0.06376234 -0.082644306 -0.047983654 -0.21423382
-0.0916256 -0.016044078 -0.14216341 -0.12263703 -0.14375776 0.02839721 0.081844285 0.0546036
-0.35144556 -0.18618691 0.019506706 -0.09367601 -0.18600744 -0.029326946 0.031776447 -0.0038296347
0.07550485 -0.30721214 0.113163285 -0.019668395 -0.030867178 0.05524662 -0.35701445 0.052495416
-0.035957012 0.050713025 -0.02728837 -0.106783204 -0.08515522 -0.036715955 -0.10330295 -0.06299195
-0.036683492 0.012208852 -0.072413705 -0.046764538 -0.019979961 -0.13405502 -0.18338759 0.08709178

weight f4 [128, 192, 1, 2]
00000000: a621 203e aeec 4bbe 8a4b 553e c50b 2bbe
00000010: 459a 493e eddc 48be 4568 903d 82d4 ca3e
00000020: bc73 873e d842 8cbe 81d0 1c3c 4fb8 963d
00000030: fb19 fcbd b62d 1d3e 4378 44bd b560 8b3e
00000040: 73fc a0bd 1e8b 003e 23b9 d2bd 226c 0d3e
00000050: dffd 8d3e 7a7a 5bbe da58 823d c2f1 6ebe
00000060: 050c 9d3e 4779 22be 7d7b 983e bcf0 5c3e
00000070: 03fa cdbd bf1d 103e 5f8e 933e 3b38 35be
00000080: bbc4 9dbb f418 d83d f87e 8bbe 632f 873c
00000090: 389c e53b 3bc1 0a3d 7e71 843e 5b69 c9be
000000a0: 95a9 23bb 7657 863e 5fb5 b5be 1aac 433f
000000b0: b010 203e a369 72be dc76 4bbe db24 393e
000000c0: 4675 12be 1fe9 1e3e 021d 3a3e 8d50 80be
000000d0: 6607 a13c c3ee 043d 1726 0dbc a3c5 c7be
000000e0: 981d 413e 2465 94be f2ea 4ebd 84df 333e
000000f0: 3f16 8c3e d269 97be ff23 28bd ef01 913d
00000100: d4da 3ebd d0ba f13d 8fbc 10be 94a0 2a3e
00000110: c1f6 3bbe 05f2 013e aaea f8bd 51d7 113e
00000120: 61e5 293d b133 5f3e 6d33 3cbd 2c7c 1f3d
00000130: 4cbb 0cbd 57e5 9d3d c832 a6bd 641b dc3b
00000140: 6248 fabd 2f1a 06bd 6ada 233e af58 a8bd
00000150: bdb8 463e cd75 4dbe f726 003d 3a20 223e
00000160: c118 0fbb 1209 813d 5874 70be b957 ce3e
00000170: 4cc4 f3bd a0e8 fa3d df35 32bd dabe 873e
00000180: 5d0f bdbe 699b fa3e 9017 4c3e 377f 6fbe
00000190: 75f7 33bd 2292 813e 132d e0bb 00e7 d7be
000001a0: 9eec 8bbe f9ae b6bd 0045 983d 3cf4 00be
000001b0: b8d3 a4be dc38 a13e a1c2 31be 5355 503e
000001c0: a5bd 943d ef41 383d ad68 debb 65ee 233d
000001d0: 075e 95bd 20dd e33d e99e a13e fc94 2bbe
000001e0: 2419 30bd b58c 113e a8cd 9c3e 6c74 00be
000001f0: 6c1d c7bc 6fd3 ff3c 9d9f 0cbe d608 d93d
00000200: 301f aebd fb52 0c3e 4efe 513e d9aa 6ebe
00000210: edc7 35be 4ee7 223e f145 85bd 50a8 cd3d
00000220: 80fd f2be 6561 bb3e cad1 3ebd 4d6e 983d
00000230: bf21 bbbd 503d 723c 39d3 85be 28d0 e73e
00000240: 96fc 4c3d 31cf e1bd a809 1abe a899 263e
00000250: a940 1cbd 7036 e33d 7043 01be d494 2b3e
00000260: 6c63 31bd f2dd 803e 6c13 913d 3f44 93bd
00000270: 4fb1 2cbe 286f 503e e2cd ba3c 9aae 383d
00000280: 2f5f 503d 0a78 d7bd 20f0 2dbd af32 c3bc
00000290: b9d2 ff3c 6020 263b 2ea0 30be 75cc 4c3e
000002a0: 00c8 153d ac7b 9d3d 9a0e 2f3c 9cfc 14be
000002b0: 7a9d 07bf 08b0 163f fffd ba3d 3939 eb3d
000002c0: 7b44 a4bd c4de 103d 202b c1bb 65a2 883d
000002d0: 2596 0d3c 4e8b 633d 894e 74bd 2e02 7b3d
000002e0: fd36 68bd b4be 0b3d 8c33 c2be fab0 a2be
000002f0: b0e3 e6bc 30ef 4ebd 2535 53bd 8220 723d
00000300: 6916 7d3d 7c0a 04bd 0fd0 10be 6616 b03e
00000310: 2617 90bd fa25 7d3d 06c1 fbbc 4105 c33e
00000320: 3f49 8e3e 4776 b1be e693 663e d7c3 9cbe
00000330: 9a24 553e dc5c 40be 95a1 d6bc 592f 0b3c
00000340: cda2 aabc f13f c03d 320f ecbd 0218 533e
00000350: a616 d4bb b98c 533d d0da d7bc c001 b53d
00000360: 1248 eb3d c550 e3bd d9cd f63c bcec 0e3e
00000370: 925b 553e 31f5 88be de30 8b3d 9b0c b23e
00000380: f3a9 1fbb f517 2e3d c885 81bd 4e1d 543d
00000390: 09c2 04be 4684 303e d9c5 44be 1a5b 8a3d
000003a0: 67b6 2dbe 8f9d 3e3e f69c 743e 49c4 67be
000003b0: 8580 83bd d0ef 5f3d f351 48be 83cd 4f3e
000003c0: 4b3e 25bc b385 fd3d 48c2 533e 7a92 83be
000003d0: 4309 063d 6e0f 0f3e f9d3 6abd f8ab 223d
000003e0: df95 973e c2a9 4bbe ed19 fabd 66e5 083e
000003f0: 8f6b 873c 157a 1a3e b1ae a13d 882e d33d
0.15637836 -0.19914505 0.20829597 -0.16703708 0.19687755 -0.19615526 0.07051138 0.39615256
0.26455486 -0.27394748 0.009571196 0.07359373 -0.12309643 0.15349469 -0.047966253 0.2722222
-0.07860651 0.12553069 -0.10289218 0.1381078 0.2773275 -0.2143344 0.06364603 -0.23334411
0.30673233 -0.15866576 0.29781714 0.21576208 -0.100574516 0.14073847 0.28819558 -0.17697231
-0.004814712 0.105516344 -0.27245307 0.016502088 0.007007148 0.033875685 0.25867838 -0.39338192
-0.0024972905 0.26238602 -0.35489938 0.7643448 0.15631366 -0.2367311 -0.1986956 0.18080465
-0.14302549 0.15518616 0.18175128 -0.25061455 0.019656848 0.032454263 -0.008615038 -0.39017972
0.18858945 -0.28983414 -0.05051703 0.17565733 0.27360722 -0.29572922 -0.041049954 0.07080447
-0.04659541 0.1180321 -0.1413443 0.16662818 -0.18355848 0.1268998 -0.121541336 0.14242293
0.04147852 0.21797062 -0.04594748 0.03893678 -0.034358308 0.07709759 -0.081151545 0.0067171324
-0.12220837 -0.032739814 0.16001287 -0.0822004 0.1940641 -0.20064469 0.03128716 0.15832606
-0.0021834823 0.06300558 -0.23481882 0.40301302 -0.11902675 0.12251401 -0.043508407 0.26512796
-0.36925784 0.48946694 0.19930863 -0.23388372 -0.043937165 0.25306803 -0.0068413108 -0.42168427
-0.27328962 -0.08920092 0.07435036 -0.12593168 -0.3219278 0.31488693 -0.17359401 0.20345049
0.07262734 0.044984754 -0.0067873807 0.040022273 -0.07293325 0.111261606 0.3156655 -0.16756052
-0.042992726 0.14213832 0.30625653 -0.12544411 -0.024306022 0.03122875 -0.13732763 0.105973884
-0.08502042 0.1370353 0.20507166 -0.2330736 -0.17752047 0.15908548 -0.06507481 0.10041869
-0.4745903 0.36597744 -0.04658679 0.07442913 -0.09137296 0.014785126 -0.26137713 0.45275998
0.050045572 -0.11025847 -0.15042746 0.16269553 -0.038147602 0.110943675 -0.12623382 0.16755992
-0.043307707 0.2516933 0.070837826 -0.07190751 -0.16864513 0.20354903 0.02280325 0.045088388
0.050872024 -0.105209425 -0.04246533 -0.023827879 0.03122841 0.0025348887 -0.17248604 0.19999869
0.036567688 0.07689604 0.010684634 -0.14549488 -0.52974665 0.5886235 0.09130477 0.11485524
-0.08020874 0.035368696 -0.0058950335 0.06671599 0.008641754 0.055552773 -0.05964521 0.061281376
-0.056693066 0.034117416 -0.37929952 -0.31775647 -0.028184742 -0.050521076 -0.051564354 0.059113033
0.06178895 -0.03223656 -0.14141868 0.3439209 -0.07035665 0.061803795 -0.03073169 0.38089946
0.27790257 -0.3466055 0.22517356 -0.30618164 0.20814744 -0.18785423 -0.026200095 0.008495175
-0.020829583 0.09387196 -0.11526336 0.20614627 -0.0064724265 0.051647875 -0.026349455 0.088382244
0.11488356 -0.1109939 0.030127453 0.13957494 0.20835713 -0.26749566 0.0679643 0.34775242
-0.0024362772 0.042503316 -0.06324345 0.05178576 -0.12964644 0.17237958 -0.19216098 0.067556575
-0.16964112 0.18614791 0.23888001 -0.2263347 -0.064209975 0.054672062 -0.19562511 0.2029324
-0.010085653 0.12379017 0.20679581 -0.2569769 0.032723676 0.1397073 -0.05733106 0.039714783
0.2960653 -0.19888976 -0.12211976 0.13368759 0.01653078 0.15085633 0.07894648 0.103116095

bias f4 [128]
00000000: b96c 6cbd 535a a23d 964f 72be c593 5d3e
00000010: 033e 7bbc ede1 93bb 5558 833e f8e6 193e
00000020: cdef 7e3e e321 2a3e 9152 12be 888f c23d
00000030: 1f7a ec3d cd2b 363e d9ab 98bd a700 94bd
00000040: 9ade 4bbe 5ac9 ec3c 78f5 053e 7007 70be
00000050: 25b9 1c3d d7e1 98bd ae23 4a3e fde1 213e
00000060: 20c4 0b3e e361 df3d 33a4 92bd 15b1 aa3e
00000070: ce95 183d 7b73 873e b61c 203d 230c 7dbc
00000080: 86d8 813e cf8b 14be fb5c 78bd 57b2 953e
00000090: 60b5 4dbd 6367 4e3e 7c94 09bd 6984 81bd
000000a0: 73ac 4c3d cdca b1bd fec5 513e eac6 463c
000000b0: 40b3 2a3e 60eb 07be 1d41 03bd d688 593e
000000c0: 8c0a a4bc 8223 8d3d 482a a83e f941 cebb
000000d0: a6db 3b3e 723e 52bd 337f 6cbd cc78 a6be
000000e0: be58 063d e80b 17be f45d 563e f6c3 96be
000000f0: 8dca 3cbc 8875 8f3e 73fd 073e 87ef a93c
00000100: d577 cabd d387 de3e c6db c3bb 74ad 9f3d
00000110: 44f4 9a3d f093 49be 6673 a4bd 3c68 2dbc
00000120: da75 6d3e 05e8 893e 8dfa fd3d 7c9b 643d
00000130: 4a7f 573e a76a 363e 6135 50be a4d2 6bbe
00000140: 43e3 08bd 4837 aebd ecba 23be a861 1dbe
00000150: b8d0 133e 8d49 973e 49d3 623c 3ade bc3d
00000160: 79fe d9bd b10e 823e c694 61bd 84f1 af3e
00000170: 8eb2 873d 12de aebd 701d 0dbe 1c98 733a
00000180: dd42 90bd dbb2 cc3d 50eb 20bd c106 883e
00000190: 08ad 993d 6e7b 68bd 5927 323e 4aa5 59bd
000001a0: 4157 063d 95dc 3d3e 1bee 433b 81c7 143e
000001b0: 6056 313e 4eb3 0a3e 1205 f53e ba70 a33e
000001c0: 0866 603e 1aa9 413e 79f5 713b 0d88 423e
000001d0: d685 913e 6fbf a7be 8203 a4be 7df8 8d3d
000001e0: 3b1f 253e 3390 c8bd 0730 4cbe 71a6 a33e
000001f0: 2a1c 913d 37aa 233e dd6e 743e 24ae babe
-0.057720874 0.07927384 -0.23663172 0.21638401 -0.015334609 -0.0045130164 0.2565333 0.15029514
0.24896164 0.1661449 -0.14289309 0.09500033 0.1154673 0.17790146 -0.07454652 -0.07226687
-0.19909135 0.028904606 0.1308192 -0.23440337 0.038262505 -0.074649505 0.19740173 0.15808864
0.13649035 0.10907342 -0.07160225 0.33338228 0.03725224 0.26455292 0.03908988 -0.015444788
0.25360507 -0.14506458 -0.060635548 0.29237625 -0.0502218 0.20156626 -0.03358887 -0.06324083
0.049969148 -0.08681259 0.20485684 0.012132386 0.16669941 -0.13273382 -0.03204452 0.21243605
-0.02002456 0.06891538 0.32844758 -0.0062944856 0.18345508 -0.051329084 -0.057738494 -0.32514036
0.032799475 -0.14750636 0.20934278 -0.2944638 -0.011522901 0.28019357 0.13280277 0.020744098
-0.098861374 0.43463 -0.005977127 0.077967554 0.07566121 -0.1968534 -0.08029823 -0.010583933
0.23189488 0.2693483 0.124013044 0.055812344 0.2104465 0.17814122 -0.20332862 -0.23029572
-0.03341986 -0.08506638 -0.15989274 -0.15369284 0.14435089 0.29548302 0.01384432 0.09222074
-0.1064424 0.25401834 -0.055073522 0.3436395 0.066258535 -0.0853845 -0.13780761 0.00092923804
-0.07044003 0.099950515 -0.03928691 0.26567653 0.07503706 -0.056758337 0.17397822 -0.053136148
0.032798056 0.18541177 0.002989656 0.1452923 0.17318106 0.13544962 0.4785543 0.3192194
0.21913922 0.18912163 0.0036919995 0.18997212 0.2842242 -0.3276324 -0.32033926 0.06932161
0.16125195 -0.09793129 -0.19940196 0.31962922 0.0708545 0.159829 0.23870416 -0.36460984

beta f4 [128]
00000000: 690a 353f f86a a03f efea b83f 2007 573f
00000010: 1806 9c3f 2483 973f fd68 9f3f 9a51 903f
00000020: caa4 8a3f 7bc0 a83f bf43 703f 1791 8e3f
00000030: e6fb 843f 21b4 853f 68b3 593f 30cc 933f
00000040: 1486 673f 8bb5 5c3f 0553 a13f f2bf 623f
00000050: 4f98 8a3f b685 873f 3b0b 9d3f d591 9d3f
00000060: 327e 8a3f ec48 803f 9098 943f b6ad 403f
00000070: dcac 8d3f b102 893f 626d 8d3f 0c68 aa3f
00000080: d4e4 783f 3ccd 023f fa22 893f 207e 743f
00000090: d5b1 6e3f 867d 833f 81ec 8c3f b871 8f3f
000000a0: d082 9c3f 93ae 963f aa7d 9a3f 5f99 383f
000000b0: d0de 843f e1a1 823f 7a63 b43f 2d33 713f
000000c0: 8884 8b3f d8ea 903f 7d77 913f cd61 a33f
000000d0: 2ad9 aa3f 3c39 793f f9ca af3f 1eb9 823f
000000e0: d2d7 983f 8184 773f 30f0 863f 9089 8d3f
000000f0: b101 983f cc2c 4d3f b690 893f cd0d 903f
00000100: 39b4 af3f 2352 723f d8fc 8d3f 46a3 9e3f
00000110: 84c2 683f 4905 a33f d960 933f c6f8 9f3f
00000120: 5481 903f 3ba5 7a3f 8d48 9a3f 44f8 983f
00000130: 634a 533f 08cc 913f 5dc8 8b3f 17a2 d03f
00000140: d437 653f 96ae 713f 26a6 4c3f 0cd1 af3f
00000150: 373a 903f bc62 5c3f 5256 9f3f db51 483f
00000160: 53a7 883f abb9 5e3f d123 8e3f b409 143f
00000170: bca9 923f aff4 653f ea0a ac3f df01 a63f
00000180: 6be2 493f 6103 9a3f de4a a83f 3105 6c3f
00000190: f008 9a3f edef 893f 4e04 8c3f c7b4 9c3f
000001a0: 5e69 b23f 5224 a03f f949 b93f 18aa d73f
000001b0: 1f89 9c3f 4a0a c33f cae3 6c3f 5186 343f
000001c0: 2232 8d3f 8a33 b23f 4886 713f b7cb ac3f
000001d0: ce6d 453f 3ce3 9a3f 1295 b43e b05e ab3f
000001e0: 0e65 7d3f 2f62 863f 217d 9c3f 13ce 6a3f
000001f0: 4b2a 853f 278d 943f 1789 6b3f 23dd 883f
0.7071901 1.2532644 1.4446696 0.83995247 1.218936 1.1836896 1.2453915 1.1274903
1.083154 1.318374 0.9385337 1.1138028 1.0389373 1.0445596 0.8503938 1.1546688
0.9043896 0.8621451 1.260346 0.88574135 1.0827731 1.058768 1.2269052 1.231013
1.0819762 1.0022254 1.1609058 0.7526506 1.1068377 1.0703946 1.1049006 1.3313003
0.97224164 0.5109441 1.0713799 0.9550495 0.932401 1.0272682 1.1009675 1.1206579
1.2227421 1.1772026 1.20696 0.72109026 1.0380497 1.0205652 1.4092858 0.94218713
1.089982 1.1321669 1.136459 1.2764221 1.3347523 0.9735296 1.3733817 1.0212743
1.1940863 0.9668656 1.054205 1.1057606 1.1875516 0.8014648 1.0747287 1.1254212
1.3726875 0.9465658 1.1092787 1.2393577 0.9092181 1.2735988 1.151393 1.2497795
1.1289468 0.9790837 1.2053391 1.1950765 0.8253538 1.139039 1.0920521 1.6299466
0.8953831 0.9440702 0.7994102 1.3735671 1.1267766 0.86088157 1.2448218 0.782499
1.0676063 0.87002057 1.110468 0.57827306 1.1458049 0.8982648 1.3440831 1.2969321
0.7886111 1.2032281 1.3147848 0.9219542 1.2033978 1.0776345 1.0938814 1.2242669
1.3938406 1.2511084 1.44757 1.6848783 1.2229346 1.5237515 0.9253508 0.7051745
1.1030924 1.3921978 0.9434552 1.3499669 0.77120674 1.2100596 0.35269982 1.3388271
0.9898232 1.0498713 1.2225686 0.91720694 1.0403532 1.1605576 0.9200606 1.0692486

gamma f4 [128, 128]
00000000: f829 ae3d e2d4 debc 44c3 be36 1a9e c3bc
00000010: 696a 2abb 469c 8136 a80a b6bc dfc7 39bb
00000020: 5ee9 9bbb 3272 79bb f2e6 0cbc abc9 e1bc
00000030: 98fd 56bc 8501 c837 ef45 ac36 c121 d436
00000040: 66db d6b9 6dd2 a83e add2 be36 5dff 78bc
00000050: 143e d336 9750 963e 32fc 5cbb 227c b6bc
00000060: 37e1 fcb7 23c4 2ebc 36c3 cc36 aa09 85bc
00000070: fc7b bb36 8674 3ebb 6880 aab9 6005 8536
00000080: 63d3 3fbc 99c6 dab6 58d5 aa3d 908b c6bb
00000090: f318 47b8 6933 24bc 7157 ce36 ff5b baba
000000a0: c021 5736 ef8d 0337 851b 90bc ecae 303d
000000b0: dc54 1dbb 8a60 ab36 d516 243f ec3b d4bc
000000c0: 11d3 52b8 200b f6b9 c143 64bc bedd c93a
000000d0: 5a29 14b6 e73d b136 ce4a 01b8 6c50 373c
000000e0: f934 9336 c7a7 2ebc 3091 d3bb cdb0 0ebd
000000f0: 4774 4fba 70b4 36b9 5270 553e d650 3f3e
00000100: cd65 57bc 6882 c9bb 8b8d 7c36 bced 6633
00000110: 6aab 9cbc bb45 3abb a683 d437 5309 98b8
00000120: e711 3bb6 b351 8abc 4150 b236 4ddd 8c3d
00000130: 1e77 8ab6 0943 90b6 a7df 53bb d9d7 68bc
00000140: 695a d7bb 3f35 77bc 7299 1937 bef9 2937
00000150: 072f afba 1b90 82bb e873 93bc 04b0 8ebc
00000160: a178 e237 1494 06ba 41ce d1bc f499 1fbc
00000170: 6148 05bc 8cce bcbb 6309 1e3e 922d 9136
00000180: b5e6 7ab8 7445 bfbb f3ff 6b36 027b d9bc
00000190: 0326 6636 2e25 a3ba c903 b8bb d0b0 0d3e
000001a0: 9f84 aa35 e0f5 e8ba 02e6 d436 52de c436
000001b0: 7047 72ba 2f9e 81bc ced8 4839 8c7e 84bc
000001c0: 83ab 11bc a20a 9636 1a90 5abc abaf d2ba
000001d0: b01a bfbc 18e2 11ba 9505 0637 bb8c c13b
000001e0: 135c f5b6 cc40 2cbb f68a 44bc bb9d cbbc
000001f0: 1325 e9bc b119 55bc ed28 afbb d72a 99bc
00000200: d0d3 96bb f2e8 d53e 038b 8537 58d3 78b8
00000210: 6fa4 89bc c3d2 8eb9 98aa 13b9 5402 10bc
00000220: b929 23bc c103 b9bc b1c5 e5ba 12ca 4fbc
00000230: d953 82bb 0e21 57bc dced 8036 dbb2 e4bb
00000240: 633f 8037 7c09 8cbc a9cb 23bb 6e1a 9e36
00000250: 6e66 bcbc 1242 8036 9fc3 e436 40d5 6dbc
00000260: 76bd 7cb7 d584 bcbc db34 5abb e1ac 7bbb
00000270: a3ec 8336 d9e8 a4bc fde6 a3ba d298 8bbb
00000280: f7ba 2ebc c279 d0ba bdff 96bc 638a b7bc
00000290: 4e83 37bc c58a 9aba 5adb a7bc c1af 8136
000002a0: 3e25 8cbc 89d8 91ba 89da b0bc b373 923e
000002b0: b7c5 33bb 265a 31bb 2c88 df36 28ea bebb
000002c0: 43b6 383d 1ddb 8ebc f495 edba bca8 babc
000002d0: 605f 98bc b52f 86bb 8dfb 07bb e544 9936
000002e0: dae0 7e36 4616 4bbc 88e5 9539 7291 a136
000002f0: c5a0 1dba 01c8 0cba bd17 8836 dfd4 9336
00000300: e62c 89bb 3289 e1bc 24a2 7f36 8a88 d0bb
00000310: b835 7cba deee bdbc d03d 7f36 a65c 1cbb
00000320: 86cd 8236 7ff9 bbbc 80c3 cfbc 97de 97bb
00000330: 280c c136 992e 4cbc 175c da37 cc7b 0cba
00000340: a3cd 2eba a795 cdb9 b929 8236 c56c a93f
00000350: 7004 5cbb 5f2e bfbc 5885 dcba 53b7 82ba
00000360: a5f6 a5ba 82cb 8abb c85a 5cba 6688 74ba
00000370: d13d 67bc 0788 5f36 ba35 0fbc 928e 7f36
00000380: 4e46 7c36 75a2 acbb 2a09 7e36 c030 0dbd
00000390: 5e7e 543e 907a 1ebc 67b1 c8bb 7c90 8036
000003a0: 39cf 34bc 5489 03bd b316 82bb bda7 b5bc
000003b0: a538 24bc 5860 bdb9 97ab 84bc 60ff 8abc
000003c0: 5d59 e6bb a6d0 65bc 5e15 0438 2709 c6bc
000003d0: 0612 0cbb a88d aa36 99f0 8a36 2e45 94bc
000003e0: 3426 b636 b25f 96bc 6b59 973e 068c ceb8
000003f0: 24d1 13ba 1c89 7d36 f7bd 10bc 341f 1db5
0.08504099 -0.02720112 5.685173e-06 -0.0238791 -0.0026003367 3.862692e-06 -0.022221878 -0.0028347892
-0.004758044 -0.003806245 -0.0085999835 -0.027561983 -0.013121985 2.3842565e-05 5.134141e-06 6.322022e-06
-0.00040980725 0.32973042 5.686967e-06 -0.015197602 6.295517e-06 0.2935836 -0.0033719656 -0.022275988
-3.0145615e-05 -0.01066688 6.1023993e-06 -0.01623996 5.587468e-06 -0.0029061153 -0.00032520597 3.9643346e-06
-0.011708113 -6.520026e-06 0.08341473 -0.0060591176 -4.7468533e-05 -0.010022023 6.149458e-06 -0.0014218091
3.2057142e-06 7.841255e-06 -0.017591247 0.04313557 -0.002400688 5.1074358e-06 0.6409734 -0.02590748
-5.0264473e-05 -0.00046929065 -0.013932169 0.0015401167 -2.2077788e-06 5.2822174e-06 -3.0825664e-05 0.011188608
4.387108e-06 -0.010660118 -0.0064565167 -0.03483658 -0.000791375 -0.00017424091 0.20843628 0.1868318
-0.01314683 -0.006149579 3.7633315e-06 5.3767266e-08 -0.019124705 -0.002842291 2.5333673e-05 -7.2496616e-05
-2.7875592e-06 -0.01688466 5.314156e-06 0.06878147 -4.1265876e-06 -4.2993383e-06 -0.0032329352 -0.014211618
-0.006572057 -0.015088378 9.155237e-06 1.0131333e-05 -0.0013365456 -0.003984464 -0.017999604 -0.017417915
2.6997472e-05 -0.00051337597 -0.025611045 -0.009741295 -0.008134932 -0.005761927 0.15433268 4.326642e-06
-5.9819507e-05 -0.005837137 3.516671e-06 -0.026547913 3.4294796e-06 -0.0012446993 -0.0056156856 0.1383698
1.2704585e-06 -0.0017773472 6.344869e-06 5.8671367e-06 -0.00092422124 -0.015822498 0.00019154252 -0.016173624
-0.008890989 4.471586e-06 -0.013340021 -0.0016074082 -0.023328155 -0.00055650016 7.988322e-06 0.005906669
-7.312288e-06 -0.002628374 -0.0119960215 -0.024855485 -0.028460061 -0.013006614 -0.005345455 -0.018697185
-0.0046028867 0.41779286 1.5919568e-05 -5.9324637e-05 -0.01680204 -0.0002724138 -0.00014082564 -0.008789618
-0.009958678 -0.022584798 -0.001753023 -0.012682455 -0.0039772806 -0.013130439 3.8423877e-06 -0.006979329
1.5288306e-05 -0.017094366 -0.0024993217 4.7118438e-06 -0.022998061 3.822389e-06 6.817703e-06 -0.014516175
-1.5064483e-05 -0.023012558 -0.0033295664 -0.0038402604 3.9316524e-06 -0.020130562 -0.0012504753 -0.004260161
-0.010664693 -0.0015905427 -0.018432492 -0.022404855 -0.011200739 -0.0011790624 -0.020490337 3.86496e-06
-0.017107602 -0.0011127155 -0.02158858 0.28603896 -0.002743108 -0.002706179 6.6617704e-06 -0.0058262534
0.045095693 -0.017438466 -0.0018126355 -0.022785537 -0.018600166 -0.0040950426 -0.0020749301 4.5677757e-06
3.797983e-06 -0.012395447 0.0002859051 4.815106e-06 -0.0006013031 -0.0005370379 4.0558793e-06 4.405723e-06
-0.0041862605 -0.02753124 3.809234e-06 -0.006363933 -0.0009621042 -0.02318519 3.803394e-06 -0.0023858934
3.898228e-06 -0.022946117 -0.025361776 -0.004634689 5.7532634e-06 -0.012462282 2.6030508e-05 -0.00053590233
-0.00066682155 -0.00039212147 3.879159e-06 1.3236319 -0.003357198 -0.023337541 -0.0016824408 -0.0009972848
-0.0012662007 -0.004235686 -0.00084058614 -0.0009328186 -0.014113859 3.3308768e-06 -0.008740837 3.8080948e-06
3.759185e-06 -0.00526839 3.7854284e-06 -0.03447032 0.2075133 -0.009672776 -0.0061246636 3.8315175e-06
-0.011035734 -0.03211339 -0.003969991 -0.02217471 -0.010023271 -0.0003612067 -0.016195102 -0.016967475
-0.007029696 -0.014026796 3.1491152e-05 -0.024174286 -0.0021373047 5.0828858e-06 4.1407297e-06 -0.018099394
5.42847e-06 -0.018356178 0.29560408 -9.848927e-05 -0.00056387694 3.7779746e-06 -0.008834354 -5.8532464e-07

weight f4 [96, 128, 2, 1]
00000000: f53c 3a3e 34aa 70bd 9079 35be 9bef 0fbe
00000010: 589b aabe d3e5 d0bd 9baf 09bc 8214 883d
00000020: d2df 42be 8e4e f73d b576 a7bd e60c ca3d
00000030: 1289 9bbe 770a ba3d 4229 a83d 8994 653c
00000040: 9d87 47be b0dc 6bbd 78bb e73d bb85 5abc
00000050: 4f36 06bf 8f68 0fbf dea1 9a3c 3e0c e6bd
00000060: 13ea cb3d 83ec c7bc dbda 4b3e 2b88 16be
00000070: ddef 4cbe 7a23 373e 727f 7ebe 7cd3 e03d
00000080: f556 ad3d 1ba7 ba3d 3846 c1be 3884 113e
00000090: dafe 98be c6d2 263e 44ce 273e 6da2 efbd
000000a0: 39b9 6fbe 0c42 84be 960d 0abe 2709 14bf
000000b0: 4f43 0bbe 6c0f 9d3e 864a 943b b490 f53c
000000c0: b544 693e aa68 043f 2fbf 683d 47da c13d
000000d0: 58c2 b9bd 4168 e6bd d2f6 1bbd 57ff c7bc
000000e0: fbcd 17be 18bc 41be 97cf 04bd aad9 81bd
000000f0: 12b7 7ebe 5d7f 9a3d 0e4a 72bd 3a3d a73b
00000100: 2686 afbc 325e 323d 80c3 9ebf da4e 8c3e
00000110: a534 cc3d cc87 e7be 26e0 633d 52c6 c8bc
00000120: f7f4 c8be a691 7c3e 9c36 c63c fcea 943b
00000130: 3c22 dbbd fdaa 143e 834c 0cbd efd7 4abe
00000140: 02a3 87be 7f7b bd3d 67df 973e f682 a2bf
00000150: 44ae 863d d3a0 4b3d 9a29 d83e c915 253e
00000160: 1113 2b3f 04d2 173f b495 b8bd 1099 80bf
00000170: 775b d2be c923 023e daad bd3c d6a9 963c
00000180: 92ae 623c d5f0 883d fcd3 083e 06b1 0bc0
00000190: c3ef d73d 6f4f a03e 92fa 0ebe 4809 e13c
000001a0: a26f 3dbe e6de 883e f665 0d3c 8d0d cd3c
000001b0: 8b7a 26bf c545 e0be 93ed 163e bfde bcbe
000001c0: d7f1 9cbe 4b26 c4bd 8ddc a83e c26d a1be
000001d0: c1d9 a73c bcfa 61bd f4ef 5a3b fe51 743e
000001e0: 96eb dd3c 2d45 143e 416c 423d bd12 c43c
000001f0: b65d d7be cea9 d23d 1880 c9bd 48cf 9cbe
00000200: 1bae 4d3e 1b40 eebc b556 0dbd d9fa c8bc
00000210: f71d 3ebe 8af1 4b3e 3bf8 59be 1a6b a43e
00000220: 92d5 b6be 1510 60bf e034 043e bad7 04bd
00000230: 51eb 03be c4b6 b4be 2a75 72be 8487 adbe
00000240: 9a89 94be 4aba 9a3e ac17 6bbb 7434 793d
00000250: 56bb 91be a87a 593e ac41 78be d16e 183e
00000260: d0f3 a1be 312b 973e 59ab 85be 2d83 833e
00000270: 5061 3c3d a6b3 aabd 90dd d9bd c5e7 8dbe
00000280: 0b6e a7bf ff9c 8cbf 2b5b 33be 5212 903e
00000290: de4b 523e 18e0 97bc 54f0 fe3c 399e e03d
000002a0: 56fa c23d 0fe0 ed3b 04c1 9cbd 5859 06bc
000002b0: c519 e1ba 0126 0e3e 508b 203e 9e64 86bd
000002c0: 3291 38bf 2a17 473f 4735 91bd 9eea 143d
000002d0: 6e08 acbe a860 28bf 00ec 38bd d3df 3b3d
000002e0: b97e 9b3d 049c c33c ae1a 763e 5333 c73d
000002f0: ec92 0bbf bf1d eebe 72ba acbc f140 efbe
00000300: 1c90 03be 0fe3 393e 377e dd3d 8bf0 49bb
00000310: c11e b2bd f2be 3b3e c151 bbbd fad3 c73c
00000320: 13b6 a0bf 76ca 9fbe 1a9f 5bbd 2bde d23c
00000330: 7ff1 b83c aa92 bb3d b01f e2bd ca7f e53d
00000340: b9bc 77be 279c 403e 795d 3a3e b4aa 5a3e
00000350: 39b8 74be b8fd 803d b2c4 5fbe 87ae 5d3e
00000360: cf84 003e a865 973b 4a8a f7be a18a 073e
00000370: d3be 33be 7a7a 8d3d d0d0 573d aab3 113d
00000380: 008b 9c3d 19fa 783d 4343 5ebe 3a89 023e
00000390: 4b46 bf3b 5b2c 9fbf 3d5d cdbd 30ce 7a3d
000003a0: f35f 3d3d f816 80bd 7298 1b3e 59dc 8fbe
000003b0: 8f08 07bf ac3f 9d3e a694 07be f920 3c3d
000003c0: 41fa 8dbe 0ce5 a63e e3c4 a73b 18e5 513d
000003d0: 2fb3 ad3e 640f 35bd 45b1 473d 5cbb 023f
000003e0: 7e5c 8ebd 8d6a e6bd 0bc1 c5be 5c92 aa3e
000003f0: 211c e539 4189 82bd 2b70 6b3e 028b cabe
0.18187316 -0.05875607 -0.17722154 -0.14056246 -0.33321643 -0.102000855 -0.008403684 0.066445366
-0.19030693 0.1207553 -0.081769384 0.098657414 -0.30378014 0.09084027 0.08210994 0.014012464
-0.19485326 -0.05758351 0.11315054 -0.013337548 -0.5242662 -0.5601892 0.018876012 -0.11232804
0.099567555 -0.02440477 0.19907705 -0.14700381 -0.20013376 0.17884627 -0.24853304 0.109778374
0.08463851 0.09113904 -0.37748885 0.14210594 -0.29881936 0.16291341 0.16387278 -0.11700902
-0.234105 -0.2583164 -0.13481745 -0.57826465 -0.13599895 0.30675828 0.0045254854 0.029976226
0.22780116 0.51722205 0.056822952 0.09465461 -0.09070271 -0.112503536 -0.038077183 -0.024413748
-0.14824669 -0.18919408 -0.032424536 -0.06340344 -0.24874523 0.07543824 -0.059152655 0.0051037343
-0.021426272 0.043546863 -1.2403412 0.2740391 0.09970979 -0.45220792 0.055633686 -0.024508629
-0.39249393 0.24664935 0.024195962 0.004544614 -0.10699889 0.14518352 -0.034252655 -0.19808935
-0.26491553 0.09252071 0.2966263 -1.2696216 0.06576207 0.04971392 0.4221924 0.16121592
0.6682597 0.59304833 -0.090129286 -1.0046711 -0.41085407 0.12708963 0.023154188 0.018391531
0.013835566 0.0668656 0.13362116 -2.1826797 0.10543778 0.31310603 -0.13962772 0.027470246
-0.18499616 0.26732558 0.008630266 0.025030876 -0.65030736 -0.4380323 0.14739065 -0.36888692
-0.3065326 -0.09577616 0.32980767 -0.3152905 0.020489575 -0.05517076 0.0033407183 0.23859403
0.027089875 0.14479513 0.04746652 0.023934716 -0.42063683 0.10286294 -0.09838885 -0.30626893
0.20085947 -0.029083302 -0.03450652 -0.024533676 -0.18566118 0.19916359 -0.21286099 0.32112962
-0.35709816 -0.8752454 0.12910795 -0.032432295 -0.12882735 -0.3529569 -0.23677507 -0.33892453
-0.29011232 0.30220252 -0.0035872264 0.06084104 -0.28463238 0.21238196 -0.24243802 0.14886023
-0.31631327 0.2952514 -0.2610729 0.25686017 0.045991242 -0.083350465 -0.10637963 -0.2771589
-1.3080457 -1.0985411 -0.17515247 0.28138977 0.20536754 -0.018539473 0.031120457 0.109676786
0.09520404 0.007259376 -0.07654002 -0.008200012 -0.0017173818 0.13881685 0.15678144 -0.0656216
-0.7209655 0.7776972 -0.0709024 0.03635656 -0.3360018 -0.65772486 -0.045146942 0.045867752
0.0759253 0.023878105 0.24033615 0.09726586 -0.5452106 -0.4650707 -0.021084998 -0.46729234
-0.12847942 0.18153022 0.10815089 -0.003081354 -0.08697272 0.18334559 -0.09146453 0.02439307
-1.2555565 -0.31209153 -0.053618528 0.025740704 0.022576092 0.09158833 -0.110412 0.112060145
-0.24193086 0.18809567 0.1819972 0.2135418 -0.238984 0.06298393 -0.21852377 0.21648608
0.12550662 0.0046202727 -0.48347694 0.13236476 -0.17553262 0.06908126 0.052689373 0.03557173
0.076437 0.060785387 -0.21705346 0.1274766 0.005837237 -1.2435411 -0.100275494 0.061231792
0.046234082 -0.06254381 0.15194872 -0.280978 -0.52747434 0.3071264 -0.13240299 0.045929883
-0.2772999 0.32596624 0.0051199063 0.05124387 0.3392577 -0.04420413 0.04875304 0.5106714
-0.06951235 -0.11250792 -0.38623843 0.33314788 0.0004369924 -0.06373835 0.22992007 -0.3955918
