models/encNet_6.py.pkl (torch_old, 924253 bytes, 30 tensors)

weight f4 [256, 1, 1, 1]
00000000: bac1 75bf a781 3a3b 101d 3bbf 6085 7f3f
00000010: b8e0 823f d8b8 0c3e c6c3 7d3e b2fb 7abc
00000020: a82e 123f ddd6 e9bc 4a53 8c3f 5a4b c8bb
00000030: 21c9 fdbe eb9d b2bc 22fc 0abd 846f 503f
00000040: 4d3b 18bf e167 e5be 92fc 76bf 1f38 373f
00000050: d3b0 823f 436f a63f 60be 4e3d fe44 03c0
00000060: 55c3 893f 7507 c7be dc88 ddbe 4696 a3be
00000070: 185f 20bf 7fe3 823e fb84 313f 865f 803d
00000080: 32e9 b13f 8381 9cbe 80b2 9ebf 599a 913f
00000090: 0882 7e3f 8a47 0fbf 37e7 6bbf fb07 ecbe
000000a0: f860 b3bb cd59 d1be 3513 65bf 087d 083f
000000b0: a34a 89bc 3b12 353f 0caf 9537 7e11 81bf
000000c0: 2f54 12c0 4630 1bbf 6687 31bf cedc 103f
000000d0: b0af 683f ffd5 143e fb40 4dbf c337 0ebb
000000e0: 7837 98be f1ef 913e 26d4 893a 7db3 7c3f
000000f0: 1f48 8f3f 04b7 113f 7977 2abf befe a23f
00000100: 2fc5 2ac0 9ce7 46bf 0510 053e 588f 9d3f
00000110: 6554 f9bf de7c 8a3f 10e7 cf3e e77d 7bbf
00000120: f7e3 99be 7016 87bf 96f7 8a3f da18 883e
00000130: 09ee 1abc f862 acbc cddb d4be 31b1 8e3f
00000140: 382c bcbf 374a 73bf 4595 56bc e301 bd3e
00000150: b489 503d 9ff2 53bf b2bd 393f 1dea 853e
00000160: fca4 a1bc 6d87 c9bb 7c2c 70be 72bd 42bf
00000170: ce7a eebb 3417 a1bb 2bbd c6be 064b bbbe
00000180: 00db 1a3e 84f7 90bf b633 edbe c61d 2abf
00000190: cf60 47bf 16f9 24bf 179c 09bf 217d 8fbc
000001a0: c9b3 333f 15ee 84bf ee94 7cbf 7c22 2dbe
000001b0: ea05 b3bd 1b33 0ac0 fd57 043f e7a1 3ebf
000001c0: 20c5 01bf 1816 68bf 760a 3a3f e0d8 6fbc
000001d0: e888 30bf bb7d bcbb adf4 553f adcd 0a3f
000001e0: c4db 36be 1cb1 00bc c872 7e3f b6c7 993f
000001f0: f004 74be f91b 8abf a151 20bf 6c7a 31bf
00000200: 89c0 a7bc 1be1 753f 45cb 2fbf 2628 a4bf
00000210: dc16 4bbf 0c54 d6bb 78c7 a0bf dfab 38bf
00000220: 3bd8 01bd 7156 8fbd 792e 8b3f 5a4a 87bc
00000230: 00a8 cb3d 69db 0ebf bc37 293f ad22 19bd
00000240: dc67 583f 59a2 d33e 8b66 cdbe 2cc5 a13f
00000250: 62be a3bc be75 ecbb aa7b f93e 66b6 9a3f
00000260: 7875 433e f3c2 c23e 9667 9bbc 967b 21be
00000270: 1e7d 8e3f 563f 95bb 8762 44bd d021 f53e
00000280: a034 2dbf b5ad a1bf e848 08bc 9034 5abe
00000290: 1d54 56bf 3ba4 31bf 7f74 3cbf 81d8 663f
000002a0: f467 0dbd 9398 0abf 23af c2bc e0bf a1be
000002b0: 4904 51bf eb4e 133e 7b9d 363f 02fd 62be
000002c0: 3a09 fa3d f40d 69bc 7ef1 24bf 8d1a aa3f
000002d0: b50e 2a3e 9a86 683e b6eb cebc 03d7 c6bf
000002e0: 7d0c e73e 93de 173f 54a2 1cc0 f688 c5bf
000002f0: 9c2a 37bc 4a49 05bf e5ec 43bd 839d a1be
00000300: 0c95 8dbf df80 10bc 6688 b43e ea58 97be
00000310: 2a99 0ebf 9099 4cbe 9895 203f 86e0 ab3f
00000320: 5472 883f 4a9c dd3d 9178 003f 623d c6be
00000330: 3e8b 41bf d1a5 66be b855 0cbf 18ec 6b3f
00000340: bd71 a5bf c891 593e 6c74 8b3d f4fc a63f
00000350: 18a3 2b3e 4de8 afbf b463 20bf 0297 853f
00000360: 675d de3e c720 563f 1f53 103f bf2e 1c3f
00000370: 6909 5bbe 4d18 893e 798b eb3d 1661 23bf
00000380: 364b cdbe 7d42 743f 698a 66bf 8447 60bf
00000390: 2fba 4dbb e9e2 573e 9051 983f 78e2 0cbf
000003a0: 3226 a23f 03da 14bf f582 c43e 1cbc 2fc0
000003b0: c04c 14bf 67be cb3e 525a 94bf c020 363f
000003c0: 457b 0c3f aa09 6b3f a7cf 15bf 9be6 51bf
000003d0: 0dc4 a2be e56d 01bf 11e3 a33f 1748 1dbf
000003e0: b348 2ac0 c79f 52bf 6b30 9a3f 3a0d d4bd
000003f0: 9d73 d1be c4dd 903f 6ac3 02bf 2443 48bf
-0.9599873 0.0028458626 -0.7309122 0.9981289 1.0224829 0.13742387 0.24781713 -0.015318798
0.5710244 -0.028544838 1.0962918 -0.006112498 -0.49567512 -0.021803817 -0.03393186 0.8142016
-0.59465486 -0.44805816 -0.9647914 0.7157001 1.0210212 1.3002704 0.050474524 -2.051086
1.0762736 -0.38872877 -0.43268478 -0.31950587 -0.626451 0.2556419 0.6934354 0.0626822
1.389929 -0.3056756 -1.2398224 1.1375228 0.9941716 -0.55968535 -0.9214968 -0.4609984
-0.005474206 -0.40888825 -0.8948243 0.5331578 -0.016759222 0.7073094 1.7843697e-05 -1.0083463
-2.2863882 -0.60620534 -0.69347227 0.5658692 0.9089308 0.14534758 -0.8017728 -0.0021700717
-0.2972982 0.28503373 0.0010515496 0.9871138 1.1193885 0.56919885 -0.6658855 1.2733991
-2.6682851 -0.7769716 0.12994392 1.230937 -1.947888 1.0819356 0.40605974 -0.98238987
-0.30056736 -1.0553722 1.0856807 0.2658146 -0.009456166 -0.021043286 -0.41573945 1.1147825
-1.4700994 -0.9503512 -0.013097112 0.36915502 0.050912574 -0.82792085 0.7255508 0.26155177
-0.019731991 -0.006150177 -0.2345447 -0.7607032 -0.007277823 -0.004916096 -0.388162 -0.36580676
0.15122604 -1.1325536 -0.46328515 -0.6645168 -0.77882093 -0.64442575 -0.537538 -0.01751572
0.70196205 -1.0385157 -0.9866475 -0.16907686 -0.087413624 -2.1593692 0.5169676 -0.74465793
-0.50691414 -0.9065871 0.7267221 -0.014639109 -0.689589 -0.005752293 0.8357647 0.54220086
-0.17857271 -0.007854726 0.9939389 1.2014072 -0.23830009 -1.0789787 -0.62624556 -0.69327426
-0.02047755 0.9604661 -0.6866954 -1.2824752 -0.79331756 -0.006540781 -1.2560873 -0.72137254
-0.031700354 -0.06998909 1.0873557 -0.016514946 0.09944153 -0.55803543 0.6610067 -0.037386585
0.84533477 0.413348 -0.40117297 1.2638297 -0.019988243 -0.0072161844 0.4872716 1.2086914
0.1908778 0.3803936 -0.018970292 -0.157698 1.1131933 -0.0045546694 -0.047945525 0.4787736
-0.67658424 -1.2631136 -0.008318163 -0.21309114 -0.83722097 -0.6939122 -0.7361526 0.9017411
-0.034522966 -0.5413906 -0.023765152 -0.31591702 -0.81647164 0.14385574 0.71334046 -0.22166827
0.12208791 -0.014224518 -0.6443099 1.3289353 0.16607173 0.22707596 -0.02525888 -1.5534366
0.45126715 0.59323996 -2.4474077 -1.5432422 -0.011179592 -0.52064955 -0.047833342 -0.31565484
-1.106111 -0.008819788 0.35260314 -0.29560024 -0.5570246 -0.19980454 0.6272826 1.3427894
1.065989 0.108208254 0.5018397 -0.38718706 -0.7560309 -0.22524191 -0.54818296 0.92157125
-1.2925335 0.21247017 0.06809315 1.3045945 0.16761434 -1.3742768 -0.62652135 1.0436709
0.43430635 0.83643764 0.5637683 0.6100883 -0.21390308 0.26776353 0.11501212 -0.63820016
-0.40096444 0.95413953 -0.9005495 -0.87609124 -0.0031391492 0.21082653 1.1899891 -0.55033064
1.2667906 -0.5814516 0.38381162 -2.7458563 -0.5792961 0.39793703 -1.1590064 0.7114372
0.54875594 0.9181162 -0.5851998 -0.819925 -0.317902 -0.5055831 1.280367 -0.61438125
-2.6606872 -0.8227505 1.2046026 -0.10354085 -0.40908518 1.1317677 -0.5107943 -0.7822745

bias f4 [256]
00000000: 5be7 2d3f 4ba7 f83d 64ec 01bf d5d2 af3e
00000010: 3617 f2be ef0a 2dbe 7ce8 80be 3f3b 33bc
00000020: 7595 533e 7eee 3bbc e857 45bf c6ba f0bb
00000030: 0ab4 ff3e b9b7 debb 5200 4eba b8dc 1a3f
00000040: e991 39bd 2f38 31bb 9d7c 96bb 0a1a 26bf
00000050: 424f c13d a3d3 7dbe 1064 85be fcda 6d3d
00000060: 19d1 53bf fb30 8dba 3000 df3e eb56 5cbb
00000070: 324e 59bd 789c 83be a14c d33e 9094 96bd
00000080: b100 a03c 2a30 9e3e ea78 123d c997 6c3d
00000090: 6191 42bf 3472 8ebb 8556 86be e04b 92bb
000000a0: c11f 47bb 4320 d33e bc58 7a3e 8cb4 fb3e
000000b0: 6fb0 5ebc aa09 3abf c6c1 46bc fa42 aebd
000000c0: 8b9c 7ebc b625 1c3f c44d 0fbe 5249 b73e
000000d0: be4a 9ebe 623c 2abe bad6 87bb d636 25bb
000000e0: 60f1 81ba be97 9bbe fefb 48bc a665 103e
000000f0: 607b 223c cb1b 04bf 51c8 7f3e 2ab4 5c3d
00000100: 6be5 403d cd8a 463f dfa1 26be d1f5 6b3d
00000110: 0738 85bb 4a01 923e be3f d7be 2534 d23e
00000120: 97e6 19bc 6f83 a1be 367b c73e 9c3e e23e
00000130: e75b 99bb 2dd0 d8ba 09f6 d63e 8bb0 14bf
00000140: d2ec e8bb d1c5 eb3e b2b9 8bbb 48d5 c4be
00000150: 4549 ecbe 1d14 543f 201a 3dbf d7a5 e43e
00000160: bd3b 63bb 5d16 ebbc 8df7 a7bc eec1 923e
00000170: ffce 87bc 3ede 7ebc ffa6 c0bc 0417 bfbb
00000180: 5685 1dbe b066 eebd c050 8f3e 1d4b 05be
00000190: 702b 833e dc1f c6be 30eb 82be b17c 37bb
000001a0: a3aa 3a3d cc8a ea3e 8320 c5bb 456e 08bf
000001b0: 7874 a7be 1c05 dabb fb70 23be 46b2 3e3f
000001c0: 7d2e acbc a312 97bd 01ca 28be 97ad 9abc
000001d0: 09d4 42bd d8d9 8bbc 0bc4 ed3e c8b4 0ebf
000001e0: a3c6 f7bb c3c3 83bc 43c2 8e3e 3803 4fbb
000001f0: 88e1 aabb 4224 ae3e 90ec 1f3f 7c1f aabd
00000200: 5652 4ebc 6bd6 2a3e a672 31bc a1b2 b9bd
00000210: 52ef 4a3f 707e 9fbb 4c72 373e dc04 a4be
00000220: 6156 903d 0044 c0bc f02b 603b 1db0 a0bb
00000230: 5410 91be 6bcb a4bc 7f26 093f 3e7a 63bc
00000240: a35f 64be 288d 013d c2fb b3bc b1ee 02bf
00000250: 13ee e5ba 675d 01bc 5674 e2be 004a 5d3d
00000260: a906 53bd 6084 c8be 293c cabb 8f6b edbe
00000270: b8e8 b4be e9d9 f4bb 354b babc 91a3 283e
00000280: dede 2d3f 2e68 aabb aff4 2abb dbc6 05bf
00000290: 5261 b23e 8db8 6cbd 5c20 83bd e3fc 793d
000002a0: 16bf 95bc 453f 0b3f 4460 63bc 939d f5bd
000002b0: c617 a63e 43c3 f03e 3de2 25be 3924 e6be
000002c0: 4bcd 753d 1484 c5bb c520 fabe 9ca4 603d
000002d0: 8752 35be 4705 6fbe cc27 3bbc 596a fabb
000002e0: 20c1 ecbe 5785 1e3d d988 a23d 7cd2 963c
000002f0: 8866 9fbb 1104 10bf 10de 6fbc 2b9c a03e
00000300: 64dd 003f 4287 0cbd cb0a da3d 96ba 3fba
00000310: b732 0f3f 0fa5 eabe 7676 df3e 26ff 1ebf
00000320: b5f2 d43e 9ec4 48be 7c27 a63e 9b91 c53e
00000330: f9fe b4bc e378 aeba 18eb 0c3f 8613 ccbd
00000340: aa0e bcbd 014f 1dbb 46ce 5a3e a4a5 6d3d
00000350: 50fd 3abe 1c3c 1cbc 3656 15bc 15e1 c2be
00000360: a41c e3be 2461 093f 0b82 003d 4a0b ff3d
00000370: 0ad5 80ba bba9 93be 79d8 463e da02 243f
00000380: c337 d4bb ce3d 513d c620 233f 00ae 9cbd
00000390: 00f1 70bb c7b0 5dbe 6e80 1ebe deb8 0d3f
000003a0: 45de 3fbf 8439 58be 0984 113f 5dc9 123d
000003b0: 913a ebba 25c7 f53d 2985 4dbd 7e00 4e3e
000003c0: 101b 183f f129 343e d474 163f 3c8b 84be
000003d0: 438c 19bc ca04 baba 435b 503d a322 03bb
000003e0: 9186 d8bb a084 2abf 954f 7c3d c495 1cbd
000003f0: 3447 d33e d9c5 05bf 8c5b 033f 4568 92be
0.67931145 0.121412836 -0.5075133 0.3434054 -0.47283334 -0.16898702 -0.25177372 -0.010939418
0.20662482 -0.011470435 -0.7708726 -0.007346484 0.49942046 -0.006796804 -0.0007858324 0.6049304
-0.045305166 -0.0027041545 -0.004592492 -0.6488348 0.09438945 -0.24787764 -0.26052904 0.058070168
-0.8274093 -0.0010772044 0.4355483 -0.0033621143 -0.05305309 -0.25705314 0.412694 -0.07352555
0.01953158 0.3089612 0.035759844 0.05776194 -0.7600308 -0.00434711 -0.26237884 -0.0044646114
-0.0030383917 0.4123555 0.24447912 0.49161184 -0.01359187 -0.72670996 -0.01213116 -0.085088685
-0.015540252 0.6099504 -0.13994509 0.35798126 -0.309164 -0.16624597 -0.0041454704 -0.0025209687
-0.0009913854 -0.30389208 -0.012267111 0.14101276 0.00991711 -0.5160491 0.24978758 0.053882755
0.04709379 0.77555543 -0.16272686 0.057607476 -0.004065517 0.28516608 -0.4204082 0.41055408
-0.009393356 -0.31545588 0.3896119 0.44188392 -0.004680145 -0.0016541533 0.41984585 -0.58081883
-0.0071083093 0.4604936 -0.00426408 -0.3844397 -0.4614965 0.8284319 -0.7386799 0.44657776
-0.0034673058 -0.028697187 -0.020503784 0.28663582 -0.016578196 -0.015555916 -0.02351713 -0.005831601
-0.15382895 -0.1164068 0.27991295 -0.13016935 0.25619078 -0.38696182 -0.2557006 -0.0027997906
0.045572888 0.4580902 -0.0060158386 -0.5329326 -0.32706046 -0.006653441 -0.15961067 0.74490774
-0.021018261 -0.073766015 -0.16483308 -0.018881602 -0.047565494 -0.01707165 0.4643863 -0.557446
-0.007561521 -0.016084557 0.27882585 -0.0031587612 -0.0052148737 0.34012038 0.6247034 -0.083067864
-0.012592873 0.16683356 -0.010830557 -0.09067274 0.79271424 -0.0048673674 0.17914695 -0.32034957
0.070477255 -0.023469925 0.0034205876 -0.004903807 -0.2833277 -0.020116528 0.53574365 -0.013884125
-0.22302108 0.031628758 -0.021970633 -0.51145464 -0.0017542265 -0.007895804 -0.44229382 0.05402565
-0.051520023 -0.39163494 -0.0061717224 -0.46371123 -0.353338 -0.007472266 -0.02274094 0.16468646
0.67918193 -0.0052004075 -0.0026085784 -0.52256554 0.34839875 -0.05779319 -0.064026564 0.061032187
-0.018279593 0.54393417 -0.013877932 -0.119929455 0.32440013 0.47023973 -0.16199584 -0.4494951
0.060010236 -0.006027708 -0.48853126 0.054844484 -0.17707263 -0.23341857 -0.0114230625 -0.007642072
-0.46241093 0.03870138 0.07936258 0.018410914 -0.0048645176 -0.56256205 -0.014640346 0.31369147
0.50337815 -0.03430868 0.1064659 -0.0007313875 0.5593676 -0.45829055 0.43645066 -0.62108076
0.4159142 -0.19606254 0.32452 0.3858765 -0.022094237 -0.0013311174 0.55046225 -0.09964661
-0.091824844 -0.0024003389 0.2136775 0.058019295 -0.18260694 -0.009535816 -0.009114793 -0.3806235
-0.4435779 0.5366385 0.03137402 0.12453325 -0.0009829116 -0.28840432 0.19418515 0.6406685
-0.006476374 0.051084332 0.63721883 -0.07650375 -0.003676474 -0.21649466 -0.1547868 0.5536021
-0.7494853 -0.2111569 0.56842095 0.035836566 -0.0017946531 0.120008744 -0.05017582 0.20117375
0.59416294 0.17594124 0.58772016 -0.25887477 -0.00937182 -0.0014192101 0.050868284 -0.0020009659
-0.0066078384 -0.6660862 0.061599333 -0.038228765 0.4126526 -0.52255017 0.51311564 -0.28595176

weight f4 [192, 256, 2, 1]
00000000: f497 38bc 6f4d a43d ae75 00be d70b 00be
00000010: b2bd 253e c744 ed3d fff3 65bd cff6 86bd
00000020: 2896 323d bbf1 473e 7f22 ed3d 3bc6 fa3d
00000030: 66e1 413d 13d0 523d bf80 453d 77c1 4e3d
00000040: f113 36bd 60d8 1bbd 95a4 1e3d e842 953d
00000050: 9939 4e3d de74 d7bd 3e6b ce3d c988 753d
00000060: 8d4a a23b 1e3f 823d db52 143c 1390 b33c
00000070: 6b33 29bc 67f3 ab3b 23d1 4ebd b1b1 96bc
00000080: 05cd e83d fa7f 613d 668b d7bc f0c4 aabc
00000090: c639 053c 460d 72bd d1c8 fc3d f589 e1bc
000000a0: 3918 41bc 98ec 1fbd 2216 8fbc 0245 703b
000000b0: 5621 7e3d 88da fe3d 9be2 2abe 697b 72bd
000000c0: 8c03 4d3d c121 7bbd 1ce3 efbc 5ce1 043d
000000d0: 708a 3d3d b5a2 583d 85cd 0c3d a273 39bc
000000e0: 999d 1d3d 6af8 b23d 65cf 983d c722 073e
000000f0: 8ef8 a0bd 2a38 cebd 5c03 e03d a94c 883d
00000100: c4bf 013d 385a a63c 2506 76bd c831 95bc
00000110: 4e1c 6cbc 1e80 ab3c b5cb 30ba d0cd 34bd
00000120: 56a9 ebbb 1999 e2bd 70dc c5bc 7040 59bc
00000130: 5cbb b43d 7a41 ef3d 72b2 dbbb 7c7b 08bc
00000140: 556f 8fbc 1a59 86bc 96b9 7abd 2ca3 253c
00000150: 9bb4 42bd a3b4 913d 3c2d 2ebc a23c a7bc
00000160: 88c0 6d3d 7152 4f3d 5925 0b3e 69af ec3d
00000170: 357b 7f3d 6b45 963d 6463 b23d 26a3 743d
00000180: f037 6cbc 6840 d6bb 08e4 83bc 4167 483c
00000190: 2ac0 aa3d 6527 ea3d d6c6 23bd 380d eebc
000001a0: 4747 a1bd f62c c23d 101b b73d 18d4 a63d
000001b0: da69 88bd 2e27 9bbd 3612 f1bb bd8a 3d3d
000001c0: 8e2e e6bd a1c9 49bc f216 ae3d 9c46 0d3e
000001d0: 4fc9 293d e66c 783c f720 43bd 96cd 54bd
000001e0: 7827 9e3d bb41 b63c da72 c03d dc78 a73c
000001f0: 796b 37bc a1cd be3c 27f2 debb 1098 00bd
00000200: ce73 4cbe 90f4 3dbe d40c 51bc 2f29 673d
00000210: 3ad3 cc3d be5f f83d 0f98 893c a797 08bd
00000220: c199 0ebe f1f5 c0bd 2512 f3bc 2f53 1abd
00000230: 90c0 d53d 24af b93d fbc4 dcbc f51b 803d
00000240: 07da cd3c 4a0d b33b d619 073e 725a bf3d
00000250: 59af 083c 88d0 5fbd 2286 8fbc 2658 a5bd
00000260: d54a 7abc e884 c8bb 063f b73d 1329 743d
00000270: 3832 a7ba 5492 fc3c 73da a93b cacb 173e
00000280: 23a7 ecbd 02ad 71bd 3aba 6bbc d3f7 7d3c
00000290: bbf5 56bd af5d c5bc 7992 783d 18b7 893d
000002a0: 794a af3d ee12 b43d 7ec9 da3c c554 10bb
000002b0: b9e5 da3d 224d e33d 572d cabd 04c4 6ebd
000002c0: e2d2 2ebd b504 6c3c b8f0 8e3c 4ae7 78bd
000002d0: 6415 8dbd bcae 9fbd 4a2b e5bc 4b60 3cba
000002e0: 75f2 823d bfee 4ebc 5063 e53c 593f f73c
000002f0: cea7 e83b cee9 fe3b 4791 17bd 7027 82bd
00000300: a500 043e 00f2 f43d be34 a23d 40de 873d
00000310: 4475 973a eb49 873c 3129 df3d 675c bc3d
00000320: 10d0 4cba a913 ee3c 32e9 b03d dcf9 d83d
00000330: 0cf1 113e 66cf 0f3e 379a 193d d8e6 683d
00000340: cb89 ffba 0772 6ebd c385 d0bc 2e3c 6a3d
00000350: ab1e 52bd 6924 99bd 0038 ba3d 29ec b13d
00000360: 4f08 bf3d 6b7e 063e 2048 8b3d 2e58 8e3c
00000370: b82f 15bd e1bf 203e fcc6 8cbc 5f62 1d3c
00000380: 2a28 a6bc b159 503d e6e7 c83d d7e9 5a3d
00000390: aa9a 0b3c f3ae 383d 2463 e13b 928a d13c
000003a0: a501 843c 2c5b d83c 7660 ed3d 3681 4a3d
000003b0: 93dc 9dbd 7284 18bd aaa5 e63d b9cf f93d
000003c0: 0eca 3fbc 6aba 9cbc 5d70 a03d 44e0 d13d
000003d0: 44f2 b4bc 440a 33bd 7222 a63d 55e5 cc3b
000003e0: 4db5 a1bd a3e1 12bd cb47 773d 49e2 923d
000003f0: bde0 5abd a5e5 6f3c a9d8 8d3d 9ba6 593d
-0.011266697 0.08022582 -0.12544891 -0.12504517 0.16185644 0.11585384 -0.056140896 -0.06590044
0.04360023 0.19525807 0.11578845 0.12244841 0.047334097 0.051467966 0.048218485 0.05047747
-0.04445261 -0.03804815 0.038731176 0.07288152 0.0503479 -0.105203375 0.100790486 0.0599449
0.004952735 0.06359695 0.009052957 0.021919286 -0.0103272 0.0052475217 -0.050492417 -0.018395277
0.11367229 0.05505369 -0.026311588 -0.02084586 0.00813145 -0.05909469 0.1234299 -0.027531603
-0.01178556 -0.039043993 -0.017466608 0.0036662226 0.06204351 0.12444025 -0.16688006 -0.059199724
0.05005221 -0.061311487 -0.029283099 0.032441482 0.046274602 0.052889545 0.034375686 -0.011319073
0.038480375 0.087387875 0.07461432 0.1319686 -0.07859908 -0.10069306 0.10938141 0.06655247
0.031677023 0.020306692 -0.060064454 -0.018212214 -0.014411045 0.020935114 -0.0006744222 -0.04414159
-0.0071918173 -0.11064357 -0.024152964 -0.013259992 0.088247985 0.116824105 -0.006704622 -0.008330222
-0.017509142 -0.016399909 -0.061212145 0.010109704 -0.04753552 0.07114532 -0.010630902 -0.020414654
0.05804494 0.05061573 0.13588466 0.11556894 0.06237336 0.07337459 0.087103635 0.059725903
-0.014417633 -0.0065384395 -0.016099945 0.012231649 0.08337434 0.11433295 -0.039984547 -0.029059038
-0.07874923 0.09481232 0.08940709 0.081459224 -0.066608146 -0.07575832 -0.0073569072 0.04627489
-0.11239348 -0.0123161385 0.0850047 0.13796467 0.04145175 0.015162682 -0.04763886 -0.051953875
0.07722372 0.02224814 0.09396906 0.020443372 -0.011195057 0.02329141 -0.006803769 -0.031395018
-0.19966051 -0.18550324 -0.012759406 0.05643576 0.10001226 0.121276364 0.01679614 -0.033347752
-0.1392584 -0.094219096 -0.029671738 -0.037676986 0.10437119 0.090666085 -0.026949396 0.062553324
0.025128378 0.0054642307 0.1319345 0.09343423 0.008342587 -0.05464223 -0.017520014 -0.080734536
-0.01527663 -0.0061193593 0.08947568 0.059609484 -0.0012756055 0.030831493 0.005183512 0.14823833
-0.11555316 -0.059002884 -0.014387662 0.01550098 -0.05248044 -0.024092523 0.060686562 0.067243755
0.085591264 0.08792673 0.026707407 -0.0022023183 0.10688347 0.11098696 -0.09871929 -0.058292404
-0.042681582 0.014405419 0.017448768 -0.06076745 -0.068888456 -0.07797 -0.027974743 -0.00071859796
0.06393901 -0.012630164 0.028001457 0.030181574 0.007100082 0.0077793365 -0.03700378 -0.06355178
0.12890871 0.1196022 0.07920216 0.06634188 0.0011555334 0.016514739 0.108965285 0.09197312
-0.0007812986 0.029062109 0.086382285 0.10594532 0.14252108 0.1404396 0.037500586 0.056860775
-0.0019496022 -0.058214214 -0.025454408 0.057186298 -0.05129878 -0.07477648 0.090927124 0.08687622
0.093277566 0.13134162 0.06800866 0.017376032 -0.03642246 0.15698196 -0.017184727 0.009605973
-0.020282824 0.050866786 0.09809856 0.053445663 0.0085207615 0.04508872 0.0068782736 0.02557877
0.016114065 0.026410662 0.11590664 0.04943963 -0.07708087 -0.037235685 0.11262067 0.12197823
-0.011705888 -0.019131858 0.078339316 0.102478534 -0.022088178 -0.043710962 0.08112039 0.0062529244
-0.078959085 -0.035859715 0.0603712 0.07172067 -0.053436983 0.014642154 0.0692609 0.053137403

bias f4 [192]
00000000: 90bf 81bc f177 81bc 84b3 09bd 8161 fcbd
00000010: 52dc 073c e6b6 5ebc eab3 e0bd 32c7 39bd
00000020: 0ba9 39bd e9f7 27bc b602 623c 9458 84bd
00000030: 120b 85be 6321 b1bb 400d 89bd df42 9aba
00000040: 957f 10be 00ff 09bd 0bb5 afbd 16b8 5abd
00000050: a95d a0be 4d1e 55bd 9b04 84bc 88ea 81bd
00000060: 7633 44bd 7b78 c5bd ec16 92bd 0f9a 06bd
00000070: cf93 4ebd de9f bd3c f57c 7abd 55b7 1a3e
00000080: 3cc4 38bd e10f 84bd 8185 34be 62dc 38bd
00000090: 2c6d 5bbb df68 08bb 28f6 b03a 7123 c1bc
000000a0: b32a 71be 710d a9bd 4114 3fbc afe8 11bc
000000b0: 88b7 dfbc 1ad8 88bc bb2e 78bd 6eb9 a7bc
000000c0: bf21 a8bd 3f6e c2bd b9dd 623d 39e6 01bc
000000d0: ccb8 96bd 9ef8 56be 193b 8e3d fa83 9abd
000000e0: f798 3abe 242f e6bc 8698 db3c f282 61bd
000000f0: d1c0 f6bc 03a1 13bd f213 ea3a 5e93 93bc
00000100: 8337 eebd fc0d 7c3c 4ec0 6dbe 9154 9bbc
00000110: 22c2 58be b108 0a3d d499 adbd 9b12 c53d
00000120: 3d3b 12bd 2914 77bd 366d a8bd d913 0bbd
00000130: 9244 61bd 924d 3fbd 43f9 f3bc 183f 9cbe
00000140: 0e2f b6bd c7d1 cabd a046 91bd 4e03 4b3c
00000150: 32fc 1fbd 1fc7 85be 0879 88bd 34c5 b9bc
00000160: e809 60bd acf5 0cbd 63d7 90bd abd8 fdbd
00000170: 49d6 b9bc 6ffe 51bd 7612 e6bb bf8e f53c
00000180: 7f66 89bd c47e f13d 9bbc daba 1897 44bd
00000190: 74b4 173c 7d82 6fbc 7a57 0dbd 3741 fbbd
000001a0: dfa0 80bd 7c08 adbd 66b4 31bc 198f 84bc
000001b0: e2b4 2bbe 323f 05be 9a35 a0bc 99f6 14bd
000001c0: 71b8 14bd 4749 79bd 5f91 d5bd 6a94 ccbd
000001d0: 5941 d2bb 026f 70bd c395 01be 030f 00bd
000001e0: e6af 46bd d78e 12bd 593c 61bd 5847 1a3c
000001f0: 3835 05be 3bf8 c2bd 0afa 9fbe 6b18 663c
00000200: 6859 00bd f4ea 47bc 1f6a 9e3c 754a 80bd
00000210: 4378 2e3b a0d8 d3bd df39 0abd 47f2 20bd
00000220: a56c 22bd bf3c 3ebd 25bd 84be 029e 8ebd
00000230: 6dd6 e9bb 60ce f7bd ebac 86bd 36d4 10be
00000240: 94f8 17bd 9ee7 8bbd 7281 2cbd 9444 fdbd
00000250: 8011 d6bc 4fdc 82be 42ed 0fbd 1d6a 24bd
00000260: 319d 533c 021d 6bbd b258 83bd f4a5 9cbc
00000270: bf96 cfbc 6e89 a9be f140 d5bd 2e11 c9bd
00000280: 5a06 853c bb2d 7abd 1ca0 92bd 6b0c 8a3b
00000290: 4174 db3c 414e a93b 6631 743c be57 8fbd
000002a0: 0a67 55bc 1d24 00bd c5cc 933c 9ed3 38bd
000002b0: 02f1 a8bd 87cc 61bd 6e93 babd 1784 88bd
000002c0: 3d38 92bd 4597 bfbd 6f11 c6bd e134 e2bc
000002d0: a829 86bd cb1c 0bbd f3ff f139 6778 b3bd
000002e0: 56b9 8bbd 0bd8 213d 5248 33bd bdb9 a2be
000002f0: f66e 7cbd 9ff8 c5bd 9563 97bd 50da 48bd
-0.015838414 -0.015804263 -0.033618465 -0.12323285 0.008292275 -0.013593411 -0.10971816 -0.045355983
-0.045327228 -0.0102519775 0.013794592 -0.064622074 -0.25985008 -0.0054055913 -0.0669198 -0.0011769197
-0.14111169 -0.033690453 -0.08579453 -0.053398214 -0.31321457 -0.05203085 -0.016115477 -0.063435614
-0.04790064 -0.096421205 -0.07133278 -0.032861765 -0.05043393 0.02314752 -0.061154325 0.15108998
-0.04510902 -0.06448341 -0.17629053 -0.04513205 -0.003348182 -0.0020814461 0.0013501095 -0.02357647
-0.23551445 -0.08254517 -0.011662544 -0.008905574 -0.027309194 -0.016704608 -0.06059144 -0.020474162
-0.082095616 -0.09493684 0.055387232 -0.0079284245 -0.07359466 -0.20993277 0.06944866 -0.07544704
-0.18222414 -0.02809865 0.026806127 -0.05505652 -0.030121239 -0.036042225 0.0017858727 -0.018014606
-0.11631682 0.0153841935 -0.2321789 -0.018961223 -0.21167806 0.033699695 -0.08476606 0.09622689
-0.035701025 -0.06032196 -0.08223955 -0.033954475 -0.054997034 -0.046704836 -0.029781943 -0.30516887
-0.08895694 -0.09903293 -0.07093549 0.012390925 -0.03905887 -0.2612848 -0.0666371 -0.022677042
-0.054696947 -0.03441398 -0.07072332 -0.12394842 -0.022685187 -0.051268037 -0.0070212437 0.029975293
-0.06709003 0.11791757 -0.0016688289 -0.047995657 0.009259332 -0.014618513 -0.034507252 -0.12268298
-0.06280684 -0.08448884 -0.010846233 -0.016181516 -0.1676822 -0.13012388 -0.01955681 -0.036367986
-0.03630871 -0.0608609 -0.10428118 -0.09989245 -0.0064164815 -0.058699615 -0.12654786 -0.031264316
-0.048507594 -0.035780754 -0.054989193 0.009416424 -0.13008583 -0.095200025 -0.31245452 0.014043908
-0.031335264 -0.012202013 0.019337712 -0.062642016 0.0026621975 -0.10344052 -0.033746596 -0.039293554
-0.039654393 -0.04644465 -0.25925556 -0.06963731 -0.0071361572 -0.1209991 -0.0657595 -0.14143452
-0.037102297 -0.06831287 -0.042115636 -0.12366596 -0.026131392 -0.25558707 -0.035138376 -0.04014026
0.012915895 -0.05740071 -0.06413402 -0.019122101 -0.025340436 -0.33112663 -0.10412777 -0.0981773
0.01623838 -0.06107877 -0.07159445 0.004212906 0.026788833 0.0051667993 0.014904356 -0.06999157
-0.013025055 -0.03128444 0.018041978 -0.04512369 -0.082490936 -0.055126693 -0.09110151 -0.06665819
-0.07139633 -0.09355024 -0.09671294 -0.027613105 -0.06550914 -0.033963006 0.000461578 -0.08763199
-0.068224594 0.039512675 -0.043770142 -0.31782332 -0.061629258 -0.09666561 -0.07392041 -0.049036324

weight f4 [128, 192, 1, 2]
00000000: 439f 00bd 7928 33bc 46f2 8abe 5cc6 ce3e
00000010: c5ef b3bd eb54 6f3c 23d9 d53e ccd8 00bf
00000020: b3d6 01be d8ef 4f3e 9d21 38bc 66b1 c73c
00000030: a0e3 97bd 7afb a0bd cc7c 54bd 3145 d6bc
00000040: d026 be3d a278 3ebe 2a28 6dbe 4dc6 9c3d
00000050: b92b 71bd 3158 0f3c 7804 c1bd 5dc2 1a3c
00000060: 0981 aabc 329f 87bd a902 76be 2462 eebb
00000070: 51cf e8bd 27dd d2bd 2b89 dcbd 4dcd a93b
00000080: ac9e 42bc 512d 8e3c 828b 7bbd 63f5 c73c
00000090: 3b35 f7bd fd96 7ebd a733 83bd a200 c7bc
000000a0: d9d2 e63d ebad 64bd 8490 b5bd 67fa 70bd
000000b0: a982 603b fe56 553d 8532 6dbe c195 1f3e
000000c0: 1e32 a0bd 2b40 453d d83c 6dbe 38ce fa3e
000000d0: df58 51bd a294 503d ce8a 21be 1592 ee3d
000000e0: 96bf 6ebe dc96 1c3c d45c abbb 3442 c93c
000000f0: 7d4d 37bc fdcf 083d f005 ad3e c3e2 b1be
00000100: 7f3b 93be 54cb 943e 090f 4abd 969a 28bd
00000110: abb7 ed3e 1ae9 0f3e 58e1 dfbd b39a 003e
00000120: da4d 0dbe c462 0d3e 8812 c5bd c9ce e5bc
00000130: ea0a c2bd 1836 3dbd c3d7 e7bd 476a 9e3d
00000140: 3d7e 013f e8d8 dfbe 68d2 68bc 0ba2 80bd
00000150: a731 07be 2189 11bd ec18 81bd daca 25bb
00000160: 5807 9bbd 3d08 9dbb c248 02be ffe9 153d
00000170: a0b6 133f 7ea0 0bbf 72d4 a3be 5adf 783e
00000180: 5282 f9bd 4248 443c aef0 bbbd 1f75 f33c
00000190: 76a3 683e ae1d 3ebe a0bb 48be fb3a a73e
000001a0: b7ed 8abe a096 693e e5c2 953e d2fb f5be
000001b0: 91a2 a23e c2fd 66be 222d 133e 26ee 81be
000001c0: 7d8a cf3e cba1 05bf 5ca3 afbd 3021 c63c
000001d0: 005a 453e 67f3 ffbd 5273 bb3c 62f3 923d
000001e0: f95d a8bd 4641 a7bc 6497 96bd 9a46 32bc
000001f0: 3d7c 093c 1c29 953b 36f8 08be d6e2 9d3b
00000200: e4a3 053f 0303 04bf 8f83 17be 41f1 043d
00000210: 828b 8abc bdb8 c2bc 5550 0bbe 366b c2bc
00000220: d854 f33e 040c e9be fb7d 023e a72a f3bd
00000230: 892c 103f 32ba 1abf 3e1e 703e 5a92 bbbe
00000240: 4ffa adbe 8f16 ac3e 30b9 e1bd 86f5 fcbc
00000250: f096 30bd d1d2 04bd 6d7b b63c b512 693c
00000260: 0bee 9bbe d819 b23e 726a 3f3a 4660 ec3d
00000270: 3af7 463e 488c cabd 37c1 793d 845f 823d
00000280: aeb4 83be 23ea 9d3e 6207 063e 4117 b7be
00000290: 6645 f6bd 86d5 373d 77ad 97bd cd43 3abd
000002a0: 7b62 9ebd 68bc 293c a8e5 42bd 9fa6 af3c
000002b0: ba6f 22be 22dc 7b3d b418 c0bd ef09 e83c
000002c0: 7cd7 f3bd 39ec 843e 89e6 23be 9f76 e33d
000002d0: 1cc7 9bbe 090e c03e 0922 553c 4026 973c
000002e0: adb5 b4bd 96b7 123a 0571 05be 19e2 1fbd
000002f0: e4e9 f6bd ee22 433b 96d6 9e3e d482 87be
00000300: fc50 083d 8f9e 80ba ecf5 403e be9a 31be
00000310: e755 8bbd df0a 61bd f3ff 6abd 7b02 973d
00000320: 565c 053b d718 a83d efb8 e6bd 22c5 cd3b
00000330: 3214 94bd dcbc ac3d aa53 9ebd 1049 49bd
00000340: 8365 c5bd 1811 48bd 7442 a0bd ea2b 91bd
00000350: d6df 62bd a08e afbc 2428 42be d73f cf3e
00000360: 5067 043f 97c0 dbbe 03e3 7ebd a15f c4bc
00000370: 2336 0fbe 3eed 6a3e 4c2e a23b 2d7d c73d
00000380: b4fd 18be 0e7b e0bd 8742 9cbd e4e7 03bd
00000390: e322 18be b29a c6bb 477a 4cbe 477f 503c
000003a0: 5c6d dcbd 4b1a a4bc 46ce 6fbe 16fe 823d
000003b0: 25dd 41bc 546f a63d 229b b43c 4dba 063d
000003c0: 01ab a9be 1deb 923e 1071 5dbc b78a 2abd
000003d0: 8c39 aabd 9e50 a33b 4a8f 91bc 858e 623c
000003e0: 6d54 d73d b773 85be 7f90 aebe 5189 da3e
000003f0: 45a4 f9bd 6ae4 89bd bf94 c5bd fe06 d7bd
-0.031401884 -0.010934942 -0.27137965 0.4038571 -0.08785967 0.014607648 0.41767225 -0.50330806
-0.12679558 0.20306337 -0.011238483 0.024376582 -0.07416463 -0.07860465 -0.051876828 -0.02615604
0.09284747 -0.18600705 -0.23159853 0.0765501 -0.058879588 0.008749054 -0.094246805 0.009445754
-0.020813482 -0.06622161 -0.24024452 -0.007274883 -0.113676675 -0.10296088 -0.1076835 0.0051819445
-0.011878651 0.017355593 -0.061412342 0.024409002 -0.120707 -0.062155712 -0.06406336 -0.024292294
0.11270685 -0.055829924 -0.08865455 -0.058832552 0.0034257567 0.052084915 -0.23163803 0.1558447
-0.07822059 0.0481569 -0.23167741 0.48985457 -0.051110145 0.050922997 -0.15775606 0.11648957
-0.23315272 0.009557452 -0.005229572 0.0245677 -0.011187908 0.033401478 0.33793592 -0.34743318
-0.2875633 0.29061377 -0.049330745 -0.04116305 0.4642919 0.14053765 -0.10931653 0.12559013
-0.1379923 0.13807207 -0.09622675 -0.028052704 -0.09474738 -0.046194166 -0.1132045 0.077351145
0.5058325 -0.43720174 -0.014210321 -0.06280907 -0.13202535 -0.035531167 -0.063035816 -0.002529791
-0.0756976 -0.004792242 -0.12723067 0.03660011 0.5770054 -0.54541767 -0.3199802 0.24303952
-0.1218306 0.011980118 -0.091767654 0.029718934 0.22718605 -0.1856601 -0.19602823 0.32662186
-0.27134487 0.22811365 0.29250255 -0.48043686 0.31764653 -0.22557738 0.14372686 -0.25377005
0.40535346 -0.522 -0.0857608 0.024185747 0.19272614 -0.12497597 0.022882137 0.07175328
-0.08221049 -0.020416867 -0.07353094 -0.010881091 0.008391437 0.0045520198 -0.13375935 0.0048183007
0.522032 -0.51567096 -0.1479628 0.03245664 -0.016912226 -0.02376973 -0.13604863 -0.023732763
0.47525668 -0.4551698 0.1274337 -0.1187337 0.56317955 -0.6044036 0.23449036 -0.36635095
-0.33980033 0.3361096 -0.1102165 -0.030878793 -0.043112695 -0.032427613 0.02227565 0.0142256515
-0.3045505 0.34785342 0.00073019334 0.115418 0.19430247 -0.09890038 0.06097528 0.063658744
-0.25723785 0.30842695 0.13088754 -0.3575993 -0.120249555 0.044881366 -0.07406133 -0.045474816
-0.077336274 0.010359861 -0.0475823 0.021441756 -0.15862933 0.061489232 -0.09379712 0.02832505
-0.11906335 0.25961474 -0.16005911 0.111066096 -0.30425346 0.37510708 0.013008603 0.018450856
-0.088237144 0.00055968144 -0.13031395 -0.039033983 -0.1205633 0.0029775458 0.3102309 -0.26467
0.033280358 -0.0009812879 0.18843812 -0.17344186 -0.06803494 -0.054942008 -0.057373 0.0737352
0.0020349226 0.08207863 -0.11265742 0.0062796036 -0.072304145 0.084344596 -0.077308014 -0.049141943
-0.096385024 -0.048844427 -0.07825175 -0.07088454 -0.055389248 -0.021430314 -0.18960625 0.40478393
0.5172014 -0.42920372 -0.062228214 -0.02397138 -0.13985495 0.22942063 0.0049493667 0.09740672
-0.1494053 -0.10960971 -0.076298766 -0.03220357 -0.14857058 -0.0060609216 -0.1996852 0.012725658
-0.10763046 -0.020032069 -0.23418531 0.06396119 -0.01183251 0.08126703 0.02204663 0.032892514
-0.33138278 0.28695002 -0.013515726 -0.041636195 -0.083117574 0.0049839756 -0.01776852 0.013827925
0.1051415 -0.26064846 -0.34094617 0.4268289 -0.12189535 -0.0673302 -0.09647512 -0.104993805

bias f4 [128]
00000000: dfba 943d 20f6 2bbf e8f5 ccbd 4df8 80be
00000010: 1f25 8a3e 7373 bfbe 7a8b f93c c1d7 c73e
00000020: 24fd 7b3d 8ed1 183f f7ac 233f efc2 64bf
00000030: f4aa 393e ec47 00bd eea7 bdbe 07dc 3abe
00000040: 28ac a8be 8d5f c2be af83 cebe af94 a03d
00000050: ff5b 8ebe 6247 11be 573c 983d bf32 bcbd
00000060: 5493 793f 1385 aabd f89f 48be c83c f93e
00000070: 69fe a9bd 2de1 a73c 6498 b93c 609d ebbe
00000080: ec17 d63d dfe6 78be 47ca 20bf d7d0 38bd
00000090: 390e c1bd b5ce a33d 33e6 18bf 4984 88be
000000a0: 5eac ac3d 5130 0ebe 3eee c53d 8a60 44bf
000000b0: 6706 83be 9751 9abe 3045 573c 547a cdbe
000000c0: 6367 86be 8e47 1bbf ee93 8b3c ca75 84bd
000000d0: 1179 e7be c9cb 523f df35 c03e 42d2 1fbf
000000e0: dd16 8fbe 67c9 d53b 0118 2fbf 7e0f fabe
000000f0: deee 19bf f344 d5be 96b3 d7be 89ad 1ebf
00000100: 1ac6 a93f ace3 e13d 2d29 56be 3105 54bf
00000110: 777b b53d b8d3 b7be 605e a43d 46dc 21bf
00000120: e193 c4bd 6458 b7be a0f9 80be d1b8 89be
00000130: b734 9abd dbf2 c23d 1749 65be 4017 d0be
00000140: 9222 10bf 7b37 e6be f500 14bf 0865 0ebf
00000150: a96c f8bd bef4 acbe c5e7 b53f 7ff1 e9be
00000160: 7939 40be f6ae fc3e 23e2 44be 6b69 c6be
00000170: 956e 60be c823 9a3d cd86 143e 9855 07be
00000180: 03b8 043e d169 c4be 3666 3ebe ee53 75bf
00000190: bc84 0abe aed7 c03d 5c0c 943f 5bf7 153e
000001a0: 3912 05bf e3dd e5be 6e5a 7a3c 00c2 06bf
000001b0: 5a43 0b3d 0a67 213e bce2 1dbf 647f 21be
000001c0: 42ab 32bf c33e 07bf 1423 403d 3d20 f43d
000001d0: 1be4 efbe d373 21bf 9b6a 253f e834 0ebf
000001e0: bf3a 7bbe 34e4 dabe f811 223e 10e5 b6be
000001f0: 401a cb3d 79ed 0ebe 946d 15be 6892 01bf
0.07262205 -0.6717243 -0.100078404 -0.25189438 0.26981446 -0.37392768 0.030462015 0.39031795
0.06152071 0.59694755 0.639358 -0.89359945 0.1813162 -0.03131859 -0.37042183 -0.18247996
-0.32943845 -0.37963524 -0.40334842 0.07840859 -0.27804562 -0.14187387 0.07433384 -0.091893665
0.9749043 -0.08326163 -0.19592273 0.48679185 -0.08300478 0.020493114 0.022655673 -0.46018505
0.104537815 -0.2430682 -0.6280865 -0.04512104 -0.09426541 0.079984106 -0.59726256 -0.26663426
0.08431314 -0.13885619 0.09664582 -0.76709807 -0.25590822 -0.30140373 0.013139054 -0.4013239
-0.26250753 -0.6065606 0.017038312 -0.06467779 -0.45209554 0.823422 0.375411 -0.624302
-0.2794713 0.006524253 -0.68396 -0.48839945 -0.6013011 -0.41654167 -0.421292 -0.61983544
1.3263581 0.11029753 -0.20914145 -0.8282042 0.0886144 -0.35903716 0.08025813 -0.63226736
-0.09598518 -0.35809624 -0.2519045 -0.26898816 -0.07529586 0.09518977 -0.22391163 -0.40642738
-0.5630275 -0.44964203 -0.5781396 -0.5562291 -0.121301 -0.33780473 1.4211355 -0.4569206
-0.18771924 0.49352235 -0.1922689 -0.38752303 -0.21917184 0.07526356 0.14504547 -0.13216245
0.1296082 -0.38361982 -0.18593678 -0.9583119 -0.13527197 0.09416138 1.1566272 0.1464514
-0.5198093 -0.4489585 0.015280349 -0.5263977 0.03399978 0.15761963 -0.61674094 -0.15771252
-0.6979257 -0.5283014 0.046908453 0.119202115 -0.46853718 -0.6306736 0.6461579 -0.5554948
-0.24534129 -0.4275223 0.15827167 -0.35721636 0.09917116 -0.13957776 -0.14592582 -0.50614023

beta f4 [128]
00000000: f7ff 1540 eea1 993f 6268 bc3f c227 953f
00000010: 4169 1340 91d2 0340 d6f8 d83f 0713 bd3f
00000020: 5c20 f73f 2efd 593f c172 8a3f 9eac a03f
00000030: 0804 b43f bfa6 0140 5587 f93f e925 1540
00000040: 0d84 d63f 0e83 a83f ea4d 8b3f e897 953f
00000050: 37fc 0940 fdaf 933f f047 963f 46f9 ca3f
00000060: 96ab b83f 2612 0840 0d5e b23f 8e18 cb3e
00000070: 71df d73f 6bbe 913f e07f 3a3f 540e d43f
00000080: 22d7 ab3f 3852 923f 6cb4 1340 f67f 8d3f
00000090: fb7e c63f 23c0 e93f 3d21 d13f 41f3 db3f
000000a0: dde1 b93f 672e aa3f 6225 ac3f 423e 9b3f
000000b0: ab44 2240 7ade 0140 9cf5 6f40 f28e 963f
000000c0: 5099 973f 3dee 1140 bad9 993f 89ec 913f
000000d0: d5bd 5f40 768f 183f 7b6f 4c3f ebc0 1440
000000e0: f496 a13f f396 9d3f 29ec 4b3f a1f1 983f
000000f0: d135 c53f ab78 0a40 f83e 2e40 4552 443f
00000100: c22e 7b3f 1e59 0040 0fb6 0740 7560 ce3f
00000110: 6c94 c63f a2bc ac3f 5f7d dd3f 5f03 3940
00000120: da0b cc3f e360 763f 2fde 2240 2fc4 b33f
00000130: fcce 773f 10f4 b83f 3def 4d3f e625 c43f
00000140: bf2e 1340 558b 873f 6460 5d40 768f fc3f
00000150: 70b8 a43f 123b a03f 2ced 813f 5dd3 ca3f
00000160: d9b7 fd3f 1157 a73f 783d 243f ef98 1d40
00000170: 08d1 2640 4c82 623e 28a6 eb3f fb3b 923f
00000180: f34a d13f 318e cf3f 2a54 f73f 7efb 1b3f
00000190: 0ef6 933f 3eac a33f 5c64 923f c6ed 913f
000001a0: 6e79 b03f 37b9 1140 9024 e33f 28cc 3f40
000001b0: a201 b03f 7ffd bb3f 381a e13f 4dc5 e43f
000001c0: 2691 c93f 8e0b 2840 139a c33f ebb9 e83f
000001d0: 4234 1140 13ce 9e3f 4e61 6c3f f509 ab3f
000001e0: 3192 8e3f e629 1f40 6e05 8d3f c8e2 cd3f
000001f0: 25dd bc3f f324 783f 8ae6 d03f 8776 3140
2.3437479 1.2002542 1.4719355 1.1652758 2.3032992 2.059727 1.6950939 1.4771432
1.930675 0.85151947 1.081627 1.2552679 1.406373 2.0258024 1.9494425 2.3304389
1.6759049 1.3164995 1.0883152 1.1686983 2.156019 1.1538082 1.1740704 1.5857322
1.4427364 2.1261077 1.3934952 0.3966717 1.6865064 1.1386236 0.7285137 1.6566873
1.3425028 1.1431341 2.307887 1.1054676 1.5507501 1.826176 1.6338269 1.718361
1.4522053 1.3295411 1.3448908 1.2128375 2.5354412 2.029204 3.7493658 1.1762373
1.1843662 2.280166 1.201957 1.140031 3.4959614 0.59593904 0.79857606 2.3242748
1.2624192 1.2311691 0.79657227 1.1948739 1.5407048 2.163615 2.7225933 0.76688033
0.9811822 2.0054393 2.120487 1.6123186 1.5514045 1.3495066 1.7303885 2.8908308
1.5941117 0.9624159 2.544811 1.4044245 0.9680021 1.4449482 0.80443174 1.5324066
2.2997282 1.0589396 3.4590082 1.9731281 1.2868786 1.2518027 1.0150504 1.5845753
1.9821731 1.3073446 0.64156294 2.4624593 2.6065083 0.22120017 1.8410082 1.1424555
1.6350998 1.6215268 1.932256 0.6093062 1.1559465 1.2786939 1.1436877 1.1400688
1.3787057 2.2769296 1.7745533 2.9968357 1.3750498 1.4686736 1.7586126 1.7872711
1.5747421 2.6257052 1.5281395 1.8181738 2.2688146 1.2406639 0.92335975 1.3362414
1.1138364 2.4869323 1.1017282 1.6084833 1.4754988 0.9693138 1.6320355 2.7728593

gamma f4 [128, 128]
00000000: 3bf1 8b3d 1eb0 a3bc 96eb 2638 5616 7d3c
00000010: 4ff5 05bc 6326 84bb 5f0c 93bb ae35 75bb
00000020: d0d6 0740 2c8e 8dbb 5b9e 7fba 1230 293f
00000030: 1a0c bf36 fad0 66bc 65d1 fbba fbea 4cbc
00000040: f194 3d3f 1689 23bb a5fa 4137 c6eb 843f
00000050: 5d34 dd36 46d1 9639 331e e336 d52c c13f
00000060: 57be 07bd 3e00 8836 900f c3bb e187 7fb9
00000070: 8bec b336 67df 95bc d73f 6c3f 31a2 bd37
00000080: 44c9 c936 ef4a d336 7613 f3b9 5f2f 6f37
00000090: e3e3 aeb9 43f1 c63d 9036 11bb c1b9 d7ba
000000a0: b95c 0c37 d3be 24bc a3c5 0c37 34d9 c6bc
000000b0: bc5e b43e 2e62 d83e a180 fd3e 4ff1 5fbb
000000c0: 9633 9bbc 06d2 c036 aa0c 7238 eef8 2238
000000d0: 31d4 1c37 9692 a73d 861b e23f d43f f837
000000e0: 6a1d b7b8 22e8 10b6 10ac 2037 13b3 01bc
000000f0: 28eb 9bbc b49c e936 9e1e 0c37 eced bb37
00000100: cc08 13ba a038 303f 7e6a e7ba 1440 c937
00000110: 0591 1bbb ef3e c13a 9b54 d737 cfcc d1b9
00000120: a7e6 483f 9330 4a36 3b74 57bb 42be 4637
00000130: 495d 1437 4523 6437 b544 1437 8b76 9d3b
00000140: e3db 0a3f 305b bc3d a5ba 3d3e c3cd a2ba
00000150: 5ff4 4c38 c9d8 04bb c470 83bb 6507 dc38
00000160: de6b ce3e 1b5b 07bc 4a0b fb36 25fe cf37
00000170: b4ce 8bbb fa52 1437 5f39 3e37 5704 7738
00000180: 5d07 093f 9ec0 10bb a7f6 d5bc aaf4 553e
00000190: 906e e936 d859 bb36 c902 ae3d dfaf 7e36
000001a0: c390 c2bb 7979 af3e 539a 24bc 33c8 923e
000001b0: 0fb1 d836 06eb 5937 271f 013f 84e7 2e3f
000001c0: 0808 b93e eb9b 1c3e 38c6 bc38 0f47 00bb
000001d0: 6676 a3b9 bab3 abba 56ba 06bd 3895 25ba
000001e0: 7fd2 3837 1633 e438 4d63 acba 2421 1538
000001f0: 0b43 37b4 24c4 b136 0a04 e0b9 b99e 6d3d
00000200: 4e9e 0e39 c596 233f f684 92ba 971b 513e
00000210: 0831 1f3f 74bc ec3d e17a c63d 9fc1 39b9
00000220: 0264 9abb 9aa7 dc3e ea2a fe36 06f0 0c3b
00000230: 3c9b a6bc 8d51 cdbc e226 acbc 15d3 61bc
00000240: b9e1 113f 3ef0 0cb8 b1c9 203e 7eb2 a2bb
00000250: 34e6 3037 b7cc 4abb 9bb8 8f36 332c ee3e
00000260: 2343 9a36 4acd 3ebb 2904 33bc 8322 dcbb
00000270: ae1d fa3c 56fa c3bc 9f72 51bc fb1e cbbb
00000280: 41f8 063f 9422 8eb9 e497 193d 7a91 ddbc
00000290: 9f2a 54bc eb18 8936 8346 39bb 51fa aabc
000002a0: 5957 25b8 7eee 923f d8b7 9bbc 5e07 cfbc
000002b0: 8ae2 96ba 6301 1939 7798 25bb d1ab 3dbc
000002c0: a838 acbc a161 483e c2c6 98bb db8d 643d
000002d0: 93d9 dcbb 677e 9c36 43d5 d6bb c134 7f3d
000002e0: 58d3 b4bc be56 393a c126 403e 002c 15bc
000002f0: c5fc 95ba f23e b63d e7da be3e 63dd 92bc
00000300: 7351 a536 cc2e 163a 37c8 16ba 45f1 753e
00000310: d2ca 6abc 4070 023c 95d1 8abb 0d33 13bb
00000320: 934b a33d 8756 c3bc 095f 323e b07e 2ebb
00000330: 0b5f 9ebb fe73 44bc 9617 77bb 5428 413e
00000340: 51b9 95bc e878 e0bb 5394 80ba a43a 35bc
00000350: 9f56 bcbb 4fc8 bfbc 4f65 973e 51e4 9fbc
00000360: 04f0 a4bc 00aa 023f da0a 8239 6056 033e
00000370: 1e9d 3c3e 020f 81bc e3f9 4dbc a136 d2bc
00000380: 26fc 1bbc c325 41bb cf64 763f af51 ad39
00000390: 47be 493e a0e9 23bc 771c d536 806c 32bb
000003a0: 55a0 02bc ba09 75bb 96fd 2dbc 7081 8a3d
000003b0: 3c0c 69bc c311 0cbc cb71 6f3e b2ba 85bc
000003c0: cc76 63bc 8bcb e33e 9891 5fbc 8c58 d1bc
000003d0: 7a1d b0bc 4f35 78bc ef2e 043f 85c0 8cbb
000003e0: 4af9 f1bb 921d 9dbc 8922 13bc 8c24 1f3e
000003f0: 355e a5bc e244 e9bb 1a4b 8cbc 446a a13d
0.068331204 -0.01998144 3.979689e-05 0.01544722 -0.008176162 -0.0040328964 -0.0044875587 -0.0037416029
2.122486 -0.0043199267 -0.0009751075 0.66088974 5.6936524e-06 -0.01408791 -0.0019212185 -0.012507196
0.7405539 -0.0024953536 1.1562054e-05 1.0384452 6.592409e-06 0.0002876615 6.768643e-06 1.5091807
-0.033140507 4.053144e-06 -0.005952783 -0.00024369314 5.362153e-06 -0.018295003 0.9228491 2.2606082e-05
6.013697e-06 6.2970134e-06 -0.0004636307 1.42565395e-05 -0.00033357655 0.09713986 -0.0022157766 -0.0016458557
8.366239e-06 -0.010055262 8.390666e-06 -0.024273492 0.35228527 0.42262405 0.495122 -0.003417093
-0.018945497 5.746496e-06 5.770909e-05 3.8855644e-05 9.347729e-06 0.08182256 1.766465 2.9593626e-05
-8.731599e-05 -2.1592791e-06 9.576805e-06 -0.00791623 -0.01903303 6.9621838e-06 8.351779e-06 2.2402928e-05
-0.0005608916 0.688364 -0.0017655639 2.3990906e-05 -0.0023737561 0.0014743487 2.5669395e-05 -0.0004001618
0.7847695 3.012862e-06 -0.0032875675 1.18460175e-05 8.843207e-06 1.3598071e-05 8.8374845e-06 0.004805391
0.5424177 0.0919708 0.1852823 -0.0012420941 4.886498e-05 -0.0020270816 -0.0040112454 0.00010491795
0.4031667 -0.008261467 7.481697e-06 2.4794668e-05 -0.0042665843 8.840807e-06 1.133824e-05 5.889343e-05
0.5352686 -0.0022087465 -0.02611859 0.20894113 6.9568123e-06 5.5834935e-06 0.08496625 3.795132e-06
-0.005937667 0.34272364 -0.010046559 0.28668365 6.457914e-06 1.2988929e-05 0.5043816 0.68322015
0.3613894 0.15293853 9.00146e-05 -0.0019573604 -0.00031177996 -0.0013099827 -0.032892548 -0.0006316486
1.1016265e-05 0.00010881403 -0.0013152153 3.5555233e-05 -1.7067593e-07 5.297845e-06 -0.0004272762 0.058012698
0.00013601148 0.6390193 -0.0011178541 0.20420681 0.6218419 0.11559382 0.09691406 -0.00017715104
-0.004711629 0.4309662 7.5747857e-06 0.002150537 -0.020337693 -0.0250633 -0.021014635 -0.013783236
0.5698505 -3.3602344e-05 0.15701939 -0.0049651256 1.0544016e-05 -0.0030944773 4.283223e-06 0.46518096
4.5973734e-06 -0.002911406 -0.010926285 -0.0067179813 0.03053173 -0.02392308 -0.012783675 -0.0061987615
0.52722555 -0.00027110113 0.03749837 -0.027046908 -0.012949615 4.085819e-06 -0.0028270788 -0.020871313
-3.9420414e-05 1.1479032 -0.019008562 -0.025272068 -0.0011511606 0.00014591734 -0.0025267878 -0.011576609
-0.02102311 0.19568492 -0.0046623657 0.055799346 -0.006739804 4.6638775e-06 -0.0065561845 0.06230617
-0.022073433 0.00070701155 0.18764783 -0.009104729 -0.0011443129 0.088987246 0.37276384 -0.017927831
4.926865e-06 0.0005729019 -0.000575188 0.24017818 -0.014330583 0.007961333 -0.00423641 -0.0022460849
0.07973399 -0.02384497 0.17419066 -0.0026625805 -0.0048331073 -0.011990545 -0.0037703267 0.1886304
-0.018276842 -0.0068503506 -0.0009809829 -0.011061344 -0.0057476307 -0.023410944 0.2956948 -0.01951805
-0.02013398 0.5104065 0.00024803617 0.12825918 0.1841931 -0.015754227 -0.012571785 -0.025660815
-0.009520566 -0.002947197 0.9624757 0.0003305799 0.19701491 -0.010004431 6.3512084e-06 -0.0027225316
-0.007972796 -0.003738983 -0.010619542 0.067629695 -0.014224108 -0.008549157 0.23383252 -0.016324375
-0.013883304 0.44491228 -0.013645552 -0.025554918 -0.02149843 -0.0151494285 0.51634115 -0.004295411
-0.007384454 -0.01917914 -0.008980402 0.15541285 -0.020186523 -0.007118807 -0.017125655 0.07881597

weight f4 [96, 128, 2, 1]
00000000: 3f0a 4dbd a3c8 32be c532 5e3d 7c32 9cbc
00000010: 9ac1 05be 51c5 81be 4ca3 743d 009b b9be
00000020: 30a7 2bbe 5df9 6abe 92c3 c0be e9af b8be
00000030: 30ac 0fbd ea00 dd3e 44b7 5ebd 7527 56bc
00000040: 20f2 5b3e b634 d63e 8f7d 4bbe 0ca9 47be
00000050: 11b9 0fbd e13c 26be 409f 24be 2590 61bd
00000060: e2a5 6c3e 9420 a83d 8d03 84bc 8b62 0cbe
00000070: f24b 7abe 2763 2fbf ae7e 3cbd 872a 07be
00000080: 95d4 e23d a865 19be 2694 9e3d 333d 23bd
00000090: 81c7 33be 4300 91be f62f 623e e761 bc3e
000000a0: 7889 eebd beb0 a8be 173e 293d 9cce e1bc
000000b0: da54 333e ad68 413e eece 643e af15 233e
000000c0: e1b1 b5bd a8d9 b7bd 909e 1f3d ce1b 913d
000000d0: a29b b13c 88d9 2ebd b3e6 213d 032f 363d
000000e0: 7b76 3f3e a54b a43d b1c0 983e ed16 b9bd
000000f0: f6f4 b4be e55a 56bd 515e ad3d ee9e 2ebe
00000100: 3962 343e 7c31 223e 41a1 9e3e cb8b 113e
00000110: bfbf ecbd bee7 e6bc 2155 d03d 0bc5 283e
00000120: e83f 35bd 0cbb 6b3d 2e76 96bc 0c9d 94bc
00000130: c6a1 84be 11b0 0ebc 3b5d 0e3e 2b3f c23c
00000140: dc79 243e 1b35 463e 424c 87be 3dc7 a1be
00000150: e650 223e 310e ac3d f0ea a93d ab54 a63d
00000160: c400 8dbe d2c3 e33d b09c b93d d485 18be
00000170: ee6c 5c3e bff9 563e 33bc a83d 81cb 133d
00000180: 5905 f8bd 6b04 23be a368 b73b 54d0 eebd
00000190: b425 28bc 2faa 47bc 95c8 d03c f8b3 10bd
000001a0: 73e5 81bd 4290 683e 1354 903d 7e81 373a
000001b0: 8ddc a73c 17af b23d 99eb 0cbd f5fa 893e
000001c0: 0aff 48bd 28a9 7dbc a8e7 46bd 968c 99bd
000001d0: 3036 883d 7f11 d1bd bfe1 b7bc 28d4 a1bd
000001e0: 2de4 843e bbb3 dfbe 0381 ce3d 69c6 3e3e
000001f0: 1b91 a73c c9d3 a9bd 00c6 1e3e 8330 ecbd
00000200: 0e2c 58bc 91c5 553c f67f 23be 97d6 2b3b
00000210: 8939 06bf 7e38 7bbe b400 28bd e8ac a23e
00000220: ea8c 91bd 8821 02be db70 003f 601e e43e
00000230: 8ab6 b3bd f198 d83b b624 08be 4556 8d3e
00000240: 4398 123d 7996 053e 80fd 17be 0460 21be
00000250: dc20 0ebe 3d91 eebe d9e3 2c3d 2a61 0bbd
00000260: 21b2 423d de60 cebe 8303 e83d ebef 193e
00000270: 99fb a6be 23ce 05be d94f e0bd f617 f7bc
00000280: c9f9 d73e 5e03 aa3e af23 4abd 608f 87be
00000290: 5cd8 55be 9c9b 0b3f 2e9c 81be 6654 a5be
000002a0: 60ef 163d 0ae7 283e 7b53 663d 4dcb 16bd
000002b0: 7a6e a93d 7e8d 373d b42d b3be 9983 35bf
000002c0: fea0 87be 6961 4dbe 280e 17be 7e61 26be
000002d0: 3426 a53e fbeb ed3e 605b b9be 3d87 93be
000002e0: c9e2 8f3d 3078 0dbe 564a 0dbb 2e0c 0d3d
000002f0: e9fc 98be 2688 b3be 5e3b 153c bdca e4ba
00000300: 6d31 35be 519f d5bd db78 7e3d 347d 8a3e
00000310: 70aa f4bd 6e57 c7bd 9141 d33d 03b7 e8bd
00000320: 7851 223c 0257 fdbe bc01 a73d e304 cc3d
00000330: 264a 243e a852 c73d 56d2 103e abeb 5f3e
00000340: 1f6c 8b3d a5d3 e33d 5fb5 07bf 9c49 d3be
00000350: 09c6 8f3b 00f5 ff3d 6d80 02be 2aad 3fbf
00000360: de0f 6c3e 08db fb3d 4121 073e 2da6 bf3d
00000370: 505c 45be 722a 0dbe 8eed 06bf 28d0 44bf
00000380: f637 62be 88ad ebbe f231 453f e5b4 e33e
00000390: bd36 cebd 84dc 42bd cb68 9abd b1eb b5bd
000003a0: d147 f73e 9050 863e 9a67 babd 1da7 16be
000003b0: 76e3 843d bda5 ea3c 29bc 163d 92cc 32bc
000003c0: 45a2 12be c76f c2bb cdd7 16be 6f7a ab3e
000003d0: 16bf abbd 3dd4 58bd 3d7f 8ab9 dfe4 b1bc
000003e0: 668c 6f3c 6c2e 253e 0ba1 76be 8d86 69bc
000003f0: 5a0d e0bd 2cab 41be df90 cabd a399 4b3e
-0.0500586 -0.1745935 0.054247636 -0.019067042 -0.13062134 -0.25345853 0.059726045 -0.36251068
-0.16762996 -0.22946687 -0.37649208 -0.3607171 -0.03507632 0.4316476 -0.054373994 -0.013070931
0.21479082 0.4183709 -0.19872116 -0.1949808 -0.035088602 -0.16234161 -0.16076374 -0.055069108
0.23110154 0.08209339 -0.016114974 -0.13709466 -0.24443033 -0.6851067 -0.04601925 -0.13199817
0.11075703 -0.14980185 0.07743101 -0.039853286 -0.17556573 -0.28320512 0.22088608 0.36793444
-0.11647314 -0.32947344 0.04131898 -0.02756434 0.17512837 0.18887587 0.22344562 0.1592624
-0.08871818 -0.089770615 0.038969576 0.070853814 0.021680657 -0.042687923 0.039526653 0.044478428
0.1869754 0.080222405 0.29834512 -0.09037576 -0.3534314 -0.052332778 0.08465255 -0.17052814
0.17615594 0.1583919 0.30982402 0.14213483 -0.1156001 -0.028186675 0.10172487 0.16481416
-0.0442504 0.05755143 -0.0183669 -0.018141292 -0.25904673 -0.00870897 0.13902752 0.023711761
0.1606211 0.19356196 -0.26425368 -0.3159732 0.15851173 0.08401144 0.08296764 0.08121618
-0.27539647 0.11121334 0.09063089 -0.14894801 0.21525928 0.20993708 0.08239021 0.03608275
-0.12110395 -0.15919654 0.0055971905 -0.11660829 -0.010262895 -0.012186571 0.02548627 -0.03532788
-0.06342592 0.2271128 0.07047286 0.0007000192 0.020490909 0.08724802 -0.03440437 0.26949278
-0.04907135 -0.0154822245 -0.04856077 -0.07497518 0.066509604 -0.10208415 -0.022446511 -0.07901794
0.25955334 -0.4369181 0.10083201 0.18630375 0.020454934 -0.08292348 0.15505219 -0.115326904
-0.013194097 0.013047592 -0.15966782 0.0026220435 -0.5243154 -0.24533269 -0.041016296 0.31772542
-0.07106955 -0.12708104 0.50172204 0.44554424 -0.08775051 0.006610029 -0.13295254 0.2760488
0.03578974 0.13045682 -0.14842796 -0.15759283 -0.13879722 -0.46595183 0.04220948 -0.03402821
0.04753316 -0.4030828 0.11328795 0.15032928 -0.3261383 -0.13066916 -0.1095273 -0.030162793
0.42182758 0.33205694 -0.049350437 -0.26476574 -0.20883316 0.54534316 -0.25314468 -0.32290953
0.03684938 0.16494384 0.056231957 -0.036814976 0.08273025 0.04481267 -0.34995806 -0.7090393
-0.26490015 -0.2005669 -0.14751494 -0.16248128 0.3225571 0.464691 -0.36202526 -0.28814116
0.07025678 -0.13815379 -0.00215592 0.034435444 -0.29880455 -0.3506481 0.0091083925 -0.001745544
-0.17694636 -0.10430778 0.062126976 0.27048647 -0.11946571 -0.09733473 0.1031524 -0.11363032
0.009907119 -0.49480444 0.08154628 0.099618696 0.1604391 0.09732562 0.14142737 0.21867244
0.06807732 0.11124352 -0.53011125 -0.41267097 0.0043876213 0.12497902 -0.12744303 -0.748736
0.23052928 0.12297636 0.13196279 0.093578674 -0.19273496 -0.13785723 -0.5270623 -0.7688012
-0.2209166 -0.4603083 0.77029335 0.4447395 -0.10069034 -0.04757358 -0.07539519 -0.08882845
0.4829698 0.2623334 -0.09101792 -0.14712186 0.06488697 0.028643483 0.036800537 -0.010913031
-0.14319713 -0.005933735 -0.14730759 0.33491847 -0.08386056 -0.05293678 -0.0002641621 -0.02171558
0.014620876 0.1613099 -0.2408487 -0.014253271 -0.109400466 -0.18912953 -0.09890913 0.19882827
