models/encNet_7.py.pkl (torch_old, 991049 bytes, 32 tensors)

weight f4 [256, 1, 1, 1]
000000 ab 00 00 3e 32 4c c4 bb 99 2c 7a 3f ca 72 4c 3e
       0.12500255 -0.0059905285 0.977243 0.19965664
000010 06 bc a3 bc f0 05 ae be 4d 74 8a 3f 7c a2 9b 3f
       -0.019987117 -0.33988905 1.0816742 1.2158961
000020 7a f7 45 bf 04 0f 17 3f c9 03 60 bf 98 b1 ce 3e
       -0.77330744 0.5900729 -0.87505776 0.40369868
000030 36 11 4f 3b 6f 4b 8b bf cb ef ea 3d 4a fb a5 be
       0.0031595952 -1.0882396 0.11471518 -0.3241828
000040 be ba 63 3f 11 d7 81 3f 66 b4 8a 3f c4 c6 45 3f
       0.8895682 1.0143758 1.0836303 0.7725642
000050 e1 e9 3c bf 1b 8f 11 3f 5d 68 ef 3e b9 18 c5 3e
       -0.7379437 0.56858987 0.4675931 0.38495424
000060 bf 77 8e 3f 86 15 36 bf 4c 9f ef be 00 8f cd be
       1.1130294 -0.7112659 -0.4680122 -0.40148163
000070 02 a6 17 3f 5b 6a 2d 3f 79 3c ad 3e 5f df 26 bf
       0.5923768 0.6774041 0.338352 -0.6518459
000080 ac 41 4e 3f a7 71 3c 3f 77 a9 56 3f 98 e3 99 bd
       0.8056896 0.7361092 0.8385233 -0.07514113
000090 b7 0c 5b bf 55 db a2 bf 4c 8c bb bf 8d 50 86 be
       -0.85566276 -1.2723185 -1.465219 -0.2623333
0000a0 3c 7e b5 bd fc b8 99 3e 49 1f 95 bb 63 7e 15 c0
       -0.08861968 0.30023944 -0.0045508486 -2.335839
0000b0 2b e4 96 3e f8 8a 8f 3f cd 62 1c be d8 70 1e 3f
       0.29470953 1.1214285 -0.15272065 0.61890936
0000c0 cc f6 48 3f 8f e0 70 be 88 3b 32 be 4d 74 91 3f
       0.7850158 -0.23523162 -0.17405522 1.1363617
0000d0 31 60 8a 3f d3 82 83 be d3 12 98 3f 04 d0 a0 3f
       1.0810605 -0.25685748 1.1880745 1.2563481
0000e0 60 be 4e bf 91 6e 84 bf ad 43 69 bf dd 20 0b bd
       -0.8075924 -1.0346242 -0.9111889 -0.033966888
0000f0 f0 74 ab be 62 2a 8f 3f fb b8 d0 bd 61 c9 0f 3f
       -0.33487654 1.1184809 -0.10191532 0.56166655
000100 27 09 84 bf 73 a4 50 bf 4b ee 06 3f f4 57 04 3f
       -1.0315293 -0.8150093 0.52707356 0.51696706
000110 df 73 18 bf 20 9c ba bc 89 17 9a 3f be 8f 81 3f
       -0.59551805 -0.022779524 1.2038432 1.0121992
000120 25 03 5f 3f 6a be 1e 3f b1 01 da bd cb 88 a9 be
       0.87114173 0.620093 -0.10644854 -0.33112177
000130 5e 21 56 3f 85 e8 91 3e 33 ee d7 bc d1 33 52 3e
       0.83644664 0.2849771 -0.0263587 0.20527579
000140 b4 9e 6c bc 7f 0c f2 be 6b ad 1c bf 04 c2 37 be
       -0.014442135 -0.4727516 -0.61202115 -0.17945105
000150 8d f5 cf bc 68 40 e6 3a b2 00 f2 bc e9 25 b8 3e
       -0.025385642 0.0017566802 -0.029541347 0.35966423
000160 10 7e 60 bf 30 b2 7f 3f df 16 81 3f 38 13 ec 3d
       -0.87692356 0.9988127 1.0085105 0.11527103
000170 c5 f6 a3 bf 26 e9 4b be f4 bd 07 be 95 66 5c 3f
       -1.2809683 -0.19913158 -0.13256055 0.8609403
000180 32 80 02 bd 56 ab a8 bf 3c c6 8a bf 46 e0 40 3f
       -0.031860538 -1.3177288 -1.0841746 0.75342214
000190 60 d0 7e be c9 34 5d bf 5d e5 cb bb 6d a4 17 bf
       -0.24884176 -0.8640867 -0.0062224106 -0.5923527
0001a0 2a ef 7f 3f cb 72 1b bd 42 cc 3e bf 4e 2d d2 3e
       0.9997431 -0.037951272 -0.7453042 0.4105019
0001b0 31 95 9b 3f 84 44 8c 3f 8b 22 6d bf f1 9b 4e bf
       1.2154905 1.0958409 -0.92630833 -0.807067
0001c0 b0 2d a9 3f 7f 2d 8c bf 8f 0b 80 3f 30 f0 97 be
       1.3217068 -1.0951384 1.0003527 -0.29675436
0001d0 c0 a2 1d bd 32 34 60 be 3d 4c ea bc 39 da 4a bf
       -0.03848529 -0.21894911 -0.028600806 -0.7923923
0001e0 1e b3 be bd f8 62 88 bf ed 01 70 3e 70 f1 dd bf
       -0.09311508 -1.0655203 0.23438235 -1.7339306
0001f0 ec 82 16 bf 7f 8c 1a 3f f5 bb 83 be f8 7c 43 be
       -0.5879352 0.6037063 -0.25729337 -0.1909064
000200 f3 d5 e7 bc 0a 17 da 3d 99 8d ea bd 9b 5c dc 3e
       -0.028300261 0.106489256 -0.11452789 0.43039402
000210 09 43 3c bf b0 9b 85 bf ce ae 5b 3f 29 3b 65 bd
       -0.7353979 -1.0438137 0.85813606 -0.055964623
000220 b6 9a 28 3f 46 f0 86 bf c6 7c 6b be 26 d4 b7 bf
       0.6586107 -1.0542076 -0.22996816 -1.4361618
000230 5f 61 7f 3f 3d 5d 2e bf b8 e6 72 bf f2 b6 6d bd
       0.9975795 -0.6811102 -0.948833 -0.0580358
000240 26 ea 7a be 1b 30 b8 bc 98 af f0 be fd e2 5c 3f
       -0.24503383 -0.022483876 -0.47008967 0.86283857
000250 80 5d 66 be 69 7a de bb ce 5a 59 bf 2f f5 43 3f
       -0.22496605 -0.006789495 -0.8490418 0.76545995
000260 80 4f 61 3f 80 e0 d3 bd fc 15 be bc d2 9e b0 bd
       0.8801193 -0.10345554 -0.023203842 -0.086240426
000270 db 71 9d bf d1 71 f0 be 28 7b 94 be 8a a7 66 bf
       -1.2300371 -0.46961835 -0.2900021 -0.90099394
000280 12 03 dd 3d 80 d0 5f 3f 25 67 9f 3f 94 fe e5 bf
       0.10791601 0.8742752 1.2453352 -1.7968316
000290 98 ea ad bd b3 9a 2d bf da 9c 36 bf 6b e7 87 3f
       -0.08492011 -0.6781418 -0.71333086 1.0617498
0002a0 b4 ad 39 bf f5 f9 c1 be af ba 83 be 9a 62 90 3f
       -0.72530675 -0.37886015 -0.25728366 1.1280091
0002b0 44 39 2c bf 7e 34 92 3f a8 b3 ed bc d9 a1 ac ba
       -0.6727488 1.1422269 -0.02901633 -0.0013170793
0002c0 cc 93 5e be e0 6e e9 3d 8e 44 18 3f da 72 dd 3e
       -0.21736068 0.11398101 0.59479606 0.43251687
0002d0 28 65 4a bf 60 c6 21 be f3 8b 67 bd 3d 9b 41 3f
       -0.790606 -0.1579833 -0.05652995 0.756275
0002e0 bf 8d c7 bd a5 4b 9b 3f f1 14 0c bf 56 93 a3 3f
       -0.09743833 1.213246 -0.54719454 1.2779338
0002f0 e7 74 a9 bb 9a 66 ae 3e 7f 86 54 bf 8f 56 86 3f
       -0.0051714065 0.34062654 -0.83017725 1.0495166
000300 d5 33 6c 3f 3b 64 56 be bc 70 f7 3e a6 a5 7a 3f
       0.9226659 -0.20936672 0.48328197 0.9790901
000310 94 9f a1 3f 21 eb 52 bf 64 94 14 3f a0 d6 35 bf
       1.2626824 -0.8239003 0.58038926 -0.71030617
000320 9e 12 f7 be ac 23 35 3f 37 cc 2a bf b6 6f e5 bd
       -0.4825639 0.70757556 -0.6671786 -0.11202948
000330 18 cc a9 be e3 54 87 bf dc a5 db bf 09 71 69 3f
       -0.33163524 -1.057278 -1.7159991 0.911881
000340 83 8c 82 bf 15 29 26 3f 23 07 81 bd 93 12 19 c0
       -1.0199131 0.64906436 -0.06300189 -2.3917587
000350 e0 c0 9b 3f 5e 6c e6 be 15 53 68 3f 8b b4 30 bf
       1.2168236 -0.45004553 0.90751773 -0.69025487
000360 7a 4c 99 3f c5 8a 77 bf 1d a6 86 bf 9f 00 e8 be
       1.1976464 -0.9669612 -1.0519444 -0.45312974
000370 72 b1 5d bf cd 3d 6b bf f2 94 59 3f 22 ee 32 be
       -0.86598885 -0.91891176 0.849929 -0.17473653
000380 07 76 80 be 53 fb 1a c0 4f 28 22 be 6e 47 5e bf
       -0.25090048 -2.4215896 -0.15835689 -0.86827743
000390 56 42 a6 3f eb 90 60 be e6 5a 8f 3f 6e 7a 56 bf
       1.2988994 -0.21930282 1.1199615 -0.8378056
0003a0 fa dd ff 3d 71 8e eb 3e 01 99 12 bf 83 31 31 bf
       0.124935105 0.46007112 -0.57264715 -0.69216174
0003b0 d4 ae 89 bf ee b6 d7 3c 5e 5b 37 bc d3 db e8 be
       -1.0756478 0.026332345 -0.011191217 -0.45480213
0003c0 45 01 59 3c c4 cf 97 be 00 b6 6f bf e2 e7 27 bb
       0.013244932 -0.296507 -0.93637085 -0.002562039
0003d0 b3 30 a2 3e 23 c4 7f bc 95 f0 56 be 81 b8 60 3e
       0.3167778 -0.0156107275 -0.20990212 0.21945383
0003e0 7e 46 8b bd 3e 39 86 3f ba 99 e9 be 64 ce 94 be
       -0.06800555 1.0486219 -0.45625097 -0.29063714
0003f0 f3 5b 52 bd cd 92 05 bf 10 d3 76 be e6 d3 72 3f
       -0.05135722 -0.52177125 -0.24103951 0.9485458

bias f4 [256]
000000 18 47 2b be 13 1a 9c bc 34 a4 cd 3e e5 9e 7d be
       -0.16726339 -0.019055402 0.4016434 -0.24767645
000010 eb 82 84 bc 98 5d 0b bf 84 5b c7 bd cf 90 01 bc
       -0.016175708 -0.5443969 -0.09734252 -0.00790806
000020 a8 06 91 be 00 a7 2d 3d ef 7c 78 3e 80 3f 60 3e
       -0.2832539 0.04239559 0.24266408 0.21899223
000030 d2 3e 6a bc 74 01 0f be f6 a8 1b be f5 83 a5 3e
       -0.014297204 -0.13965398 -0.15201172 0.32327238
000040 19 ec 86 3e ef 66 4a bf 6b c3 bf be a8 40 1a bf
       0.26352003 -0.79063314 -0.3745378 -0.6025491
000050 63 75 de 3e 0c 16 0e 3f e4 a1 03 bf 03 a3 fc bd
       0.43448934 0.5550239 -0.514189 -0.123357795
000060 01 c1 a0 3b 36 6c 3c bb f2 97 f1 3e d7 73 19 bc
       0.0049058204 -0.0028751022 0.47186238 -0.009365997
000070 4f 09 11 bc 5d 66 e5 3e de c1 3f 3e e9 d6 93 3e
       -0.008852317 0.4480466 0.18726298 0.288749
000080 cb 9a 14 3e 43 d7 9e 3c 84 51 86 3e 46 3b f4 bc
       0.14512174 0.019389754 0.26234066 -0.02981342
000090 99 72 66 bb 04 62 a2 bc 22 ab 41 3e ce 21 e7 bb
       -0.003516352 -0.019822128 0.18912938 -0.0070535904
0000a0 df ca da be db ea b1 be b1 7d fc bc 48 55 93 3d
       -0.42732903 -0.34749493 -0.030821653 0.071940005
0000b0 d3 04 b9 be 64 37 c8 3e 39 4f 93 be d6 dc 2c bd
       -0.36136493 0.3910476 -0.2877138 -0.042202793
0000c0 84 47 b8 3c 1b 02 84 bb 5d 16 21 bc 05 9e 9b 3e
       0.022495039 -0.0040285713 -0.009831992 0.30393997
0000d0 bc ce 2c bf 22 e6 6e 3e c7 dd dc 3e bf 00 13 bf
       -0.6750295 0.23329976 0.43137953 -0.57423013
0000e0 df 1c 24 3f a3 9d d3 3e f9 22 53 bd e7 37 89 bc
       0.64106554 0.41331205 -0.051547024 -0.01675029
0000f0 54 fc 0a bf d8 d3 91 be d1 e7 f2 bc 85 eb 1e bf
       -0.5429127 -0.28481936 -0.029651554 -0.62078124
000100 fb 75 51 3e 99 2c c9 3e 9a 04 e9 be 06 92 86 3e
       0.20455162 0.39291838 -0.45511323 0.26283282
000110 f7 0f 47 bd 5b e2 37 bc 5d dc 3e 3e 7b d0 19 3e
       -0.04859921 -0.011223401 0.1863875 0.15020935
000120 79 47 96 bd c0 aa b5 3c 65 8e bb bc 75 95 a8 3e
       -0.07337851 0.022176147 -0.022895047 0.32926527
000130 30 e2 26 bf 71 76 b5 3e 9a 4b 55 bc 02 c6 71 be
       -0.65188885 0.35441926 -0.013018513 -0.2361069
000140 f6 34 d7 bc c2 85 f1 3e 7c 78 b6 bd 49 00 d7 bc
       -0.02627037 0.47172362 -0.08909699 -0.026245253
000150 44 a1 bd ba 17 6b 2e bd 30 29 a1 bb e8 df c4 be
       -0.0014467617 -0.042582598 -0.00491824 -0.38452077
000160 94 51 12 bf e4 a9 0d 3f 9e 99 8c 3d 04 54 0f be
       -0.5715573 0.5533736 0.06865238 -0.13996893
000170 fc 8e 41 3e b4 8d e9 bc d8 d7 e7 bd 5a 14 2c bf
       0.189022 -0.028509952 -0.11320466 -0.67218554
000180 27 57 1b bd 3d fb 91 bb b3 21 a7 3e b1 31 f9 bd
       -0.03792491 -0.0044549988 0.32642898 -0.12167681
000190 a0 41 7d 3e af 5c 0b bf 2d 2b 54 bc 10 d3 84 3e
       0.24732065 -0.544383 -0.012949747 0.25942278
0001a0 ee 85 63 bf 26 4a 9e ba a8 f2 70 be b4 c2 cc 3d
       -0.88876235 -0.0012076541 -0.23530066 0.09998074
0001b0 28 c5 21 3d cd bb 54 be fd 65 8a 3e 2b 46 8b bd
       0.039494663 -0.20774765 0.27030936 -0.06800493
0001c0 c0 56 d5 3d ff f3 44 bb 74 a4 17 3f 29 74 97 3e
       0.10416937 -0.003005266 0.5923531 0.2958081
0001d0 77 4b 8a 3d 3b 5c 87 bc 5a 45 ad bc 22 64 a7 bb
       0.06752675 -0.016523471 -0.021151233 -0.0051083723
0001e0 13 64 82 bc f3 04 9f bd 4a 85 96 be b1 83 df bc
       -0.01591686 -0.07764616 -0.29398566 -0.027284475
0001f0 c3 23 0e bd ed 9e 25 bc 96 ce 69 3e 17 50 4a bb
       -0.034702074 -0.010108692 0.22832713 -0.0030870491
000200 9f ab f7 bb 5b 57 05 be e8 a9 97 bc 0c be d3 3e
       -0.0075583006 -0.13021605 -0.018513635 0.41355932
000210 6e f1 0e bd 6c 13 4f bf 1a 8d c7 3c ce 4d c9 bb
       -0.034898214 -0.8088901 0.024359275 -0.0061433082
000220 32 87 3c bf a7 5a a0 3e 38 e5 69 3e 07 38 50 bc
       -0.7364379 0.31319162 0.22841346 -0.01270867
000230 f3 73 bb be 04 c4 df 3e b8 48 81 3e a5 40 ac bc
       -0.366119 0.43704236 0.25250793 -0.021026919
000240 6f 8a 56 3e 39 77 28 bc f5 aa f3 3e 0a d3 37 bf
       0.20951246 -0.010282331 0.47591367 -0.71806395
000250 ad a5 e8 bb 9f 66 86 bb bd cf 3a 3e 90 72 1b 3e
       -0.007099828 -0.004101589 0.18243308 0.15180421
000260 41 f8 19 bf 07 90 12 bc b4 4b d8 bc 0b 44 2d bb
       -0.6014443 -0.008945472 -0.026403286 -0.0026438262
000270 5c ce ad bd d8 88 b6 bd f2 32 97 3e ab 84 c7 bc
       -0.084866256 -0.089128196 0.29531056 -0.024355253
000280 18 5b 65 be 13 ea 46 bf 40 3d 4f bf fd ef 50 3c
       -0.22398031 -0.7770092 -0.80952835 0.01275253
000290 59 b9 36 bb f8 0e a5 bb be d9 3a 3f 7d eb 2b 3d
       -0.0027881472 -0.005037185 0.729885 0.041972626
0002a0 bf 67 22 3e d6 98 c3 3e ca 0f 4e bb cf d4 0f 3d
       0.15859888 0.38202542 -0.0031442516 0.03511506
0002b0 49 28 25 ba 51 8f ad be b7 b8 c4 bb 5b 49 94 bc
       -0.00063002534 -0.33898404 -0.006003465 -0.018101385
0002c0 06 83 79 bc a9 1a fc bd f3 9f db bd 03 56 80 3b
       -0.015228992 -0.123097725 -0.10723867 0.0039165034
0002d0 88 4c 07 3f d7 89 17 bb c0 d6 d9 bc 6b 7f 49 be
       0.5285115 -0.002312293 -0.026591659 -0.19677512
0002e0 60 89 bd bb 8b 84 00 3e 93 d1 0e 3f da 5b 73 3d
       -0.0057841986 0.12550561 0.55788535 0.05941377
0002f0 59 67 52 bc 22 1d c3 be df b8 2b 3f eb 3d 04 3d
       -0.012842023 -0.38108164 0.67078966 0.032285612
000300 b9 19 45 3d 07 01 b9 ba fd 90 80 3e 31 36 43 bf
       0.048120234 -0.0014114686 0.25110617 -0.76254565
000310 54 9f ef be 2a f7 cd bb 08 55 51 3e 62 6d e9 3e
       -0.46801245 -0.006285568 0.20442593 0.45591265
000320 a8 39 e4 be 02 90 fd be 22 c6 01 bf 26 92 a2 bb
       -0.44575238 -0.49523932 -0.5069295 -0.00496127
000330 35 c9 4f ba 3f a5 10 be 53 53 bc 3d 9e 38 ad 3d
       -0.00079264055 -0.14125536 0.0919558 0.084580645
000340 c7 22 a9 be de 8f 7c 3c fd c5 ee ba 07 c3 80 3d
       -0.33034346 0.01541516 -0.0018216964 0.062871985
000350 ef 5f 02 be 3f 42 01 bc 27 cc ad 3c 04 c2 a8 bb
       -0.12731908 -0.007889329 0.021215511 -0.0051500816
000360 2b 2a 1b bf 95 1a 5f be 50 46 13 be 17 34 ac bb
       -0.6061122 -0.21787484 -0.14382291 -0.005255233
000370 41 53 29 3f 0d 0d ab be 90 53 0a be 34 3e 80 be
       0.6614266 -0.33408394 -0.13508439 -0.25047457
000380 03 aa 10 bc b9 e7 39 3d 6f 1b e9 bb 48 a0 a1 be
       -0.008829596 0.045387004 -0.007113866 -0.31567597
000390 71 f0 cf 3d 59 41 6e bc 37 e1 af 3d 0d ef 98 be
       0.101532824 -0.014541947 0.08587878 -0.2986988
0003a0 cb a2 19 be 96 8d e2 be 18 f7 4d bd 17 3c 34 3f
       -0.15003507 -0.44248646 -0.050284475 0.7040419
0003b0 eb 16 a0 bd f5 e3 eb bc ef e5 ba bb e3 b7 13 bf
       -0.07816871 -0.028795222 -0.0057036798 -0.57702464
0003c0 6c f6 76 bc 9c a2 67 bc e6 cd b9 3e 50 28 d4 bc
       -0.0150734 -0.01413789 0.362899 -0.025898129
0003d0 25 cf fd 3d 39 c9 2d bc 20 73 13 bc 45 f9 6e be
       0.12393025 -0.010607057 -0.008999616 -0.23337276
0003e0 c6 d8 bd bc dc d1 0a bc af 2e 31 be 43 7d b1 be
       -0.023174655 -0.008472886 -0.17302965 -0.3466588
0003f0 ab 6a be bc c7 c5 d5 bd 71 a4 89 bb c8 15 38 be
       -0.023244223 -0.10438114 -0.004200511 -0.17977059

weight f4 [192, 256, 2, 1]
000000 9c c8 f5 3d 8a 3a 2e 3e b7 81 5b 3d 32 9b b4 3c
       0.12001154 0.17014518 0.053590503 0.02204666
000010 45 e7 da bd 29 31 8d bd ed ea 0d 3e c6 1f 26 3e
       -0.106886424 -0.06894142 0.13859148 0.16223058
000020 3d 7c a5 3c 9b ef 85 3b c4 dc 40 3e 96 0b 4a 3e
       0.020200843 0.004087401 0.18834215 0.19730982
000030 01 b2 f2 3d 02 2e 13 bd c9 47 84 3a 6e 7b 8e bd
       0.11850358 -0.03593255 0.0010092194 -0.06957136
000040 85 21 7f 3e 66 3f 83 3e f9 b1 ce bd 6f 8e 1a be
       0.2491513 0.25634307 -0.10092539 -0.15093397
000050 7d a3 9d bd d5 eb d0 bd 85 d2 45 bd 3a 9e 9a bd
       -0.076971985 -0.102012314 -0.04829647 -0.075497106
000060 fc 4c 0a 3e 24 2c d1 3d 63 8a 61 3e 41 8d 37 3e
       0.1350593 0.10213497 0.22025447 0.17924978
000070 2a eb d1 3d 64 b0 d5 3d 77 4d 53 3d c9 66 e8 bb
       0.10249932 0.104340345 0.051587548 -0.007092331
000080 c3 3c c6 bd eb 69 b5 bd ce 96 3f 3e 93 aa 07 bb
       -0.09679558 -0.08858093 0.18709871 -0.0020701035
000090 72 a4 2a 3e 60 c7 a2 bc de 3b 02 3e 7c d1 5a 3d
       0.16664293 -0.01987046 0.1271815 0.053422436
0000a0 70 69 66 3d c0 1a 56 3c 52 ea a3 bd ab d2 fd bb
       0.056252897 0.013067901 -0.080036774 -0.007746061
0000b0 f7 ef 1c 3e 05 96 3b 3e 13 aa ae 3d 20 42 2d bb
       0.15325914 0.18318947 0.08528533 -0.0026437119
0000c0 ec 92 2d bc cb 62 a3 bd 9e fa 99 3d 2b 32 d8 3d
       -0.010594111 -0.07977828 0.075185046 0.10556444
0000d0 df b4 e5 3b 22 8a 9f bc 51 e4 66 3d e4 50 54 3d
       0.007010087 -0.019475047 0.056370083 0.051834956
0000e0 8f c4 27 bc 38 bc 3c bb ef 0d ed bc 98 d0 b1 bd
       -0.010239734 -0.002879871 -0.028937308 -0.08682364
0000f0 1d 6f b9 bd e4 46 a8 bd 1a 30 a3 3c da 61 34 bd
       -0.09054396 -0.08216646 0.019920398 -0.04403863
000100 ad ae d2 bd 86 1d 01 be e7 fe c1 bd e1 2f 05 be
       -0.10287223 -0.12608919 -0.09472447 -0.13006546
000110 d0 05 95 bd 77 aa 4d bd 8a fa 10 3d 6c 51 7e 3c
       -0.07276499 -0.050211396 0.035395183 0.015522342
000120 73 46 b6 3d 2a 82 ca 3d 5e 7f 91 3d 69 37 90 3d
       0.08900156 0.09888108 0.071043715 0.07041819
000130 88 7d 55 bd 1a b0 2b bd bd d0 84 3d 73 79 e1 3c
       -0.05212167 -0.04191599 0.06485126 0.027523732
000140 dd 25 2f 3e 8b cc 33 3e 50 77 fb 3d 25 27 ea 3d
       0.17104287 0.17558496 0.122786164 0.114332475
000150 fe 9c a8 3d e3 d9 30 3d 80 e2 0e 3e 2d 2b 3a 3e
       0.08233069 0.043176543 0.1395359 0.18180533
000160 85 30 04 3e c9 37 ed 3d 1c a6 cb bd bd 1d a5 bd
       0.12909134 0.11582906 -0.09943792 -0.08062313
000170 b1 13 68 3e 35 2e 55 3e 67 98 7b 3d 7d 3f d5 bc
       0.22663762 0.20818408 0.06142464 -0.02603125
000180 2f 86 40 bd 23 da 9f bd 77 c1 cb 3c 0d 26 2f 3c
       -0.047002967 -0.07805278 0.024872525 0.010690224
000190 70 9f 60 bc 71 06 bd 3c fe 17 9e bd 78 25 95 bd
       -0.013709888 0.02307436 -0.0771942 -0.07282537
0001a0 8f 35 6b 3e 4f 46 3a 3d 25 5d b8 3c 65 db 36 bd
       0.2296965 0.045477208 0.022505352 -0.044642825
0001b0 06 a0 b1 bd ca a6 29 bd fe 2a 56 3e 05 35 36 3d
       -0.086731 -0.041418828 0.20914838 0.044484157
0001c0 44 06 97 3d a0 e7 46 3d 11 1b 63 3c 71 32 16 bd
       0.07374242 0.04856074 0.013861434 -0.0366692
0001d0 63 74 72 3e 95 c6 2e 3e 22 c6 c2 3c 18 ef be bb
       0.2367721 0.1706794 0.023776118 -0.005826842
0001e0 52 f7 28 3e 96 69 3b 3e df ba 45 3e b3 33 fe 3c
       0.16500595 0.18301997 0.19309567 0.031030511
0001f0 e5 d3 b5 3d a8 d1 a5 3d 83 96 02 3e 0a f0 1b 3e
       0.08878306 0.080966294 0.12752728 0.15228286
000200 02 1e df bd a2 3e 99 bd 56 9d 88 3d 1c 98 29 bd
       -0.108943954 -0.074826494 0.066706344 -0.04140483
000210 7b b2 32 3e 16 27 87 3d 86 fe a0 bd d3 42 31 bd
       0.17450897 0.06599252 -0.078610465 -0.04327662
000220 32 99 f2 3d d4 04 17 3e e3 3c 13 bb 61 29 7f 3d
       0.11845626 0.14747936 -0.0022466711 0.06229532
000230 c2 32 f7 bd 79 04 0b be 40 26 b2 bd 8d aa 9c bd
       -0.12070228 -0.13575925 -0.08698702 -0.076497175
000240 4c 6b 9c 3d 0f fd de bc 7b db 89 bd b1 3d f1 bd
       0.07637653 -0.027220277 -0.06731316 -0.11779345
000250 a2 51 ba bc fe 06 90 bc 71 b2 73 3d 6a 86 a4 3c
       -0.022744004 -0.01758146 0.059496347 0.020083625
000260 b2 2c 21 3e c3 20 ff 3c 8a 60 3a bc 6e 1b bf bc
       0.15739706 0.031143552 -0.011375556 -0.02332851
000270 03 cb 18 3b c2 01 45 3d 42 56 10 3e 78 d5 30 3e
       0.0023314364 0.04809738 0.14095405 0.17268932
000280 16 47 a1 3d d4 8c c7 3d c1 77 47 3d 69 be 32 3d
       0.07874887 0.09743658 0.04869819 0.04363862
000290 9a b9 13 3e 9c 6a 28 3e 4f 56 3e 3d da 4b c4 3d
       0.1442627 0.16446918 0.04646903 0.0958478
0002a0 20 ee 42 3c e0 a8 ff bc 3d 4c 8b 3d 16 99 84 3d
       0.011897594 -0.031208456 0.06801651 0.06474511
0002b0 f8 17 65 3d ca 1a 99 3b 9f 52 14 3e 93 c4 f3 3d
       0.05593106 0.004672383 0.14484642 0.11902728
0002c0 b3 5f 64 3e 94 54 3a 3e 64 c9 87 bd 6c a9 fc bc
       0.22302131 0.18196326 -0.06630209 -0.030842505
0002d0 a3 81 d4 bd c6 a4 a1 bd 88 00 11 3e 94 87 f9 3d
       -0.10376289 -0.07892756 0.14160359 0.121840626
0002e0 70 a6 f1 bc d0 4e 03 be 06 9a b6 3d ee 35 80 3d
       -0.029498309 -0.12823033 0.089160964 0.06260286
0002f0 18 82 3f 3e b5 66 4f 3e 53 2d 62 3e 15 e4 33 3d
       0.1870197 0.20254023 0.22087602 0.043918688
000300 4b 83 ee 3d 6d 9c e3 3d 79 c3 f6 bc fc 5c 9b bc
       0.11646136 0.1111382 -0.030122506 -0.018965237
000310 11 5d 45 bb 15 36 d9 bd 1a 85 d9 3d 8a 0d 77 3d
       -0.0030115286 -0.106060185 0.1062109 0.060315646
000320 71 a1 6b 3d dd 28 fc bc 2f fb 5a 3e f3 be 3f 3e
       0.05752701 -0.030781204 0.21384881 0.18725185
000330 9e 2a ab 38 0a f8 40 3d 0e 25 3d 3d 5d 92 56 bd
       8.1618535e-05 0.04711155 0.046177916 -0.052385677
000340 46 30 51 3e 7e 87 81 3d fe ab ec 3c 60 f2 2e 3d
       0.20428571 0.06324671 0.028890606 0.042711616
000350 c5 90 6e 3e ec 72 4b 3e d9 ae 5c bd ee 04 b4 bd
       0.23297413 0.19868058 -0.053877685 -0.08790003
000360 6c 05 7c bd 7f 92 10 be e9 d0 29 3e 85 e1 08 3d
       -0.06152861 -0.14118384 0.16583599 0.033418197
000370 34 57 5f bd 3e f4 9c bd 6c 79 58 3e 96 4e 28 3e
       -0.054526523 -0.07663773 0.21140069 0.16436228
000380 6c 71 9a bd 0b cc 1a be 39 fc 52 3e 22 e6 7c 3e
       -0.07541165 -0.15116899 0.20604028 0.24697164
000390 38 86 93 bd 45 fc 61 bd 5f 1d 56 3c 3f 97 47 bd
       -0.072033346 -0.055172224 0.013068526 -0.048728224
0003a0 57 44 49 3c 9d ac a3 3d f5 0b d3 3d b4 11 ca 3d
       0.01228436 0.07991908 0.10305015 0.09866658
0003b0 41 fa 30 3b d9 dd 16 3d 18 1a 22 bd df 5c d9 bb
       0.0027004632 0.036832664 -0.039575666 -0.0066333856
0003c0 94 02 40 bb 92 d9 f8 bc 24 82 38 3e 0c 1f 31 3e
       -0.0029298412 -0.030377183 0.18018395 0.17297
0003d0 66 35 de 3d 40 d6 09 3e cd 6f f1 3d c0 6f ac 3d
       0.10850029 0.13460636 0.117889024 0.08419752
0003e0 29 5b 45 3e 59 82 2c 3e 38 82 01 3d 54 b5 f6 3c
       0.19273056 0.16846599 0.031618327 0.03011576
0003f0 07 f3 38 3d 7f 3c 1c bd 20 29 4d bb ba d3 c4 3c
       0.045153644 -0.03814363 -0.003130503 0.02402674

bias f4 [192]
000000 1c bb c2 bc 86 19 31 3d ac 51 1d bc 33 97 68 bd
       -0.023770861 0.04323723 -0.009601992 -0.05678482
000010 2e 7f 20 bd 3b 1f 7b bd a9 4e 2e be b9 bf c0 bc
       -0.039183788 -0.06130908 -0.17022194 -0.02352892
000020 3d f4 0f 3d 92 37 52 3b 67 f8 ce 3b 38 c5 02 bd
       0.035145033 0.003207658 0.006316233 -0.031926364
000030 5f e5 6e bc 90 f5 37 3d 9b ee b1 bd ef e6 f1 bb
       -0.0145810535 0.04491192 -0.086880885 -0.0073822658
000040 fc e7 f6 bc b4 ad b4 3c 80 a9 17 bd 4e bf 2c bd
       -0.030139916 0.022055484 -0.037026882 -0.04217463
000050 18 c4 80 bd 0f 7b cf bb bb 0b d3 bc d6 3d dd 3d
       -0.06287402 -0.0063318084 -0.02576243 0.1080281
000060 89 7b 89 bd 14 a7 58 bd be 30 96 bd c4 db cd 3c
       -0.067130156 -0.052893713 -0.073335156 0.025129206
000070 32 d3 ce bc 84 e9 bc bc fe 6e 96 3c c9 56 18 bd
       -0.02524719 -0.023060568 0.018363472 -0.03719214
000080 b6 fc 24 bd d5 91 c7 bc 5c 03 e4 bc 19 f6 2a 3c
       -0.040280066 -0.02436153 -0.027833633 0.010434651
000090 b5 71 20 bd 15 5c d1 3d a7 ea 36 be 9e be 11 3c
       -0.03917094 0.102226414 -0.1786295 0.008895544
0000a0 ca ce 55 bd 5f 46 a5 bd 35 cc 59 b9 a6 80 8a bd
       -0.052199163 -0.08070063 -0.00020770806 -0.06762819
0000b0 78 fb 37 bc 3d 23 66 bd d7 9a e5 3b ba 28 bd bc
       -0.011229388 -0.05618595 0.0070069837 -0.023090709
0000c0 01 44 26 bc bb 00 ac bd d4 27 c6 bd f5 7b 9d bc
       -0.010148049 -0.08398577 -0.09675565 -0.019224146
0000d0 da a2 5a 3d 36 33 f5 39 7f 3d b9 bc aa d1 0b 3c
       0.053377964 0.00046768197 -0.022612331 0.0085338745
0000e0 6f 39 f3 bb 32 b7 9a bc 6c d6 9a bd 3c fa 65 bd
       -0.007422618 -0.018886182 -0.07560429 -0.056146845
0000f0 a5 23 17 bd 9b 6f ff bd 2f 0a 45 bc 70 71 01 3d
       -0.036899228 -0.12472459 -0.012026354 0.031602323
000100 06 b5 59 bc 68 8e 3e bd b5 20 55 bc f4 1d d6 bb
       -0.013287788 -0.046522528 -0.013008286 -0.0065343324
000110 95 b9 b4 bc 02 ca 0b 3d 93 0a db b9 91 2e a6 bd
       -0.022061149 0.034128197 -0.00041778813 -0.081143506
000120 c3 72 fc bc 6c f0 4c bd 55 9e 8a be 14 e9 2c 3c
       -0.030816441 -0.05003397 -0.27073923 0.010553617
000130 2e 91 6b bd 01 36 73 bc 9b 26 97 be 2d 2f 87 be
       -0.0575115 -0.0148444185 -0.2952164 -0.2640318
000140 16 e3 a0 bd af ee 17 bd 3a 1b 2b 3d 06 18 bb bc
       -0.07855813 -0.03709286 0.041774012 -0.022838604
000150 80 24 7d 3c 97 1e a5 3c eb bf 79 bd f1 cb 94 bc
       0.015450597 0.020156188 -0.060974043 -0.018163653
000160 e6 cc 66 bd 60 66 10 be 55 ac 35 bd 12 fb a5 bc
       -0.05634775 -0.14101553 -0.0443538 -0.020261321
000170 6c 42 a3 bd 5c a5 80 bd 04 34 fc bc 60 ab 82 bc
       -0.07971653 -0.0628154 -0.030786522 -0.015950859
000180 82 ad 3f bd cb b0 a3 bd db 0f a1 bd 77 20 14 bd
       -0.04679633 -0.07992705 -0.07864352 -0.036163773
000190 c8 27 8f bd 5b 57 d2 bb 44 f6 37 bc e1 b0 81 bb
       -0.069900095 -0.006419105 -0.011228148 -0.003957853
0001a0 0e b8 12 bd 91 9b 3a bd ae 89 36 bd e0 23 9c be
       -0.03582006 -0.045558516 -0.044564895 -0.3049612
0001b0 5f 9f 40 3c e8 37 af bd 1f 81 b6 bb 8a 3a c4 3a
       0.011756747 -0.08555585 -0.0055695917 0.0014971059
0001c0 28 34 e4 bd 9c 4c 4a bd 32 ad e8 bc 98 26 10 bd
       -0.111427605 -0.049389467 -0.028402898 -0.035193056
0001d0 ac b6 9f bd 1d 01 e7 bc 79 e3 51 bd aa dd 8f be
       -0.07798514 -0.028198773 -0.051242325 -0.28098804
0001e0 de 76 2f bd 8c 25 30 3d 09 54 29 be 45 d8 cd bd
       -0.04283797 0.043004557 -0.16535963 -0.10051016
0001f0 d3 c2 b5 bc 16 47 29 3a ba 64 93 bd f1 e0 67 b8
       -0.022187626 0.0006457431 -0.071969464 -5.5284185e-05
000200 5b 6d 01 be 48 91 30 bd b6 f7 50 bd b8 48 9a bd
       -0.12639372 -0.0431073 -0.051017486 -0.07533401
000210 ef 73 c4 bd 88 fb a9 3b 0c fe 77 3c f9 66 26 bd
       -0.09592425 0.0051874556 0.015136253 -0.040625546
000220 87 6a 04 3e be a6 6a be d4 4a 68 bd b2 62 a4 bd
       0.12931262 -0.2291517 -0.056711987 -0.08026637
000230 d4 bd 22 bd 5b 7c d0 3d 48 52 f6 3d 6a 25 10 bc
       -0.039731815 0.10179969 0.12027413 -0.008797983
000240 cd 3b 3c bd 31 76 ea 3c d8 3e ba bd 15 95 0b be
       -0.045955468 0.028620811 -0.09094018 -0.13631089
000250 fe 3e c6 be 68 37 f4 3c 47 32 b9 3c 8c e3 03 3d
       -0.38719934 0.029811576 0.022606982 0.032199427
000260 58 14 bf bc 4a 0b 4d bd 32 67 2e bd 0b 83 84 bd
       -0.02332513 -0.050059594 -0.042578883 -0.06470307
000270 7a f8 a7 3d e7 47 0d bd 31 93 50 be e0 6d b3 bc
       0.0820169 -0.0344924 -0.20368649 -0.021902978
000280 a9 ba 8e bc 24 10 38 bd 13 3f 6c bd d0 0d bb bb
       -0.01742299 -0.044937268 -0.05767734 -0.0057084337
000290 a6 15 f7 bc 4f 49 11 bd 50 b7 4f 3d 37 b7 b0 bd
       -0.03016169 -0.035470303 0.05071193 -0.086286955
0002a0 dd 8f 1a be 08 22 c8 bd 55 33 a4 bb 64 01 00 bd
       -0.15093942 -0.09772116 -0.005011002 -0.031251326
0002b0 87 8c 2a bd 47 e8 cf bc 47 cf ba 3c f8 fe 1b bd
       -0.041637924 -0.025379313 0.022803916 -0.038084954
0002c0 7b 8a 38 bd e1 d0 6f bc 72 a8 3e bd a5 1a 8e 3c
       -0.04505394 -0.014637203 -0.04654736 0.01734669
0002d0 e0 bd 7b bc 5a a7 ad bd 42 84 d2 bc f9 79 95 bd
       -0.015365094 -0.084791854 -0.025697831 -0.07298655
0002e0 8c 05 31 bb 72 0a bd bb 3d 7c 4d bd 6a b9 8c bd
       -0.0027011363 -0.0057690674 -0.05016731 -0.068713024
0002f0 5a e5 ff bc 8d 91 47 bd 22 70 42 3d 79 4a 27 bd
       -0.031237293 -0.048722792 0.04747022 -0.040842507

weight f4 [128, 192, 1, 2]
000000 b2 bb 2d 3e 62 8d ae 3d 35 f4 ea be cb c1 83 be
       0.16966131 0.085230604 -0.4588944 -0.2573379
000010 c3 72 36 be 58 df 91 bd 26 c1 a1 be 7d e4 04 be
       -0.17817216 -0.071226776 -0.31592673 -0.12977786
000020 73 3e ca bd 2c 6d 61 bd 88 f2 95 3c bb cc 84 3c
       -0.098751925 -0.055035755 0.018304124 0.016210904
000030 ba cf 47 3d 86 81 10 3b dc 9b c9 3d 8a 3a be 3d
       0.048782088 0.0022049858 0.09844181 0.09288509
000040 43 8e a7 ba 64 a9 6b 3c 13 5c 2f 3e ae c6 76 3e
       -0.0012783486 0.014383648 0.17124967 0.24099228
000050 cc 65 93 3d 40 79 28 3d 30 3a 9c 3e 1e c8 ad 3e
       0.071971506 0.041131258 0.30513144 0.3394174
000060 4a f7 90 3d f5 15 c6 3d 71 9d 03 3e 45 11 27 3e
       0.07078417 0.09672157 0.12853028 0.16315182
000070 2f d2 8e bc 5a 84 9a bd c1 bf a7 3c c7 11 4d bb
       -0.017434208 -0.07544775 0.020477178 -0.0031291114
000080 92 65 73 3e 0b 19 63 3e 3b 5d 9e 3e 85 19 95 3e
       0.23769215 0.22177522 0.30930504 0.29121032
000090 4c ea 97 3d c2 b7 c6 3d d0 14 d7 3d 9e 08 f2 3c
       0.074177355 0.09703018 0.105020165 0.029545125
0000a0 7e 5f 32 bd 3c c2 00 bd 83 10 21 3d 11 bd 0e bd
       -0.0435481 -0.031435236 0.039322387 -0.034848277
0000b0 ba 96 fa 39 f0 17 12 3c 1c bb 95 3e 36 aa b2 3e
       0.00047796016 0.00891684 0.29244316 0.34895486
0000c0 85 e2 44 3e 41 0e 10 3e 55 15 bb 3d 8e 05 11 3e
       0.19227035 0.14067937 0.09134928 0.14162275
0000d0 fd 1d 25 3c 3e 9d a8 3c 50 78 93 3d 5e 98 1a 3e
       0.010077951 0.020582791 0.07200682 0.15097186
0000e0 85 6d dc bb 30 3e 2d bb ad c6 c7 bd 21 a6 b7 bd
       -0.006726923 -0.0026434772 -0.09754691 -0.089672334
0000f0 69 1b 34 3e d5 86 ef 3d 74 af ad 3d 8c 06 d1 3d
       0.17588581 0.11695639 0.08480731 0.10206327
000100 a1 31 18 3d e0 b4 50 bc af 27 ca 3d 6c 95 95 3d
       0.037156705 -0.012738436 0.0987085 0.073038906
000110 d0 e8 1f be ab 8d bc bd 8c 2c cc bc 44 21 1e 3d
       -0.15616155 -0.092067085 -0.024923585 0.038605943
000120 9d c2 a0 3c 08 c2 c5 bb c1 c1 35 3d 4c bb 98 3c
       0.019624049 -0.006035093 0.04437423 0.018643998
000130 38 c0 12 3e 63 35 01 3c 64 56 b7 bd 16 e8 c9 bc
       0.14331138 0.007886264 -0.089520246 -0.0246468
000140 1b ab 28 3d 40 ea a3 3d 90 51 2d 3d ac 69 13 bd
       0.041178804 0.08003664 0.042314112 -0.03598945
000150 d1 7e 9f 3d 02 ae a9 3d 9b 89 da 3d eb 71 93 3d
       0.0778786 0.082851425 0.106707774 0.071994625
000160 91 5e 83 3e 4d 54 7a 3e 40 2f c4 bd b2 80 af bd
       0.25658086 0.2444622 -0.09579325 -0.085694686
000170 39 80 a7 3d 95 2a 02 3e b5 dd ed 3d 8d c5 2b 3e
       0.081787534 0.12711556 0.11614553 0.16774578
000180 88 bb 03 bd 89 58 20 bd e4 81 f2 3d 8f 06 cf 3d
       -0.032161266 -0.039146934 0.11841181 0.10108673
000190 2b 0c bd 3d 06 a6 43 3d 4c 60 01 be 4b 96 d4 bd
       0.092308365 0.047765754 -0.1263439 -0.103802286
0001a0 19 f5 54 3e d7 95 35 3e 88 bc e5 bd 92 8d 98 bd
       0.20796622 0.1773294 -0.112176 -0.074488774
0001b0 cd 0c dc 3d 84 b1 b0 3d eb 1c 09 3e 93 0f 11 3e
       0.10744629 0.086276084 0.13389938 0.14166097
0001c0 b6 94 95 3c ad 1e 2b 3d 03 19 54 3e b9 02 3c be
       0.018259387 0.0417773 0.20712666 -0.18360414
0001d0 12 7f c9 bd 13 0a 88 bd 00 2b 92 bd ab 90 a7 bb
       -0.0983869 -0.066425465 -0.07137108 -0.0051136813
0001e0 a3 d9 46 bc 14 76 80 bc c1 0e e5 bd 14 72 22 be
       -0.01213685 -0.015681304 -0.11184455 -0.1586383
0001f0 09 f4 bf 3d 6a f7 0e 3e 99 4e f9 3d 2f d8 06 3d
       0.09372718 0.13961568 0.121731944 0.032921012
000200 b1 f7 d4 3d 7a 4f d4 3d 80 95 59 be 97 74 23 be
       0.10398806 0.103667215 -0.21248436 -0.15962444
000210 08 9a 88 3d 1d 40 1c 3d ab 20 f1 bc b7 39 66 3b
       0.06670004 0.03814708 -0.029434523 0.0035129616
000220 30 94 35 bc 1e 9e fe 3b 5c 41 a7 3d ef 22 b7 3d
       -0.011082694 0.007770314 0.08166763 0.0894221
000230 d4 a3 23 3e ff 91 44 3e ee 02 a6 3d b6 97 10 3c
       0.15980464 0.19196318 0.081060275 0.008825233
000240 f7 a8 f5 3d 4b 8b 61 3d c3 07 df bc c9 fe ea bc
       0.11995118 0.05506448 -0.02722538 -0.028685944
000250 d7 20 d9 3d 53 34 a0 3d 51 72 81 3d 91 97 a2 3c
       0.10601967 0.0782248 0.06320632 0.019847663
000260 63 56 25 3d 76 96 80 3d 5b bb 8a 3d 82 3b d0 3c
       0.040365588 0.06278698 0.067740165 0.025419
000270 d4 e8 b2 bd 67 ea db bc 80 66 cf 3b 72 43 66 bc
       -0.08735815 -0.02684517 0.0063293576 -0.014054166
000280 f4 04 51 be cd e5 cc bd d9 34 42 be a3 51 50 be
       -0.20412046 -0.100047685 -0.18965472 -0.20343642
000290 30 ce 40 bd fb b3 06 3d 53 da 89 3d 1d c6 8f 3d
       -0.047071636 0.032886487 0.06731095 0.07020209
0002a0 d4 bc 96 bd 23 99 01 bd d8 59 07 bd 51 6b 28 bc
       -0.07360235 -0.031640183 -0.033044666 -0.0102794925
0002b0 93 29 64 be 15 3c e8 bd e6 a7 e1 3d f5 a1 fb 3d
       -0.22281484 -0.11339585 0.11018352 0.1228675
0002c0 8f 65 9d bd b7 31 62 bd 41 5a 20 bd 5b 9d b5 bd
       -0.076853864 -0.055223193 -0.039148573 -0.08867904
0002d0 06 ab d0 bd 00 c9 09 be 15 94 08 3d 4b 49 f4 bb
       -0.1018887 -0.13455582 0.033344347 -0.0074550263
0002e0 62 0c 05 be 9b 2b 9f bd 3f a9 19 be 83 80 e6 bd
       -0.12993005 -0.07771989 -0.15005969 -0.112549804
0002f0 d2 4b ac 3d 02 c2 99 3c cb 95 14 bd 24 56 92 bd
       0.08412899 0.018769268 -0.036275666 -0.07145336
000300 a1 fa db bd fe 37 ba bd f2 9d f3 bd 24 f7 c6 bd
       -0.10741163 -0.09092711 -0.1189536 -0.09715107
000310 6d f7 de bc 79 11 33 bd a4 6e 87 3c 9b 77 ea 3c
       -0.027217591 -0.043717835 0.01653225 0.028621485
000320 17 24 5e be 25 02 01 be c3 66 ce 3d 46 4a aa 3d
       -0.21693455 -0.12598474 0.10078194 0.08314948
000330 f3 b4 ef 3d c9 43 f8 3d b9 31 3c bd 35 ca ef 3c
       0.11704435 0.12122304 -0.045945857 0.029271225
000340 cd ea 33 bd fe ab 5b bd f8 8b f6 3d 01 ae de 3d
       -0.043925095 -0.05363082 0.12038416 0.10873032
000350 42 34 35 be bc c2 7f bd 4e 47 f7 3d 1e d4 b4 3d
       -0.17695716 -0.062441573 0.12074147 0.08829521
000360 40 24 b9 bd e5 69 99 bd 30 1d 02 3e f2 24 4a 3e
       -0.09040117 -0.07490901 0.12706447 0.19740656
000370 0a 90 03 bd 08 ca c3 bc c9 53 a0 3e a6 85 a7 3e
       -0.03211979 -0.023900047 0.31313923 0.32719153
000380 28 dd c4 bc d9 94 2e be 83 aa 24 3d 9b ad 23 3d
       -0.024031237 -0.17048968 0.040201675 0.039960485
000390 95 a1 d1 3d 93 1f fd 3d c3 27 2b bd 83 7a 97 bd
       0.102358975 0.12359538 -0.041785967 -0.07396414
0003a0 e7 62 b2 be a2 3e 81 be be 4a 9d 3d 93 c7 1c 3e
       -0.34841082 -0.25243098 0.076802716 0.15310507
0003b0 0c ac fe 3d 49 6c ef 3d f3 61 1e 3e 16 46 57 3e
       0.12435159 0.11690576 0.15467052 0.2102283
0003c0 ab bd 30 3d bc c1 f2 bc c4 52 5a bd b5 b9 d4 bc
       0.04314963 -0.029633395 -0.053301588 -0.025967458
0003d0 f7 d4 6f bd 19 fa b4 bc 79 44 07 be fd 18 0a be
       -0.05855271 -0.022091912 -0.13209714 -0.13486095
0003e0 0e 1a be 3d b2 93 32 3d 44 a1 42 be 39 4a 01 be
       0.09282313 0.043597884 -0.1900683 -0.1262597
0003f0 21 91 3b be 3c df c1 bd 6f 19 d8 bd 30 80 86 bd
       -0.18317081 -0.09466407 -0.10551726 -0.065674186

bias f4 [128]
000000 90 96 f4 bd 2c 20 3b be 44 8f e9 be 78 6c 98 bd
       -0.1194278 -0.18273991 -0.45617115 -0.07442564
000010 10 c5 b8 bc 4a f0 ec bd d6 84 14 be 8b cd 8e 3d
       -0.022554904 -0.11569269 -0.14503798 0.06972798
000020 36 22 c7 bd ba 3f 4c be 21 f1 2c bd d3 09 55 3d
       -0.09723322 -0.19946185 -0.042222146 0.052011322
000030 45 6c cc be 8d be 53 be 0e 54 9a be 8b b6 ac be
       -0.39926353 -0.20678158 -0.30142254 -0.3373302
000040 83 fb c2 be 76 a2 88 be 70 a6 96 bd a8 6b 2d be
       -0.38082513 -0.26686448 -0.07355964 -0.16935599
000050 1f 1d 71 bc 2c 3c ae 3d b0 a0 8b be ef cc 10 be
       -0.014716416 0.085075706 -0.27271032 -0.14140676
000060 97 ca ab bd d2 ad f4 be 19 90 eb bd 0a 7b a3 be
       -0.0838825 -0.47788864 -0.11502094 -0.3192981
000070 7c ba e7 3c 4b 5c b2 be 79 b9 3b be 48 34 fc bc
       0.028287165 -0.3483604 -0.18332471 -0.030786648
000080 58 37 3b 3d 5d 2a 81 be 8f da ba be 3b c0 dd bd
       0.045707077 -0.25227633 -0.36494872 -0.10827681
000090 fd b3 57 be 41 2a 4e be 53 74 95 bd 02 d7 6f bd
       -0.21064754 -0.20133306 -0.07297578 -0.058554657
0000a0 dc 29 d9 bd 8e 84 d3 be 12 3a 7b bd 88 a7 a3 bd
       -0.10603687 -0.4131207 -0.061334677 -0.079909384
0000b0 fb a3 d8 bd b6 18 a2 bc f9 4c a2 be 0e b6 89 be
       -0.10578152 -0.019787174 -0.3169935 -0.2689671
0000c0 91 42 14 be d6 88 82 be 4e a2 53 be 2a c8 5d bf
       -0.14478518 -0.25495023 -0.20667383 -0.8663355
0000d0 c7 a2 08 be b9 fa f1 bd 96 51 ab be 95 ae 0a be
       -0.13343345 -0.118154 -0.33460683 -0.1354316
0000e0 19 12 a6 3c d3 c4 7c bc 7f 81 58 3d f7 f9 3e be
       0.020272302 -0.015427786 0.052857872 -0.18650042
0000f0 61 ba 07 3d 69 f9 c2 3c aa 0a c8 3c 09 d3 fb be
       0.03313673 0.023800569 0.024419148 -0.49184445
000100 e7 e1 98 3b 75 a1 7d be 29 20 8b be c8 92 c2 be
       0.0046656015 -0.24768622 -0.27172974 -0.3800261
000110 b5 c8 b1 bd 34 d7 09 be c8 d3 22 bd ce b6 7f be
       -0.0868086 -0.13461 -0.03975275 -0.24972078
000120 c9 74 23 bd 29 cb 14 bf 24 0f f4 bd 71 7b 84 bd
       -0.039906297 -0.581225 -0.1191695 -0.06468857
000130 60 12 4e be fa 72 f8 3c ce bb ab be cb 38 3f be
       -0.20124197 0.030328263 -0.3354172 -0.18674009
000140 a3 b3 4c be 84 dd a1 bd c3 97 67 be 6a 8e f7 38
       -0.19990401 -0.07903579 -0.22616486 0.000118044045
000150 44 8e 41 be ff 65 43 be 6d 9f 81 bd 2e 5d 42 be
       -0.18901926 -0.19081877 -0.06329236 -0.18980858
000160 b0 ad 37 bf b6 22 91 be 79 08 bb bb f0 4a 03 be
       -0.717494 -0.28346795 -0.005707797 -0.12821555
000170 9f 7b 67 bd f3 f9 93 bc 24 5e 73 be 65 c9 5c bf
       -0.05651438 -0.018063521 -0.2376638 -0.86244804
000180 2a 66 28 be 9b b2 4b bd ea f4 55 be fd 3a 35 be
       -0.16445222 -0.04973088 -0.20894209 -0.17698283
000190 c8 ff 34 bd 29 f7 a1 bd 53 22 81 bd 34 e1 65 bc
       -0.044189245 -0.0790847 -0.06305375 -0.014030743
0001a0 0e 3a 9b be b1 65 84 be 7f 82 f8 bd e7 17 a4 be
       -0.3031773 -0.25858834 -0.12134265 -0.32049486
0001b0 2a 52 2a 3d 65 b5 a8 be a5 62 9d be a2 d6 2e be
       0.041582264 -0.32950893 -0.30739322 -0.17074063
0001c0 c8 f9 45 bd 0a fe 52 be 4b 1b fd bd c3 cb a8 bd
       -0.048333913 -0.2060472 -0.12358721 -0.082419895
0001d0 30 90 05 3d 69 6d 2a bc 7f aa c5 bd d9 1c 04 bf
       0.03260821 -0.010402062 -0.0965166 -0.5160652
0001e0 ec f8 89 3d fe f1 56 be 04 31 0e be 3d fc da be
       0.06736931 -0.2099075 -0.13885885 -0.42770568
0001f0 c6 78 d4 be ce 5b 2b 3d 1c bf 89 be a2 ee de bc
       -0.41498393 0.0418356 -0.26903617 -0.027213398

beta f4 [128]
000000 64 0a b7 3f 1d b6 17 40 ce 1e 14 40 54 3c a0 3f
       1.4300046 2.3704903 2.3143802 1.2518411
000010 c0 10 fd 3f 55 76 e9 3f d0 b9 e4 3f 7f 66 f7 3f
       1.9770737 1.8239237 1.7869205 1.9328154
000020 41 94 cf 3f c4 f2 d3 3f 46 44 e9 3f ae 67 95 3f
       1.6217119 1.6558461 1.822396 1.1672266
000030 89 f0 04 40 fe 45 8f 3f 54 61 f4 3f b8 4d f6 3f
       2.077181 1.1193235 1.9092202 1.9242468
000040 4c 2f 0f 40 96 e3 09 40 06 e1 02 40 40 5a 06 40
       2.2372618 2.1545157 2.0449843 2.0992584
000050 25 98 b0 3f f8 67 f2 3f 35 1b fb 3f 01 a7 12 40
       1.3796431 1.8937979 1.9617678 2.291443
000060 db 14 97 3f 9f 6d 0a 40 35 1f f8 3f 47 56 0c 40
       1.180324 2.1629407 1.9384524 2.192766
000070 4f ea 85 3f 7a 41 02 40 17 85 fc 3f 60 ff b6 3f
       1.046213 2.0352464 1.9728116 1.4296684
000080 57 1c 04 40 41 b3 0d 40 23 02 eb 3f 8e 9b 16 40
       2.0642297 2.2140658 1.8360027 2.3532443
000090 39 e4 03 40 f7 81 e2 3f 56 1c bc 3f f9 49 b8 3f
       2.0608046 1.7695912 1.4696147 1.4397575
0000a0 d1 78 f8 3f a2 6e f2 3f 00 d3 24 40 41 a7 06 40
       1.941187 1.8940012 2.5753784 2.1039584
0000b0 17 aa f9 3f 07 9d c5 3f fe 40 07 40 ef 53 37 40
       1.9505032 1.5438546 2.1133418 2.864498
0000c0 63 df de 3f 5d de 11 40 37 7a 03 40 af 67 1b 40
       1.7411922 2.279197 2.0543344 2.4282033
0000d0 01 f6 f3 3f 5b 35 f9 3f 55 09 cc 3f c0 34 01 40
       1.905945 1.9469408 1.5940348 2.0188446
0000e0 fd 22 b7 3f c0 7d 1c 40 28 e8 ed 3f 52 71 af 3f
       1.4307553 2.4451752 1.8586473 1.3706458
0000f0 f0 14 05 40 da 00 d8 3f 22 99 d8 3f 92 34 29 40
       2.079403 1.687526 1.6921732 2.6438336
000100 33 34 b5 3f a6 01 ea 3f 78 88 1b 40 1a 30 0c 40
       1.4156555 1.8281753 2.4302044 2.190436
000110 ef d8 fa 3f b8 6c bd 3f d9 3c dd 3f d5 4b dc 3f
       1.9597453 1.4798803 1.7284194 1.7210642
000120 4f b2 db 3f 20 1c de 3f 2c 0c 0d 40 94 05 d5 3f
       1.716379 1.7352333 2.203868 1.6642327
000130 6e 24 06 40 02 71 bd 3f d1 5f 0c 40 3c a4 c9 3f
       2.0959735 1.4800112 2.1933482 1.5753245
000140 54 f7 f9 3f c5 8c a0 3f ca 9b cd 3f 51 15 af 3f
       1.9528604 1.254296 1.6063168 1.367838
000150 15 53 dc 3f d3 ea d1 3f fa c5 07 40 ad 5c c5 3f
       1.7212855 1.6399788 2.1214585 1.5418907
000160 b8 12 0b 40 8d 8f f5 3f 29 8f c8 3f 4b c0 0a 40
       2.1730175 1.9184433 1.5668689 2.1679866
000170 e7 5f b9 3f da 40 bd 3f 8a 91 1f 40 2e a7 0f 40
       1.4482392 1.4785416 2.493258 2.2445788
000180 e3 1a 13 40 d0 3b 25 40 28 37 c6 3f a2 64 13 40
       2.298516 2.5817757 1.5485582 2.3030171
000190 47 4e eb 3f b0 0a b1 3f c3 55 cd 3f 96 b6 e4 3f
       1.8383263 1.3831387 1.6041797 1.7868221
0001a0 ff 9a 1a 40 29 23 fa 3f d0 49 ea 3f fb 91 03 40
       2.4157102 1.954198 1.8303776 2.055785
0001b0 f9 c3 15 40 65 50 e8 3f 68 0a c9 3f bc a4 c1 3f
       2.3400862 1.8149534 1.5706301 1.5128398
0001c0 a3 02 04 40 a7 b8 b3 3f 1f 5b da 3f 0d 11 c1 3f
       2.062661 1.4040726 1.7059058 1.5083328
0001d0 2e 5c d0 3f 4e c7 af 3f 80 4c b7 3f f9 57 f7 3f
       1.6278131 1.3732698 1.4320221 1.9323722
0001e0 ad f5 d9 3f c4 c0 04 40 19 03 00 40 a8 42 e0 3f
       1.7028099 2.0742655 2.000189 1.7520342
0001f0 53 24 64 3f 8b 36 ab 3f d0 71 db 3f 45 d1 a7 3f
       0.89117926 1.337602 1.7144108 1.3110739

gamma f4 [128, 128]
000000 0f a2 17 3f a9 1e 4f bb 3e 23 84 bc 3a 29 cb 36
       0.59231657 -0.0031603968 -0.016130086 6.054671e-06
000010 4a 5c 73 bc 5b 8e 8e 36 02 a9 8e bc 9b 9f 67 bc
       -0.014853546 4.248502e-06 -0.017414574 -0.014137174
000020 78 cb ef 36 1d 0e 74 bc b2 3a 89 36 d3 7a 6d bc
       7.146442e-06 -0.014895943 4.089751e-06 -0.014494616
000030 8a 09 22 3e a0 f6 98 bb 99 5d c7 bc 56 f1 eb b8
       0.15823951 -0.004668072 -0.024336623 -0.000112506255
000040 bc e3 91 36 ce b1 be bb fa a3 b4 3f 1b 8c a7 36
       4.3478485e-06 -0.005819536 1.4112542 4.9932983e-06
000050 bc 4e ca 36 8b 43 15 37 84 95 a7 bb a6 4d 75 bc
       6.029235e-06 8.896818e-06 -0.005114259 -0.014972126
000060 a1 51 c3 bb 94 f2 1b bb 35 fc 64 bc 8c dd cc bc
       -0.0059606587 -0.002379571 -0.0139761465 -0.025007986
000070 0d fe de 36 78 13 bd b8 81 86 02 bc 10 ec c8 36
       6.645691e-06 -9.0158486e-05 -0.007966639 5.9879458e-06
000080 06 05 24 3a e6 50 ad ba dd f8 bb bb 9f 62 9d bc
       0.0006256852 -0.0013222962 -0.005736454 -0.019212065
000090 39 45 dc 36 6a bc c0 36 e4 76 a7 36 9f 3f 16 bd
       6.5645695e-06 5.74398e-06 4.9908285e-06 -0.036681768
0000a0 45 70 96 36 ac c7 5e b9 cd c1 d7 bb 28 0d 06 37
       4.4834183e-06 -0.00021245953 -0.006584382 7.990086e-06
0000b0 3d dd 60 bc 32 2f 93 36 d3 a0 d1 38 b2 0a 01 bc
       -0.013724622 4.3864356e-06 9.9958525e-05 -0.007876085
0000c0 c9 48 8f bb 2e 78 1e bb bc 9c 3a bb 42 5e 88 b9
       -0.0043726903 -0.002418052 -0.0028474769 -0.0002601017
0000d0 f7 07 d9 36 f0 87 e2 37 98 9d 90 36 1e 81 ef bb
       6.468031e-06 2.70046e-05 4.3098808e-06 -0.007309093
0000e0 49 6a ca 36 c7 00 b0 bb 44 b0 0b bb 5d 35 b8 3e
       6.0324423e-06 -0.0053711864 -0.002131478 0.35978213
0000f0 92 8e 57 ba 72 f4 d4 bb 1e c7 0f 3e 30 37 fe b9
       -0.0008222844 -0.0064988667 0.14040801 -0.00048487773
000100 fb 95 d5 36 a4 1b b1 36 a1 f0 29 bc 6a 6e 8d bc
       6.3653547e-06 5.278229e-06 -0.010372312 -0.017264564
000110 af 75 21 37 2d 87 84 bb 23 d0 b8 36 d1 df e3 36
       9.623748e-06 -0.0040444345 5.5078576e-06 6.791183e-06
000120 72 4e c8 bc 46 08 30 37 00 2b c6 36 63 92 1f bc
       -0.024451468 1.0492344e-05 5.9058657e-06 -0.009739491
000130 65 ad 7a bc 8d ed d8 36 67 a9 cb 36 d2 3e 5b bc
       -0.01530013 6.464956e-06 6.0695925e-06 -0.013381677
000140 42 d9 03 37 68 5b aa 36 9a c5 13 bc 97 b0 7e 36
       7.858793e-06 5.077036e-06 -0.00901928 3.7951738e-06
000150 c0 c9 aa bc 97 8a a0 bc bc d9 39 37 46 d6 ff 36
       -0.020848155 -0.019597335 1.10775545e-05 7.624537e-06
000160 7e e4 5c ba 21 7c 5a bb f0 3b a4 36 63 5f 8a 3e
       -0.0008426382 -0.0033338147 4.8945585e-06 0.270259
000170 44 6a a8 36 ab 27 99 36 88 20 64 bc fa a9 72 38
       5.019161e-06 4.5643733e-06 -0.013923772 5.78556e-05
000180 1f 42 c7 36 90 b4 4a bb b6 5d 97 bc 83 16 2b ba
       5.9383597e-06 -0.0030930378 -0.018477302 -0.0006526487
000190 11 88 80 bb 03 7b d8 36 13 33 4c ba 3b 73 ed b8
       -0.0039224704 6.451622e-06 -0.0007789593 -0.00011322504
0001a0 0c a5 b0 bc ce 06 54 bc 9a cf fe b9 8e eb 8e bc
       -0.021563075 -0.0129410755 -0.0004860133 -0.017446306
0001b0 2f 17 8e ba 45 d2 10 37 4e 73 66 bc ce 77 89 37
       -0.001084065 8.632026e-06 -0.014065577 1.6387461e-05
0001c0 5e de 81 bc f2 60 b3 36 58 42 0b 37 4b 47 7c bc
       -0.015853103 5.3459016e-06 8.3004925e-06 -0.015397857
0001d0 68 b0 ee 3d eb 8a c8 36 df 4e b5 36 3c 67 15 37
       0.116547406 5.9766367e-06 5.403402e-06 8.905128e-06
0001e0 2f d6 e1 ba be 05 81 bb 5e ec f4 36 17 5c 80 ba
       -0.0017229969 -0.003937452 7.2992834e-06 -0.000979307
0001f0 3c da 7c 3e 4f 8d b3 36 ef 6e 56 bc c0 00 9a 36
       0.24692625 5.351066e-06 -0.013087972 4.589645e-06
000200 7e 19 b0 bc f4 46 64 3f b1 2f 87 bb ed 36 84 bb
       -0.02149653 0.89170766 -0.0041255583 -0.004034868
000210 b5 63 01 bc e1 c3 cb bc 2e 44 8e bc 93 83 7c 38
       -0.007897307 -0.024873676 -0.017366495 6.020402e-05
000220 2c b8 86 ba 20 19 38 bc 77 15 5d bc 4e 1a c6 3d
       -0.0010278276 -0.011236459 -0.013493887 0.09672986
000230 97 b3 1f ba 9c 6f d4 bc 09 93 44 b9 17 4c d2 38
       -0.00060921296 -0.025932126 -0.00018746791 0.00010027753
000240 96 ec 3b ba 31 e0 1e bc 3b 91 a6 bc 4c 53 1d bb
       -0.0007168738 -0.009697006 -0.020332923 -0.0024005948
000250 bc e0 a9 bb 46 10 c9 bc d7 e5 15 bc f6 82 ec bc
       -0.005184261 -0.024543893 -0.009149036 -0.02887104
000260 be 40 83 bc d7 37 2e 3f 0b 8b 91 bb e4 dd 07 37
       -0.016022082 0.68053955 -0.004441624 8.09829e-06
000270 52 ce 14 bc 26 c7 cc bc 88 6a 0c ba 93 cb 0e bc
       -0.009082394 -0.024997305 -0.00053564506 -0.008715528
000280 cc 89 35 3f 52 08 a4 3f 2b 17 05 bc 85 e7 b2 b6
       0.70913386 1.2815039 -0.008123199 -5.331766e-06
000290 a4 fe 8b bc 56 a6 1c bc 35 6d b1 bc 30 ee ea 36
       -0.017089196 -0.009561142 -0.02165852 7.001472e-06
0002a0 9d b7 a8 ba 40 f2 a3 ba 24 4e 97 3c 0b d8 ac bc
       -0.0012872104 -0.0012508109 0.018469878 -0.021099111
0002b0 fa ef 20 bc 74 d1 28 3e 5d 97 c1 bb 5b 29 c8 b8
       -0.00982284 0.1648615 -0.0059079365 -9.544446e-05
0002c0 a0 7e 2b bb 15 d9 24 37 69 54 10 bc fd b7 15 bb
       -0.0026168004 9.825705e-06 -0.008809187 -0.0022845261
0002d0 a7 f1 b4 37 e3 15 c9 ba 9b 73 50 37 68 81 8b 3a
       2.15702e-05 -0.0015341606 1.2424683e-05 0.0010643424
0002e0 45 a2 19 bc 76 49 7e ba d0 87 5b bc d3 1c e6 bb
       -0.009377067 -0.00097002776 -0.013399079 -0.007022479
0002f0 59 79 d0 bc 2c cf 72 bc 87 24 9b bc 5e 72 87 37
       -0.025448488 -0.014819901 -0.018938316 1.614651e-05
000300 d0 a2 a1 bb 8a 47 3c 3e 9e 11 37 b9 62 5c 99 36
       -0.004932739 0.18386665 -0.00017458803 4.57051e-06
000310 21 d6 bb 36 93 25 91 bb 66 ce 8b bb 72 1c ae bc
       5.597962e-06 -0.004429528 -0.004266548 -0.021253798
000320 1b 0b dc 3d 54 09 a3 bb ba 9c b9 bc 1a 7c 87 ba
       0.10744306 -0.0049754772 -0.02265774 -0.0010336668
000330 c7 8f 08 bc 15 63 b2 bc a8 d3 cf bb f4 3f 97 bc
       -0.00833506 -0.021775762 -0.00634237 -0.018463112
000340 3a 2b 7e bb 6e 8c 0b bc d6 fb aa bc 56 9d 63 bc
       -0.003878309 -0.008517368 -0.020872038 -0.013892492
000350 34 36 38 bc 15 93 c3 bc 3c 10 04 37 3f 6c cc bc
       -0.011243392 -0.023873845 7.871593e-06 -0.02495396
000360 b8 54 9e bb 0c 25 46 bc 8b 24 c5 bc 52 a7 6d bc
       -0.0048318766 -0.012093794 -0.024065277 -0.014505224
000370 9c ad 76 bc e8 68 87 bc 81 eb 96 bc 2b ea 12 b8
       -0.01505604 -0.016529515 -0.018422844 -3.50272e-05
000380 53 f9 40 37 16 99 43 3b ae 11 3d bc 80 8f 27 3f
       1.1502142e-05 0.0029845885 -0.01153986 0.6545334
000390 5c 06 ec 36 b3 0f 4a bb 23 a2 b7 37 ed e0 e1 36
       7.0340884e-06 -0.0030832111 2.18908e-05 6.7317073e-06
0003a0 c4 d0 be 36 61 4a ac bc 8b 93 a7 bc ce 74 00 ba
       5.6867448e-06 -0.02103156 -0.020456096 -0.0004900218
0003b0 7a b1 1c bc 85 b7 08 3f 53 98 23 3f 8d c2 59 38
       -0.009563798 0.5340503 0.63904303 5.191802e-05
0003c0 43 54 84 38 5f f5 9b bc 3a d0 cb 36 64 3b 26 bc
       6.3099455e-05 -0.0190379 6.074112e-06 -0.010145996
0003d0 6e ea 05 ba b5 ae 87 37 28 04 d3 bb 75 9a b3 3d
       -0.000510848 1.6174608e-05 -0.0064397044 0.08769695
0003e0 d7 65 eb 36 39 00 0d b9 02 69 7b bc 69 10 63 bc
       7.0154015e-06 -0.00013446891 -0.01534486 -0.013858893
0003f0 78 a8 9b bc a0 a4 b5 37 44 0c e0 bc 84 55 0c bd
       -0.01900123 2.165354e-05 -0.027349599 -0.03426124
