models/encNet_2.py.pkl (torch_old, 900113 bytes, 26 tensors)

weight f4 [256, 1, 1, 1]
000000 57 83 29 3f 41 37 51 3e d2 8c 9a be b6 eb 86 3f
       0.66216034 0.20431234 -0.30185562 1.0540683
000010 27 14 f5 be 1b 07 23 be 77 4f 57 3f 54 f0 2e bf
       -0.47866938 -0.1592068 0.8410563 -0.6833546
000020 77 5e 75 3f 30 c2 3e 3f dd 22 0b 3f e8 86 66 3f
       0.95847267 0.74515057 0.5435007 0.900496
000030 91 ac 45 bf 3f 40 02 bf bc 7b b2 3c 52 3e f3 3e
       -0.7721644 -0.5087928 0.021787517 0.47508484
000040 21 1d 0d 3e 63 2a 3a 3f b3 b1 36 bf 7d af 65 bf
       0.13780643 0.72720927 -0.713649 -0.897209
000050 80 4f ec be 67 66 1f 3f 29 12 ce be ac 7b 45 3f
       -0.46154404 0.6226563 -0.4024823 0.77141833
000060 c9 b9 a7 3c a7 a4 86 3e 36 6b 08 3f cc e4 b1 3e
       0.020474331 0.26297495 0.5328859 0.3474487
000070 e2 d8 0a bf 03 37 83 3f 3d db b5 be e1 2f 04 3f
       -0.54237187 1.0251163 -0.35518828 0.5163556
000080 c5 8d 2f bc 1f 51 0c 3e 48 53 53 bf 4e 7e 20 be
       -0.010714953 0.1370282 -0.8254895 -0.15673181
000090 3a 42 18 3f 3e 2d 33 3f c9 cb 3d bf 74 5c 2c 3f
       0.59476054 0.6999091 -0.74139076 0.6732857
0000a0 97 65 14 be 15 42 10 3f fc 83 49 3f 0b 2d 69 3f
       -0.14491878 0.56350833 0.7871702 0.91084355
0000b0 31 52 29 3f 52 0b 2a 3f cf 2c e3 bc c2 d6 41 3f
       0.6614104 0.66423523 -0.027731327 0.7571832
0000c0 32 d9 2c bf e9 25 1f bf 10 15 08 3f 36 92 2d be
       -0.67518914 -0.6216722 0.5315714 -0.16950306
0000d0 8f b2 3f bf b7 a4 07 3d fc 89 2b bf 91 50 5b bf
       -0.74881834 0.03311607 -0.6700742 -0.8566981
0000e0 b9 0c 64 3f 77 63 69 be 7d e9 e4 be 9e 70 45 be
       0.89081913 -0.22791849 -0.44709387 -0.19281241
0000f0 e0 52 24 3f 2a 5e 25 bf 76 53 f7 3e ba 74 6c 3f
       0.6418896 -0.6459681 0.48305863 0.9236561
000100 46 30 26 3e 05 88 7a 3c 4a fc de be c9 8d d0 be
       0.16229352 0.015291219 -0.43551856 -0.40733173
000110 74 8e 79 bf a8 e1 16 bf eb 09 87 be 61 e6 1c 3e
       -0.9748299 -0.58938074 -0.26374754 0.15322258
000120 41 e8 dd be af 86 e1 be 8d a2 00 bf bb 9a 31 3f
       -0.43341258 -0.44048068 -0.5024803 0.69376725
000130 a8 a9 05 3f bf 29 da 3d f6 e2 51 3f 37 22 b7 3e
       0.52212 0.10652494 0.8198694 0.3576829
000140 b0 c9 1e bf d9 0f 0c bf 8d f8 2b 3e b9 1a 47 3f
       -0.620265 -0.5471168 0.16794033 0.7777515
000150 2b 58 3d 3f 64 de a4 be 96 e3 b4 3e 1e ea 40 be
       0.7396266 -0.3220092 0.35329884 -0.18839309
000160 e1 df 9a be 20 d5 0b bf e4 5b 0d bf de 0f 52 bf
       -0.3024893 -0.5462208 -0.5521834 -0.8205546
000170 f1 a0 73 be b1 c3 ea be cb 75 77 3f f0 4c 00 3f
       -0.23791863 -0.45852426 0.9666411 0.501174
000180 96 33 8d be d9 7a e5 bd 4f 8f 24 bf 72 22 98 3e
       -0.2757842 -0.11205072 -0.6428117 0.2971378
000190 e9 a0 28 3e d9 84 46 3e ac f5 5e 3f f0 66 5c 3f
       0.16467632 0.19386615 0.87093616 0.8609457
0001a0 28 a8 b6 3e d1 5b 44 be 60 98 6f bf e7 92 c0 be
       0.35675168 -0.1917565 -0.9359188 -0.37612078
0001b0 66 5b e2 be d9 bc 3a 3f cb 65 4a bf 24 47 2d bf
       -0.44210356 0.7294441 -0.79061574 -0.67686677
0001c0 75 af 2d be c5 b9 3c bf 68 42 c8 be 76 97 1d be
       -0.16961463 -0.7372096 -0.39113164 -0.15389809
0001d0 f9 61 a0 3e fe 28 a5 bd 5d 6e 6e bf 8c c9 77 bd
       0.31324747 -0.08064459 -0.9313715 -0.060494944
0001e0 3f 9b ae be 80 fd 36 3e 86 a3 96 be b3 b6 57 bf
       -0.34102818 0.1787014 -0.29421633 -0.8426315
0001f0 7a 9d df 3e 6a 12 30 bf f4 1a e8 39 09 61 db be
       0.43674833 -0.687781 0.0004427057 -0.4284747
000200 c0 1e 40 bf 40 d8 58 3f 16 a9 e5 be 23 2d 12 be
       -0.7504692 0.8470497 -0.44855565 -0.14275031
000210 13 9d 93 3e 3c 7a a0 be b6 33 ba 3e 11 ca 78 3f
       0.28830776 -0.31343257 0.36367577 0.9718333
000220 46 09 f7 3e da d9 9a 3e 09 ff 3d be 42 da 3f bf
       0.48249263 0.30244333 -0.1855432 -0.7494241
000230 9d 02 6c 3f 88 8f 1d 3e 93 cc 0c 3f 09 58 76 3f
       0.9219149 0.15386784 0.54999655 0.9622808
000240 bc 0e 62 bf e9 9d b1 be f2 49 06 3e be 2e 53 3f
       -0.8830373 -0.34690788 0.13114145 0.824932
000250 f3 c3 da 3e 46 27 66 3f e5 10 5a 3e e9 4e 26 bf
       0.42727622 0.89903677 0.21295507 -0.6496416
000260 17 fc 53 bf 5e 52 c0 be 64 e8 13 3d da 5b c6 be
       -0.82806534 -0.3756284 0.036110297 -0.38741952
000270 e9 63 96 3e c1 71 08 bf ed e5 48 3f 2e af 2d 3f
       0.293731 -0.53298575 0.7847584 0.6784543
000280 ac 82 4c bf ea 4e fa be f6 dd 54 3e d2 3f 88 3e
       -0.7988689 -0.48888332 0.20787796 0.2661119
000290 9c bd 71 3d 5b 95 63 3d 3b 81 a4 3e 3f e7 5a 3f
       0.059018716 0.05556236 0.32129845 0.85509104
0002a0 5f 47 c0 3e 8f 3e 1a bf 2e 0b 00 3d 09 b7 01 3f
       0.37554452 -0.60251707 0.03126066 0.50669914
0002b0 7d e0 0b bf 5c f5 d6 be 61 be 1f bf a3 8d 93 3e
       -0.54639417 -0.4198407 -0.6239987 0.28818998
0002c0 9a 77 4f 3f 63 ad 56 3d 54 1b 6f bf 7c c4 1c 3f
       0.8104187 0.05241145 -0.93401074 0.6123731
0002d0 c1 8b 6d 3f 4c 1a 08 be c2 d8 04 3e b4 a8 54 3f
       0.9279137 -0.13291281 0.12973312 0.8306992
0002e0 d0 f9 e8 3d 1b 78 b4 3d 5e ae ff be 7c 56 98 3e
       0.11375773 0.08811971 -0.4993772 0.29753482
0002f0 95 75 44 3f cf cb ba be 1b c9 4f 3f 4d 6c 1e bf
       0.76741916 -0.3648362 0.8116624 -0.61884004
000300 5f a4 51 bf 57 2d 44 3f a1 f9 f7 be a1 af 7a 3f
       -0.81891435 0.76631683 -0.4843264 0.9792424
000310 cf c0 58 bf 0f 2f 35 bf 92 9f e8 3e d6 8c cd be
       -0.846692 -0.7077493 0.45434242 -0.40146512
000320 f5 3f d0 be 4a 3a 47 bf d2 89 ad 3e af 8f fe 3d
       -0.40673795 -0.7782332 0.3389421 0.12429749
000330 f9 50 bf be 59 29 6f bf 72 a0 67 bf 88 44 7b 3f
       -0.37366465 -0.93422467 -0.90479195 0.98151445
000340 d4 9f 55 bf d8 6d 47 bf 1c 7a 62 3e 52 f9 62 3d
       -0.83447003 -0.77901983 0.22116894 0.05541355
000350 3b 4a 45 bf 32 33 03 bf d9 d4 15 bf c1 cb 36 bf
       -0.7706639 -0.5124999 -0.58527905 -0.71404654
000360 9d a3 d4 bd b3 a9 2b 3f 34 f0 52 bf 80 e8 25 be
       -0.10382769 0.67055815 -0.8239777 -0.16201973
000370 4a d4 7f 3f 38 e1 08 be 77 79 b8 be cd fd 8e 3e
       0.999333 -0.13367164 -0.3603017 0.2792801
000380 b1 65 97 3e cd 3b 5e 3e c7 68 88 3f 15 13 85 3e
       0.29569772 0.217025 1.0656976 0.2599112
000390 3b dc 8f 3d a8 07 ec 3e 6d a8 87 be b3 81 2b 3f
       0.070244275 0.4609959 -0.26495686 0.6699478
0003a0 2f a9 df 3d 29 d8 8e bc 05 aa 26 3f bd 81 5e 3f
       0.10920941 -0.017437058 0.6510318 0.86916715
0003b0 d7 95 19 3e 22 d9 43 bf c9 1e d8 3e 42 5d 85 3f
       0.14998566 -0.76503193 0.42210987 1.0419085
0003c0 bf 23 4c bf e6 6d 41 be 5b b3 74 3f 1a 47 68 3f
       -0.79742044 -0.18889579 0.95586175 0.9073349
0003d0 7b bf 83 bf bf 25 9d bd 7e 45 a3 3e e7 8f a1 3e
       -1.029281 -0.07673215 0.31888956 0.315551
0003e0 7d b8 97 bd 9f df 2b 3e 0b f2 8d 3e 11 3d 18 bf
       -0.07408235 0.16784523 0.27723727 -0.5946818
0003f0 18 2b 30 bf a0 b2 65 bf e1 43 da be 75 36 f8 3e
       -0.68815756 -0.89725685 -0.42629912 0.48479047

bias f4 [256]
000000 61 58 36 bf 61 95 2f bf 18 d9 24 3f 4e fb 2c bf
       -0.71228606 -0.6858731 0.6439376 -0.6757096
000010 79 80 6d 3f 65 d5 b0 be 44 c4 a6 3e 15 4d b8 be
       0.9277416 -0.34537807 0.32571614 -0.3599631
000020 70 5a 33 3e e8 c6 01 bf b3 99 4b bf 05 34 6f 3f
       0.17514968 -0.5069413 -0.795314 0.9343875
000030 df f3 00 3f ce a3 b9 3e e0 87 01 bf b4 1d 53 3f
       0.5037212 0.36257786 -0.50597954 0.824672
000040 89 7a 14 be e0 c7 5b 3f 82 1c e8 3e eb a6 65 3f
       -0.14499868 0.8585186 0.4533425 0.8970782
000050 b5 ea 63 3f 0f 3f 0c 3f db 83 71 3f 81 33 37 be
       0.8903001 0.5478372 0.9434182 -0.17890741
000060 10 bb 2b bd 75 89 62 bf 6e 9e 37 3f cf b3 df 3b
       -0.041926444 -0.8849099 0.7172612 0.006826855
000070 f2 95 1a 3f 09 68 26 3e c4 a5 13 be c1 0c 8f 3c
       0.6038505 0.16250624 -0.14418703 0.017462136
000080 12 9a 5d 3f 57 2d 49 3f 26 fd 8c be 5b b0 bc 3d
       0.8656322 0.7858481 -0.27536887 0.09213325
000090 98 27 6b bf d6 f6 3d bf 57 44 2d 3f cc ec 85 3e
       -0.9185729 -0.74204767 0.67682403 0.26157224
0000a0 22 75 92 3e a5 3d 65 3f 8b 1e 53 3f f7 0a d6 be
       0.2860499 0.8954719 0.8246848 -0.4180524
0000b0 9e b3 60 bd 37 7f a8 b9 55 63 5d 3b 0f 2c d9 3d
       -0.054858796 -0.0003213824 0.003378113 0.10604107
0000c0 63 e8 63 3f f0 1d 1f 3f ef 20 e3 be f8 35 84 3e
       0.8902647 0.62155056 -0.44361064 0.25822425
0000d0 77 b5 73 3e 3a dc 89 bd 04 05 bb 3e 4e 0a 43 bf
       0.23799692 -0.06731458 0.36527264 -0.761876
0000e0 11 82 38 3f 5e 14 bb be 33 b8 14 3f fa d8 12 3f
       0.72073466 -0.36538976 0.58093566 0.5736233
0000f0 23 32 a1 be fa 55 8d 3e a6 56 41 bf 0a 55 c8 3e
       -0.31483564 0.27604657 -0.7552284 0.3912738
000100 c6 c9 46 be 09 d9 1e bd 81 96 47 3f 56 77 1d bf
       -0.19412908 -0.0387812 0.77964026 -0.6151022
000110 c8 2f be be 46 7e 8d 3e 2f a1 ef be 6e 46 13 3e
       -0.3714583 0.276354 -0.4680266 0.14382336
000120 f8 e6 5a be 60 0c 3b bf fb a8 00 3f 8f 69 cf be
       -0.2137717 -0.7306576 0.50257844 -0.40510222
000130 27 95 4c be 0a 49 de be d2 fc 1b bf 7c 9e 40 bf
       -0.19978772 -0.434151 -0.6093265 -0.7524183
000140 12 15 fe 3e 6c bf 7a 3f 59 41 20 bf 42 6f 68 3f
       0.4962545 0.97948337 -0.6259971 0.90794766
000150 f4 99 ec bd df 67 22 3e fe 14 87 3d e6 bb 56 3f
       -0.11552802 0.15859936 0.06595801 0.8388046
000160 f7 4f db be 86 7a 27 bf eb e0 56 3f 4a 9b 3a 3f
       -0.42834446 -0.6542133 0.8393695 0.728932
000170 2f ae 94 3e 8f 57 24 bf 5d 7e 98 be 18 4e 95 3e
       0.29039142 -0.64196104 -0.29783908 0.29161143
000180 1c 76 97 be ae f1 98 3e 91 89 24 3f ba fc 6e 3e
       -0.29582298 0.29871887 0.6427241 0.23338595
000190 0c df 2f be ca f8 06 3f 04 98 81 be 39 e6 06 bf
       -0.1717493 0.5272337 -0.2531129 -0.5269504
0001a0 e8 9d 70 bf 53 70 f0 be 1b c6 f9 bd b2 7b 21 bf
       -0.93990946 -0.46960697 -0.12195989 -0.6307937
0001b0 aa 27 16 be 55 f6 38 be 66 5e c7 be b2 33 e9 3e
       -0.14663568 -0.18062718 -0.38939208 0.45547253
0001c0 32 3c 24 bf 89 4f 21 3e a3 42 13 bf c5 1b de 3e
       -0.6415435 0.15752997 -0.57523555 0.4338056
0001d0 3d 3f a3 be 48 8d d0 3e be 1b 0b be 1d 8e 1c bf
       -0.31884184 0.4073279 -0.13584802 -0.6115435
0001e0 d2 f3 65 3e 70 00 17 bf 1d 91 20 bf 37 b1 5f be
       0.22456291 -0.5898504 -0.62721425 -0.21844946
0001f0 4f f3 74 3e 29 99 4f bd a1 69 cf be 22 72 1b 3f
       0.2392094 -0.050683174 -0.40510276 0.6072103
000200 ff 07 03 3f 49 ca 09 be 07 24 9e 3e e4 9e ba 3d
       0.51184076 -0.13456072 0.30886862 0.09112337
000210 2c e3 1f 3f 9b 54 45 bf 43 57 6c be 17 22 e2 be
       0.6245601 -0.7708222 -0.23080163 -0.44166633
000220 d9 fb 0b be 69 2f 28 bf 5a 7c ff 3d 52 b8 5e be
       -0.13670291 -0.6569734 0.1247489 -0.2175
000230 6d 5d 66 3f f4 f4 63 3f 99 9c 49 bf aa d4 c2 be
       0.89986306 0.89045644 -0.78754574 -0.38052875
000240 35 1c ba 3e 4f 46 43 bf a8 5c a7 be 0c 6e 57 3f
       0.36349645 -0.7627916 -0.3268788 0.84152293
000250 44 a4 64 be a7 6a 41 bf b6 4a 61 be 1f dc aa bc
       -0.22328287 -0.75553364 -0.22001156 -0.020856915
000260 19 d6 7f 3e 50 85 85 be ac 9b 30 3f e2 4d c6 3e
       0.24984016 -0.26078272 0.68987536 0.38731295
000270 12 a2 ab 3e 8a c3 4c 3e 85 a9 81 be 06 cb ad be
       0.33522087 0.19996467 -0.25324646 -0.33943957
000280 11 ed 4d bf ea 92 3e bd e6 d1 30 bf 1b a1 32 3f
       -0.8043986 -0.046526827 -0.6907028 0.6977708
000290 7e ed 02 3e dc ec 38 3e 33 0d 01 3f 25 66 fb 3e
       0.12785909 0.18059105 0.50410765 0.49101368
0002a0 19 1b 0e 3f df be b0 bd b9 e8 8e 3e ff 68 a0 3e
       0.555101 -0.08630156 0.27911928 0.31330106
0002b0 5d 38 3a be d4 47 09 3f 1e a7 45 3f d4 19 16 3f
       -0.18185563 0.53625226 0.77208126 0.5863316
0002c0 e7 8b d1 bd 60 b4 87 3d 80 87 4f 3f 94 59 be be
       -0.102317624 0.06626201 0.8106613 -0.37177718
0002d0 54 0d c7 be 33 3b 96 3d 8a 39 24 3f 0e b2 0c 3f
       -0.38877356 0.0733551 0.641503 0.5495919
0002e0 40 72 39 bf b0 93 16 3f 65 2e 29 bf 2e 89 2b be
       -0.72439957 0.58819103 -0.6608642 -0.16751549
0002f0 2b 4c 0e 3f b8 11 ad bd 89 31 b3 3e 59 ef 71 bd
       0.55584973 -0.08450645 0.3499873 -0.05906615
000300 f1 31 66 3f 08 29 03 bf 50 fb 69 3f 59 70 1c 3f
       0.89919955 -0.51234484 0.913991 0.6110893
000310 57 34 65 3f 9e 4a ea be 33 72 55 3f 1d 12 ce be
       0.8953299 -0.45760053 0.8337738 -0.40248194
000320 3f fe 66 3e 39 2a fd 3e 38 be 33 bf 26 6a 07 be
       0.22557925 0.49446276 -0.70212126 -0.13224086
000330 f3 14 f2 3e 2e bc 14 bf e7 48 e8 3e 96 de c4 3e
       0.47281608 -0.5809964 0.4536812 0.3845107
000340 3b 38 3d bd 7c ce 6a bd f8 9d bc be 54 25 ab 3e
       -0.046196204 -0.057325825 -0.3683927 0.33426917
000350 26 c6 41 be 07 29 03 3f 61 90 ac 3e cc 66 31 bf
       -0.18923244 0.5123448 0.33703902 -0.6929748
000360 e0 8b 54 3e 2e f0 61 3e 13 1b da be 60 cf 1e bf
       0.20756483 0.22064278 -0.4259878 -0.6203518
000370 f0 6a 0c bf 9a ac 1a bf 52 63 3a bf 31 c1 d7 3e
       -0.54850674 -0.6041962 -0.728078 0.4213958
000380 4f 93 98 be 52 fe 52 bd 1e f0 04 bf 52 bd 00 bf
       -0.29799888 -0.05151207 -0.5192889 -0.5028888
000390 f6 a5 92 bd 6b 1e 85 be 63 c2 4f 3e 06 94 09 3e
       -0.07160561 -0.2599977 0.20288996 0.13435373
0003a0 ba dc 90 be 00 73 45 bf ff 60 30 bf 6d ae 66 3f
       -0.282934 -0.771286 -0.68898004 0.901099
0003b0 c0 52 14 3f 53 27 23 3f 07 83 3b 3f 38 a6 ad be
       0.57938766 0.6373188 0.73246807 -0.33915877
0003c0 04 8e 6a 3e 34 49 40 bf 3b 36 24 bf 83 ec 38 bf
       0.22905737 -0.751117 -0.6414525 -0.7223589
0003d0 eb 09 60 3f 5e 06 92 3e 1d 55 96 be bd fc ca bd
       0.87515134 0.28520483 -0.2936181 -0.09911487
0003e0 ee 43 32 bf 9e 57 d6 be fe 64 d7 bd 83 47 db 3e
       -0.696349 -0.41863722 -0.105173096 0.42827997
0003f0 14 4d a3 3e f7 af f4 3e b1 48 38 bf 48 f9 2b 3f
       0.31894743 0.477905 -0.7198592 0.6717725

weight f4 [192, 256, 2, 1]
000000 22 d8 8a 3c 8f cd 67 3d 90 b4 16 bb 40 51 b8 bc
       0.016948763 0.05659252 -0.0022995807 -0.02249968
000010 43 ab 70 3c fc 11 a1 bc e5 4f 7d 3d 58 12 d5 3d
       0.0146892695 -0.019661896 0.06184377 0.104038894
000020 cf 97 3f bd d5 ea 6f bd 02 04 b3 bc f4 2f af ba
       -0.046775635 -0.058573563 -0.021852497 -0.0013365732
000030 5b 93 e5 bc 04 c5 ed 3b 24 7f aa bc db f2 d9 3c
       -0.028024366 0.007256152 -0.020812578 0.02660506
000040 b5 b2 dc bc 63 f0 9b 3c d9 35 a4 3d e4 e1 90 3d
       -0.026940683 0.019035524 0.08018083 0.07074335
000050 65 05 6a 3d ee d8 bc 3c 9d bc 96 3c bd fb 23 bd
       0.05713405 0.023052659 0.018400485 -0.040035
000060 f2 f0 a5 bc 4f 49 8f bd 64 20 44 bd 6f af 58 bd
       -0.020256493 -0.069964044 -0.047882453 -0.05290168
000070 a9 c7 d8 3c 0a e1 e5 3c f4 4a e8 bb 25 11 38 bd
       0.026462393 0.028061409 -0.0070890132 -0.044938225
000080 e3 a7 81 3c 24 c1 2d 3d 8d e7 5d bc 93 f4 16 3c
       0.015827125 0.04242052 -0.013543976 0.0092135845
000090 62 66 28 bd 3a 92 97 bc ec cc 97 bc 7e 7c e3 bb
       -0.041113265 -0.018502343 -0.018530332 -0.006942331
0000a0 40 8c 2e bd 65 b0 ca bb cd 9a eb 3c 5a 24 06 3d
       -0.04261422 -0.0061855786 0.028760338 0.03274951
0000b0 ce 29 53 b8 0c 39 e5 bb 3f 1e 6d 3d 6d 47 1e 3d
       -5.0345254e-05 -0.006995326 0.057890173 0.038642336
0000c0 83 39 22 bc dc 19 2f 3d a6 93 ec bb 7e 62 a1 bb
       -0.009901407 0.04274927 -0.0072197495 -0.0049250713
0000d0 8e 83 e5 bc a9 c8 af 3c fc 40 26 3d 02 5a 1a 3d
       -0.028016832 0.021457987 0.040589318 0.037683494
0000e0 8f b4 d0 bc f3 97 85 bd be a3 87 bc 79 13 22 bd
       -0.025476722 -0.06523123 -0.01655757 -0.03956935
0000f0 23 58 f5 3b e9 7c 0d bd 7a f8 d6 bc 93 8d c9 3c
       0.0074873134 -0.03454295 -0.02624153 0.02460364
000100 1f b6 c3 3c ad 1c d0 3c 0c 48 c8 bc ea ba 83 bc
       0.023890553 0.025404299 -0.024448417 -0.016080339
000110 aa ea 0e 3c f4 31 59 3c dc 2c 93 bd e6 25 4a bb
       0.00872294 0.013256539 -0.071862906 -0.0030845343
000120 84 53 62 3d 0d a0 77 3c 4a a9 73 3d 45 58 a4 3c
       0.055255428 0.015113843 0.05948762 0.020061621
000130 f5 82 83 bd bf bf 0d ba 80 33 26 bd 39 e9 e4 bc
       -0.064214624 -0.00054072955 -0.040576458 -0.02794324
000140 53 ac cf bc fe 44 ac 3c f2 fc 73 bc 53 5e 1b bc
       -0.025350725 0.021028992 -0.01489185 -0.009482938
000150 7b 70 13 bb 57 4c af 3c 77 06 90 3d 02 27 48 3d
       -0.0022497464 0.021398706 0.07032483 0.048865326
000160 cb 8b d1 bc e8 4a 24 3d fa 13 c9 bb 46 ce 5d bb
       -0.025579354 0.0401105 -0.0061364146 -0.0033844872
000170 1f db aa 3c 6e 0b 4f 3b a1 8f e1 bc b6 e4 92 3b
       0.020856438 0.0031592506 -0.027534308 0.004482831
000180 f6 a4 87 bc 46 57 89 3b a3 05 7a 3b 83 1f a7 bc
       -0.016558152 0.004191312 0.0038150332 -0.020400768
000190 7e 27 e5 3d d1 69 8a 3d 7c 75 93 bc 7c cd 08 3c
       0.11189173 0.06758464 -0.018000357 0.008349773
0001a0 ae 40 09 be c3 7d 09 be a9 3b 81 bd 08 fc 0d bc
       -0.1340358 -0.1342688 -0.063102074 -0.008666046
0001b0 9c ad 91 bd 4c 71 be bd 0d de 68 bc b8 42 a6 bb
       -0.071131915 -0.092989534 -0.014213097 -0.0050738715
0001c0 73 10 39 bd ae 23 89 bc d9 42 19 3d 9e 8b 0c bc
       -0.045181703 -0.016740646 0.037417267 -0.008578209
0001d0 3b 83 73 bc 7d 17 11 3c d6 03 fc 3a 17 fc 46 bd
       -0.014862831 0.008855698 0.0019227217 -0.048580255
0001e0 2d 11 94 3d f2 4d 72 3d 6e f0 ab bd 4a a2 b9 bd
       0.072298385 0.059156366 -0.08395468 -0.09064157
0001f0 43 b9 3e 3b 3f 25 28 3d d7 84 1b 3c 98 c1 93 3c
       0.0029102124 0.041051146 0.009492121 0.018036649
000200 a5 32 68 3c 8f 11 8b bc 25 83 ed 3c 6c 1e 64 3d
       0.014172231 -0.016976146 0.028993199 0.055693075
000210 00 7a 45 3c d5 28 d3 3b c7 97 e6 bc 77 5c 58 3c
       0.012053013 0.0064440765 -0.028148545 0.013205639
000220 03 c7 c3 ba 63 c8 af bc 9f 00 cf bd c8 e3 3d bd
       -0.001493663 -0.021457857 -0.1010754 -0.046359807
000230 9b 3a 2d 3d d4 37 37 3d 50 6b 5d 3c 21 df a5 bc
       0.04229222 0.044730976 0.013514355 -0.020247998
000240 f5 7f ed 3c 42 7d b0 bc 74 23 30 3d e8 7e 16 3d
       0.028991679 -0.021544103 0.04300256 0.03674212
000250 1d ce 8a 3b d9 0e 08 bd a4 e2 39 3d d9 3c 8e 3d
       0.0042359964 -0.033217285 0.045382157 0.069451995
000260 57 1e 16 3d 01 10 e9 3c f8 07 9e bc 8b 61 3f bc
       0.036650028 0.028450014 -0.01929091 -0.011680971
000270 1a 9a 8c 3d c8 4c f1 3d 8b d7 81 3d 69 95 a1 3b
       0.0686533 0.11782223 0.0633994 0.004931141
000280 66 b0 3a bd e5 5b 94 bd 13 7c 9f bc 82 52 85 bd
       -0.045578383 -0.0724409 -0.019468343 -0.06509878
000290 42 20 81 3c 83 fa 51 3c 44 0b f0 bc 1b 17 2e bb
       0.015762452 0.012816074 -0.029302247 -0.0026564065
0002a0 00 94 7b 3c 1e 9b 43 3d 63 28 b3 bd 0b f0 77 bd
       0.01535511 0.047755353 -0.087479375 -0.060531657
0002b0 8b ad a7 3c 2d a4 7f bc 7c bb 75 bd 7b a5 8d bc
       0.020468494 -0.015603107 -0.059993252 -0.017290821
0002c0 2c 0a ea 3b ff 27 d2 bb 75 7a 57 bc bc 08 89 bb
       0.007142326 -0.0064134593 -0.013151755 -0.0041819494
0002d0 cf 4f 87 bd 62 c8 70 bc 6d fc ea ba aa 6d 8d bd
       -0.06607019 -0.0146962125 -0.0017928012 -0.069056824
0002e0 b0 bd c9 bb 3a 83 41 bd 9a f1 a3 3c 69 de 01 3c
       -0.0061566457 -0.047244288 0.020012666 0.007926562
0002f0 21 c1 80 3c ee 5b 87 3d b1 e9 46 3c a1 f5 a7 bc
       0.015717091 0.06609331 0.012140677 -0.020502867
000300 ad 39 93 bb 83 ba 0c 3b b0 e7 60 ba 67 00 34 bc
       -0.0044929595 0.0021473474 -0.0008579446 -0.010986424
000310 15 32 50 bd 52 a1 39 bd 0d 35 9d 3a f3 01 96 bc
       -0.050829012 -0.045319863 0.001199396 -0.018311476
000320 d1 84 15 bc fd 12 ba b9 dd 65 61 bd 38 dc d2 39
       -0.009125904 -0.00035490832 -0.055028785 0.00040218397
000330 40 b2 cd 3b 88 2f 89 3d 69 6d ce 3d 73 c3 aa 3d
       0.0062773526 0.06698519 0.10079462 0.0833806
000340 66 d6 d1 3c 6d d0 12 3c 8c 8d 40 3d 8d e4 fa 3c
       0.025614928 0.008960825 0.04700999 0.03062656
000350 51 a0 eb bb 3a 97 1e 3d c6 1f 9b 3c 45 ad 4f 3d
       -0.007190742 0.03871844 0.01893605 0.050702352
000360 ff 3d 21 3d ad 62 78 3c 18 9c 2f 3c fe 15 82 3d
       0.039365765 0.015160245 0.010718368 0.06351851
000370 18 9b 0f bd dc bb fa bc 5a 80 c7 bc 4a fc 9d bd
       -0.03506002 -0.030607156 -0.024353195 -0.07714136
000380 1c 0e 14 3d 33 e2 8e 3c 53 9a 13 be c2 dc 3a be
       0.03614627 0.017441845 -0.14414339 -0.18248275
000390 a3 0a 59 3b 0f c2 d1 bc 72 4d da 3b 82 27 2c bd
       0.0033117912 -0.02560523 0.006662064 -0.042029865
0003a0 1f 66 4a 3d 64 eb d4 ba 81 70 11 3c 12 4f 3d bd
       0.049413797 -0.0016244468 0.008876921 -0.046217985
0003b0 96 0c 31 3d 06 1c 7a bc a1 49 17 3d b4 5e 00 bc
       0.043224894 -0.01526547 0.036935452 -0.007835079
0003c0 98 10 fb bb b0 9d 6c bd 8e ce 9f 3a 1e 58 9b bc
       -0.0076618902 -0.05776757 0.0012192295 -0.018962916
0003d0 f7 22 58 3d 03 a7 36 3c dd f0 f2 3c 61 01 2d 3c
       0.05276772 0.011148217 0.029655868 0.010559411
0003e0 99 72 ee 3b 04 3e 7d 3a fc 0b 14 bd 0f cc e4 3c
       0.0072768447 0.0009660425 -0.03614424 0.027929334
0003f0 80 56 6e bb 0c de 02 3d 00 c9 68 bb ce 39 27 bd
       -0.0036367476 0.03195004 -0.0035520196 -0.04082661

bias f4 [192]
000000 db a7 4b 3c 75 c2 aa bb da d5 2d bd 1d 75 b0 3c
       0.012430157 -0.0052111694 -0.042440273 0.021540219
000010 97 c6 61 bc 21 75 5a 3c 6d a6 3c 3c 82 c2 56 3d
       -0.013780258 0.01333359 0.011514288 0.05243159
000020 91 76 d7 ba 55 1f 7d bd 2e 4c 1b 3c c2 68 60 bd
       -0.0016438534 -0.06179746 0.009478612 -0.054787405
000030 f4 f9 1b 3d c2 6a 82 bc 10 b9 b5 bc 57 16 5d bd
       0.03808017 -0.015920047 -0.022182971 -0.053976383
000040 cd 4d 5f bd f5 b7 ca bc 71 6e d6 bc 9c 09 f8 bb
       -0.054517556 -0.02474592 -0.02617571 -0.007569505
000050 a6 a2 a4 3b 36 67 8c bd e0 88 79 bd b0 a1 63 bb
       0.005024272 -0.068556234 -0.06092155 -0.0034733824
000060 fa eb 09 3c 4f 30 49 bd 5a ea 5c bd 3d 41 e6 3c
       0.008418078 -0.049118336 -0.053934433 0.02810728
000070 f4 d1 c3 39 75 46 89 bc e4 14 52 3d 90 b3 2d bd
       0.00037349726 -0.01675723 0.051289454 -0.042407572
000080 b1 85 d2 3c fa 85 47 bd b4 68 bb bb c5 ea 83 3d
       0.025698515 -0.048711754 -0.0057192687 0.06441263
000090 9d 3d 8a bc 96 a2 9f 3d 90 05 70 3a c9 06 60 bd
       -0.016875083 0.07794683 0.00091561023 -0.05469397
0000a0 c7 e5 4c 3d 89 70 6d bd a5 c0 fa 3b bb bc 05 bc
       0.05002382 -0.05796865 0.0076523595 -0.008162673
0000b0 5e d8 56 bc 9e 50 4a bc 79 a5 0a bd e9 ba c9 3c
       -0.013113109 -0.012348322 -0.033849213 0.024625259
0000c0 72 34 04 3c ea ca 07 bd 75 50 b4 3c d9 49 45 3d
       0.008069145 -0.0331525 0.022011021 0.04816613
0000d0 5d 19 b5 bb 63 4a 54 bd 26 af 8f 3c 0f cd ce 3c
       -0.005526705 -0.051828753 0.017539572 0.025244264
0000e0 97 3a 21 bc 05 8d 87 3d 0f cc 7b bb b7 0c f5 bc
       -0.009840629 0.06618694 -0.003842119 -0.02991329
0000f0 35 28 9d bb d4 1d c2 3c 76 df dd 3c ca 91 56 3d
       -0.004796053 0.023695864 0.027084094 0.05238513
000100 10 cb 5c 3b a6 65 f6 bc d3 69 f0 3c 04 fc a3 bc
       0.003369037 -0.030077767 0.029347336 -0.020017631
000110 21 ce bb bb c6 96 85 bc ee 5c 4c bd 89 3d bd bb
       -0.0057313596 -0.016307246 -0.049893312 -0.005775158
000120 68 0d 10 bd 4f c1 9d 3d a5 cd 0f 3d dd 15 c6 3c
       -0.035169035 0.07702886 0.035108227 0.024180347
000130 1b d6 15 bc 7a a4 c0 3c b1 39 08 bd 3e 21 41 3c
       -0.009145285 0.023515929 -0.033258144 0.011787711
000140 0c f3 8d 3d c2 12 06 bd 03 9d 40 3c 21 b8 0d 3d
       0.06931123 -0.032732733 0.0117561845 0.034599427
000150 86 70 c3 bb 75 35 5e bd f9 2d 40 bd 4b 04 ae bc
       -0.0059643416 -0.0542502 -0.046918843 -0.021242281
000160 49 1a de 3c 8e c3 7d 3b c2 e4 f4 bc 5f 0b 95 39
       0.027112143 0.0038721296 -0.029894236 0.00028427967
000170 5b d5 02 bd 13 70 aa bc 54 56 f1 bc 3f b7 bc bc
       -0.031941753 -0.020805394 -0.02946011 -0.023036597
000180 11 f0 99 3c 5c 01 a3 bc b6 2b d1 bb 27 e0 4a bc
       0.01879123 -0.01989811 -0.0063833846 -0.012382544
000190 6c af c0 bc 18 b5 71 bd 00 21 ad bc c1 ee 85 3d
       -0.023521148 -0.059010595 -0.0211339 0.06539679
0001a0 2b e2 14 bd a5 af 25 3d 6f 2e 38 3d 26 6f 47 bd
       -0.036348503 0.04045071 0.044966158 -0.048689984
0001b0 c0 6e 82 bc f1 5c 9a 3b b9 b3 9a bc 76 fe eb bc
       -0.01592195 0.0047107865 -0.018884527 -0.02880786
0001c0 8a 99 26 3a 01 c8 57 3a 2e 8b 80 3d 04 d1 55 3c
       0.00063552766 0.0008231402 0.062765464 0.0130503215
0001d0 b0 4c 3c bc 45 6b c3 3c 6e 1f 17 bd 43 ad a7 bc
       -0.011492893 0.023854861 -0.036895208 -0.02046836
0001e0 a0 70 96 bc 7e a0 3a 3b fe 31 2f 3d f9 94 35 3d
       -0.01836425 0.0028477008 0.042772286 0.044331525
0001f0 9e 72 01 3b 05 39 58 bd 89 27 5e bd 55 3e 4b bc
       0.0019752155 -0.052788753 -0.054236922 -0.012404998
000200 dc 00 5e 3c a7 ae cd 3c a0 cc 7f 3c 0b b5 46 bd
       0.01355001 0.025107695 0.015612751 -0.0485125
000210 c7 9f fb bc 1b 31 23 bc 17 6c 1e 3d e3 ed 5b 3d
       -0.030715836 -0.009960438 0.0386773 0.053693663
000220 b2 18 46 bc fb 20 d8 3c b4 22 12 bd 46 80 fa bc
       -0.012090849 0.026382914 -0.035677627 -0.030578744
000230 90 05 54 bd 10 04 07 bd ae 91 aa 3c e2 44 50 bc
       -0.051763117 -0.03296286 0.020821419 -0.012711735
000240 c2 36 09 bc c9 34 1f bd 57 59 ab 3c f6 50 ae bb
       -0.008374872 -0.0388687 0.020916624 -0.00531971
000250 49 ea 84 3d 38 19 02 3d 7d 81 fd bb c4 5f 0b bd
       0.06489999 0.03176233 -0.0077363835 -0.034026876
000260 da 12 b5 bc 60 26 ea 3b 86 9d 95 3d a1 2e fb b8
       -0.022103716 0.007145688 0.07305436 -0.00011977298
000270 f8 0d af bc e7 50 e6 bc e2 9e eb 3c e3 83 4a bd
       -0.021368966 -0.02811475 0.028762285 -0.049442183
000280 79 ca 11 3d 76 31 1b 3c 18 ca 3a 3d d2 1e 6c bd
       0.035593484 0.009472242 0.045602888 -0.05764658
000290 f3 eb 44 bd f9 7d 13 bd 83 2b 14 3d 5f 34 e5 bc
       -0.04807658 -0.03600881 0.03617431 -0.027979074
0002a0 dd 51 2a 3a 2e 7a eb bc bb 98 88 3d ec 78 d0 ba
       0.0006497184 -0.028744783 0.06669756 -0.0015905178
0002b0 8a 74 49 3c 21 7e b8 3c 60 46 01 3c 5a c4 13 bc
       0.0122958515 0.02252108 0.007890314 -0.009018982
0002c0 a6 13 d6 bc 49 6c 21 3d d7 60 e6 bc 53 d8 b7 3c
       -0.026132416 0.03940991 -0.028122349 0.022442019
0002d0 bb 77 c1 3c 0b b3 41 bd c4 7e 72 bc ee 8f 17 3d
       0.023616662 -0.04728989 -0.014800731 0.037002496
0002e0 56 cf 2b 3d 2e 53 aa 3c 65 cd 2d 3c 78 e0 fb 3c
       0.041945778 0.020791616 0.010608052 0.030746683
0002f0 3f c0 26 bd f8 85 13 3d 61 ed 43 bd de 57 80 bc
       -0.040710684 0.036016434 -0.047833804 -0.015666898

weight f4 [128, 192, 1, 2]
000000 e4 86 f3 3c cd 7d 93 bc 0f aa d2 3d 4f 98 dc 3d
       0.029727407 -0.018004322 0.10286342 0.10771238
000010 31 d6 db 3c ff ef 12 3b ce 77 6d 3c 90 dc d4 3c
       0.026835533 0.002242088 0.014493896 0.025984079
000020 94 ec 11 bd a1 22 83 bc 5d ad c5 3c a8 25 b1 3a
       -0.03562601 -0.016007723 0.024130518 0.0013515251
000030 fd b0 10 3d 62 a4 5e 3d b4 1e f8 3c cd 7f bc 3b
       0.03532504 0.054355986 0.030288078 0.0057525397
000040 67 92 3d 3c 94 87 94 bc 82 61 a5 3c 22 f6 23 bc
       0.01157055 -0.018131055 0.020188097 -0.010007413
000050 33 c7 c5 3b 34 78 2c bd 9a 2f 2c 3d 7a 05 84 3d
       0.0060357093 -0.042106822 0.042037584 0.06446357
000060 cb f4 06 3c c4 04 cf 3c b5 36 73 bd 69 cb ce 3c
       0.008237074 0.025270827 -0.059378345 0.025243478
000070 c9 e1 de bd f1 06 89 bd f6 8a 97 bc b0 90 cd bc
       -0.10882909 -0.06690777 -0.018498879 -0.025093406
000080 f2 b8 b5 bc cd c1 37 bd 01 e3 23 bd d9 f7 5a bd
       -0.022182915 -0.044862557 -0.04001141 -0.053459022
000090 28 51 27 bc 74 79 11 bc 38 30 1d bd d3 46 04 3d
       -0.01021222 -0.008879054 -0.038376063 0.032294106
0000a0 db e1 a7 bc df cf 9d 3c 69 30 51 3b 20 88 bd ba
       -0.020493438 0.01926416 0.0031919724 -0.0014460124
0000b0 5a cd 2e bd 3a 96 a5 bc c6 b2 2c bd 85 78 a3 bc
       -0.042676307 -0.020213235 -0.04216268 -0.01995493
0000c0 89 df fc 3b 20 76 6e 3d 8c b5 2c bc d7 70 00 3c
       0.007717077 0.05821812 -0.010541331 0.007839403
0000d0 f7 58 6e bd 60 35 b6 3c 93 bf cf 3d 1e c9 56 3d
       -0.058190312 0.022242248 0.10143962 0.052437894
0000e0 25 0f 93 bd fd 42 77 bd dd 63 61 bd 7a 76 a7 bb
       -0.07180623 -0.06036662 -0.055026878 -0.005110559
0000f0 0d b6 80 3d ae af c1 3c 64 45 2d bc 5d b6 96 ba
       0.062847234 0.02364334 -0.010575626 -0.001149844
000100 94 cb ef bb 58 31 8b bc a4 f3 d4 3b 77 dd b1 bc
       -0.0073179696 -0.016991302 0.006498771 -0.021712048
000110 00 40 68 3d fb 8a a8 3d 88 f3 5c bd 41 6d 3e bd
       0.05670166 0.082296334 -0.053943187 -0.04649091
000120 b1 a9 5d 3d d2 89 4f bc c5 64 1b bd 27 27 40 bd
       0.05411691 -0.012667136 -0.0379379 -0.04691234
000130 0c dc e6 3d f0 88 0b 3e 13 92 74 bc aa 61 82 39
       0.11272439 0.13626456 -0.014927405 0.00024868298
000140 fe ba 13 bd 7d b2 e0 bc 4d ec f5 3c 75 87 8d 3c
       -0.036067 -0.02742886 0.030019904 0.017276505
000150 87 8d 86 bd 5e 8e 01 bd b5 47 0c bd 5e e6 55 bb
       -0.06569963 -0.031629913 -0.034248073 -0.003263853
000160 46 05 ec 3d 23 72 a6 3d ed 33 2b 3b 0c e2 34 bd
       0.11524443 0.081272386 0.002612348 -0.044160888
000170 07 a7 60 bb b1 b7 85 3d 84 59 25 3c 2d 5b 14 3d
       -0.0034279244 0.06529177 0.010092143 0.036219765
000180 92 2e d9 3c 05 3e 91 3c 66 f4 85 bd 27 9e 5e bd
       0.026511464 0.017729769 -0.06540756 -0.054350045
000190 b0 69 09 3d 09 ff f8 3c ad aa a8 3d ba 81 e9 3d
       0.033548057 0.030395048 0.08235679 0.114016965
0001a0 09 33 9c 3b bf 07 e0 bb 71 35 b9 3c 4c de 36 3c
       0.004766826 -0.006836861 0.02260849 0.011161398
0001b0 c3 b5 27 3d 69 3e c5 3c 10 d4 71 bc 76 28 24 bc
       0.040944826 0.024077611 -0.014760032 -0.010019412
0001c0 38 85 19 bd d0 f3 1e 3b 91 20 a0 bd cd 95 68 bd
       -0.037480563 0.002425421 -0.078187115 -0.056783486
0001d0 08 4a 47 3d 74 02 3b 3d 44 91 47 3d 5f a5 f8 bc
       0.048654586 0.045656636 0.04872252 -0.030352293
0001e0 29 7a 99 3d 39 4b 34 3d e6 f0 0f 3d 8d cf 16 3d
       0.07494003 0.04401705 0.035141848 0.03681903
0001f0 f3 ad 6e 3d 4d 62 71 3d e4 52 93 3d 77 41 a4 3d
       0.05827136 0.058931638 0.071935445 0.08020299
000200 09 c4 98 bb 48 49 d0 ba 20 8f f5 bc b3 18 12 3c
       -0.004662041 -0.001589098 -0.029975474 0.008917022
000210 3d 51 22 bc 72 bc 59 3d 60 05 3f 3c 4c 17 dc bc
       -0.009907064 0.05315823 0.011658996 -0.026866578
000220 36 f4 00 bd 9f 9a dc bc 59 0b e1 3c 5f 85 c3 bc
       -0.031482898 -0.026929198 0.027471231 -0.023867307
000230 a5 cd 5c bd ab bc 1b bd f6 76 37 bd 7e 1f 54 3c
       -0.053907055 -0.038021725 -0.044791184 0.012946961
000240 69 6d 17 bd 73 29 72 bd ff b8 14 bd 6f 23 80 bd
       -0.036969576 -0.05912156 -0.03630924 -0.062567584
000250 99 89 f3 bd 51 2f 22 be 3a 84 3c bc be c7 cf 3c
       -0.11891479 -0.15838362 -0.011506135 0.0253638
000260 6d 8b 38 3d 5e 80 dc 3c 4c 4a 95 bc f0 5c 4e 3c
       0.04505484 0.026916679 -0.018223904 0.0125954
000270 92 55 a0 bc c1 25 02 3b c5 86 7b ba df d6 80 bc
       -0.019572053 0.001985893 -0.00095949724 -0.015727459
000280 ac 4b 5e bd c2 e1 5b 3b 14 17 32 3d 49 82 31 3d
       -0.054271385 0.003355131 0.04347904 0.04333714
000290 0d 47 95 3b bb 49 80 bd e1 f3 2f 3d 4f e2 d6 bb
       0.004555589 -0.06264063 0.04295719 -0.00655774
0002a0 ec 60 09 bd 6e 91 7d 3d 7c fc 11 3b ea 21 81 3d
       -0.033539698 0.06190627 0.0022275737 0.06305297
0002b0 d1 96 16 bd c6 f1 b7 3c 36 4a 7c 3d b7 06 1a 3d
       -0.036764923 0.022454154 0.06159421 0.03760406
0002c0 59 7c 21 3d 70 26 a4 3b 66 34 be 3d da d5 68 3c
       0.039425228 0.005009465 0.09287338 0.014211142
0002d0 69 46 92 bd 39 20 85 bd 8d 0e 10 3e cc 5e e0 3d
       -0.07142336 -0.065002866 0.1406805 0.10955581
0002e0 bc 07 4a 3d 27 ba 37 3d 57 ca 29 bd 44 2b e5 bc
       0.049323782 0.044855263 -0.041452732 -0.027974732
0002f0 60 64 bc 3c eb 48 33 3d 74 a6 35 3c 80 99 8e 3b
       0.022997081 0.043770712 0.011087049 0.0043517947
000300 0b 82 af bc a8 ed 79 bd b3 de d6 3c 87 59 50 3d
       -0.021424314 -0.061017662 0.026229238 0.05086663
000310 64 13 33 bc 87 dc 92 bd 59 28 89 3c 27 8c 82 3c
       -0.010929916 -0.071709685 0.016742872 0.01593597
000320 4e d0 c4 bb b2 13 fb 3c c7 8e 1f 3c ca 03 26 bd
       -0.006006277 0.03064904 0.009738631 -0.040530957
000330 7e bc 28 bc 55 f0 21 bd 46 86 a6 bd e2 0d e6 bc
       -0.010298846 -0.03953584 -0.081310794 -0.028082792
000340 e3 15 01 3d c3 96 9a bb bd 43 83 3d b3 e3 ca 3d
       0.031515013 -0.004717679 0.064094044 0.099067114
000350 d8 41 1f 3d 7e 82 ad 3d c7 66 1c 3d 64 80 4f 3d
       0.038881153 0.08472155 0.038183954 0.050659552
000360 a6 73 cf 3d 53 71 03 3d 32 df 1a 3d 71 ac 80 3c
       0.1012948 0.032090496 0.037810512 0.015707226
000370 0f 98 8a bc c8 c3 c7 bb 5d c0 d0 3c e0 fd 10 bd
       -0.01691821 -0.006096337 0.025482351 -0.035398364
000380 64 a0 02 bc 86 ae 0d bd 11 f0 c2 bc a3 19 00 3c
       -0.00797281 -0.034590267 -0.023796113 0.007818612
000390 e1 26 0c 3d f1 1b ed 3b 57 bc a5 3c fc ab 99 bc
       0.034216765 0.007235997 0.020231409 -0.018758766
0003a0 09 24 e2 3b 4f 09 a5 bc 49 7a 93 bd a0 a8 d3 39
       0.0069012684 -0.02014604 -0.072010584 0.00040370692
0003b0 3c 5e ae b9 a0 c2 e3 bc 47 9b fe bc fd bf 34 3d
       -0.00033258076 -0.027802765 -0.031079901 0.044128407
0003c0 e1 4f b1 3c 9b 4a d8 3b 4f f5 01 3d aa 14 4a 3c
       0.021644535 0.0066006905 0.031728085 0.012334028
0003d0 25 27 a8 3d a2 00 e2 3d 0d 98 0e 3d 6c 4e a3 3d
       0.08210591 0.11035277 0.034812976 0.07973942
0003e0 8c ca 81 bd 9d 57 0f bd f5 fd f8 bc 16 ff 1b 3d
       -0.06337461 -0.034995664 -0.030394534 0.038085066
0003f0 6b d0 a1 bd 09 0b f0 bc a5 cf 2a 3d 9d 12 4b bc
       -0.07901081 -0.029302137 0.04170193 -0.0123945745

bias f4 [128]
000000 d0 12 94 3c 1a c1 8c 3b cd fa ef bc 29 4a 41 bc
       0.018075377 0.0042954804 -0.029294396 -0.011797466
000010 ce ef 13 bd 50 82 c2 3b dd d4 be 3b f9 36 87 39
       -0.036117367 0.0059359446 0.005823715 0.00025790164
000020 49 e3 05 bd 8a f2 5f 3c a1 57 a9 bb 84 b1 2a 3d
       -0.03268746 0.013668666 -0.005167917 0.0416732
000030 8b 7f 87 bd e0 ad fa 3c e8 60 d4 3d 7b 52 bb bc
       -0.06616124 0.030600488 0.10370046 -0.022866478
000040 0b 88 e4 3d 07 bc a6 bd 92 5c 16 3d 0f d8 e2 bc
       0.11158761 -0.08141332 0.036709376 -0.027690915
000050 4d e8 9b 3c 99 e5 53 bd 09 60 e5 3a 01 6b fd 3d
       0.019031668 -0.051732633 0.0017499934 0.12373925
000060 28 a7 0a 3d 5b cc d7 3c e8 f4 76 bd db 90 a7 bc
       0.03385082 0.026342561 -0.060292155 -0.020454815
000070 ab 83 2a b9 1d 06 60 bc 1e 27 65 bd e7 f0 51 bd
       -0.00016261514 -0.0136733325 -0.05594551 -0.051255133
000080 c6 53 94 bc d6 67 87 3c 1b 41 dc 3c c6 1b a4 3d
       -0.018106353 0.016529005 0.026886513 0.0801311
000090 a3 29 2f bd 96 d9 6b bd 85 3b b6 3b 4a d4 9a bb
       -0.042764317 -0.057580553 0.0055612945 -0.004725014
0000a0 4c 8a 84 3b 2b c9 01 3c 67 b2 46 bd cd 7b 76 bd
       0.0040448066 0.007921497 -0.04850998 -0.06017666
0000b0 5d 1b 2c bc 59 6d 23 bd 51 8a 9c bd ed 7e f7 bb
       -0.010504571 -0.039899204 -0.07643569 -0.0075529725
0000c0 c3 8f 89 3c bd 14 69 3c 31 26 3e 3c 93 1e f1 bc
       0.016792184 0.014226136 0.011605785 -0.029433524
0000d0 7b 81 2d 3b 08 b3 8e 3d fc 4a 14 bd 5e 67 a5 3d
       0.0026474881 0.06967741 -0.036204323 0.08076356
0000e0 50 12 2d 3d 15 38 f1 bc 05 71 36 3c 1e 9b a0 3d
       0.042253792 -0.029445687 0.011135344 0.07842086
0000f0 db 67 8e bc e2 ab 95 bc 85 d7 b2 3d 95 f6 b9 3d
       -0.017383507 -0.018270437 0.08732513 0.09080235
000100 68 73 38 bd de c4 00 3d 4d cc e6 bc 52 23 cb bb
       -0.045031935 0.031437747 -0.02817359 -0.006199279
000110 92 59 6d 3d d7 f8 07 3d 9b f4 88 bc df f1 2f 3c
       0.05794675 0.033196297 -0.0167182 0.010738819
000120 0c db 0d 3d 67 7c 1d bc ac 9b a4 bd 22 96 a2 bd
       0.034632728 -0.009612179 -0.080375046 -0.07938792
000130 22 fd e8 bc 28 78 fc 3b b2 c1 3d bd 82 1d 2b 3d
       -0.028441016 0.0077047534 -0.0463273 0.041776188
000140 00 fe 63 3c 25 96 07 3c 2f 2e 11 bc 1e a5 96 3d
       0.013915539 0.008275543 -0.008861109 0.07355712
000150 83 ee 9b bc 0b 15 30 bd 65 df 8b bc bf 11 99 3d
       -0.01903463 -0.04298882 -0.017074296 0.07474088
000160 9e 02 a5 bc 90 84 8b bd c3 1b 82 bd 06 74 84 bc
       -0.02014285 -0.06812394 -0.063529514 -0.016168606
000170 c7 83 e3 bb 71 72 35 3d dd 4c 83 bc bd 37 c7 bc
       -0.0069431993 0.044298593 -0.016027862 -0.02431857
000180 f0 74 60 bd 32 aa 0e bd 2b 11 62 bd 2d 1e 73 3c
       -0.05479902 -0.03483028 -0.055192154 0.014838737
000190 b8 f6 3e 3c 75 ee a3 3d 79 e1 90 3a 57 cc 4d bd
       0.011655502 0.080044664 0.0011053524 -0.0502437
0001a0 4a 0a c8 3d 55 f6 25 3d e5 1f be bc 95 fc 25 3d
       0.097675875 0.040518124 -0.023208568 0.040524084
0001b0 9f 83 30 bd 59 3f b3 bd 55 bd 3f 3c 1e 07 8c 3c
       -0.043094274 -0.08752317 0.011702855 0.017093237
0001c0 9a 50 23 3d 6f 8c 29 bd 2f 92 07 3d e1 86 a7 3d
       0.03987179 -0.041393694 0.033098396 0.08180023
0001d0 6e 45 b4 bd 94 d4 21 bd 93 a1 ef 3a 2c 86 dc 3d
       -0.08802305 -0.03950937 0.0018282406 0.10767779
0001e0 18 02 41 bd 63 d5 03 bd ab dd 02 3c c0 29 2e bb
       -0.047121137 -0.032185923 0.00798742 -0.0026575178
0001f0 dd a9 f3 bc 07 11 c0 3d 2e 0f 4b bd 41 dd cd 3d
       -0.029744083 0.09378248 -0.049575023 0.100519665

beta f4 [128]
000000 25 78 7c 3f b4 92 8f 3f 0c 24 8a 3f ab 9b 88 3f
       0.98620826 1.1216645 1.0792251 1.0672506
000010 6c 60 92 3f f5 e5 87 3f 65 05 7e 3f f7 2f 81 3f
       1.1435676 1.0617052 0.9922698 1.0092763
000020 ee d9 7f 3f 3c 82 85 3f 2c 6d 86 3f 2e f0 80 3f
       0.9994191 1.0430369 1.0502067 1.0073297
000030 25 dc 51 3f 0d 55 82 3f 00 98 6f 3f bd 4c 8e 3f
       0.8197654 1.0182205 0.9359131 1.1117169
000040 cb 24 83 3f 2d 77 88 3f 6b 50 79 3f 9b 01 82 3f
       1.0245603 1.066137 0.97388333 1.015674
000050 64 f7 86 3f da 3f a3 3f d6 ec 91 3f 66 ac 7e 3f
       1.0544248 1.2753861 1.1400402 0.9948181
000060 88 a3 81 3f 50 4f 88 3f 58 fa 7d 3f 38 cc 78 3f
       1.0128031 1.0649204 0.9921012 0.97186613
000070 f5 2a 94 3f 16 27 7c 3f 14 74 81 3f 27 d2 7c 3f
       1.157561 0.9849714 1.0113549 0.9875817
000080 54 7d 85 3f 3a 00 8f 3f ed a2 80 3f 85 2d 69 3f
       1.0428872 1.1171944 1.0049721 0.9108508
000090 87 44 88 3f 4f ab 65 3f 25 48 89 3f 52 b6 84 3f
       1.0645913 0.8971452 1.0725142 1.036814
0000a0 d3 32 87 3f 9e da 81 3f ec c6 81 3f 98 a0 8f 3f
       1.0562385 1.0144842 1.0138831 1.1220884
0000b0 c4 d4 90 3f 6b d5 82 3f 4c 50 84 3f ec 24 88 3f
       1.1314931 1.022138 1.0337005 1.0636268
0000c0 9f 44 86 3f a6 dc 8c 3f 9a db 82 3f 6f 70 7f 3f
       1.0489691 1.1004837 1.0223267 0.99780935
0000d0 cd 31 7b 3f 4e 20 81 3f 46 7a 81 3f 0c 80 80 3f
       0.98122865 1.0087984 1.011544 1.0039077
0000e0 31 5d 81 3f 17 58 80 3f 89 73 87 3f 17 42 7c 3f
       1.0106565 1.0026883 1.0582134 0.98538345
0000f0 09 26 7f 3f 9c 82 88 3f 9d 00 80 3f 1a cc 7c 3f
       0.9966741 1.0664859 1.0000187 0.98748934
000100 f5 8e 83 3f 1b 15 81 3f c2 3b 7b 3f ce dd 72 3f
       1.0278002 1.0084566 0.9813806 0.948697
000110 53 ef 7f 3f 89 ab 76 3f c5 83 88 3f c9 3a 82 3f
       0.99974555 0.9635549 1.0665213 1.017419
000120 db f6 74 3f bf fd 84 3f af fb 85 3f 72 d1 8a 3f
       0.9568917 1.0389937 1.0467433 1.0845168
000130 01 1f 82 3f 67 60 80 3f 36 84 82 3f 20 b4 81 3f
       1.0165712 1.002942 1.0196598 1.0133095
000140 32 41 8d 3f 79 49 4e 3f 9e f2 82 3f 01 4d 7f 3f
       1.1035521 0.8058086 1.0230291 0.99726874
000150 b0 f2 67 3f 22 b4 4f 3f 45 eb 82 3f 7f 38 7b 3f
       0.90604687 0.81134236 1.0228049 0.9813308
000160 56 38 8d 3f 1d a3 8d 3f 08 4d 78 3f 1a 7f 93 3f
       1.1032817 1.1065403 0.9699254 1.1523163
000170 ae 77 88 3f 68 2c 6c 3f 9a 7f 85 3f 32 88 93 3f
       1.0661523 0.9225526 1.0429566 1.1525939
000180 1a 6f 88 3f 27 03 8a 3f 88 99 87 3f d0 33 96 3f
       1.0658906 1.0782212 1.0593729 1.1734562
000190 92 78 7e 3f df 7a 7c 3f 15 28 89 3f 44 74 87 3f
       0.99402726 0.98624986 1.0715357 1.0582356
0001a0 d5 f4 77 3f e3 82 80 3f 7c 4f 8d 3f 1b 52 80 3f
       0.9685796 1.0039943 1.1039882 1.0025057
0001b0 2a ef 50 3f f8 ba 89 3f ed cb 80 3f 6f 73 81 3f
       0.81614935 1.0760183 1.0062233 1.0113353
0001c0 52 6f 83 3f 6e ce 8a 3f 7b a1 79 3f 30 ec 7a 3f
       1.0268347 1.0844247 0.97512025 0.98016644
0001d0 31 37 80 3f c9 38 94 3f f8 b1 7e 3f 0f eb 7e 3f
       1.0016843 1.157983 0.9949031 0.9957742
0001e0 04 d6 8b 3f 29 41 80 3f 35 14 82 3f 88 63 83 3f
       1.0924687 1.0019885 1.0162417 1.026475
0001f0 b2 7e 94 3f 59 ad 78 3f f5 ba 4b 3f 69 ef 76 3f
       1.1601164 0.9713951 0.7958215 0.9645906

gamma f4 [128, 128]
000000 d9 56 a4 3e cd 97 fd b8 77 73 86 b8 1c 5c 74 bb
       0.3209751 -0.00012092255 -6.411125e-05 -0.0037286347
000010 b7 6b e0 b8 50 13 c4 3e 15 09 f9 bb 11 2e 8f bc
       -0.00010701216 0.38295984 -0.0075999596 -0.01747802
000020 84 1f cd bb 6d d6 15 bc 7a 8c 29 b9 c1 72 34 bb
       -0.0062598605 -0.009145361 -0.00016169428 -0.002753422
000030 40 9d 94 bb c3 56 53 bc 37 bd ab bc 3e e6 fc bc
       -0.004535347 -0.012899104 -0.020964248 -0.030871507
000040 91 11 6e ba 27 11 31 bc a6 c5 d9 bc 48 83 21 bb
       -0.0009081597 -0.010807312 -0.026583504 -0.00246449
000050 32 65 1a ba 9d 93 b0 bc 02 f8 82 bc 0a c6 85 bb
       -0.0005889713 -0.021554762 -0.0159874 -0.004082446
000060 25 39 8e bb 96 62 18 37 20 c1 9d 3e 3e b0 ac bc
       -0.0043403083 9.08286e-06 0.30811405 -0.021080133
000070 bf 5b 23 bd 42 8e 13 bb 14 fb 4a 3c e4 14 78 bc
       -0.039882418 -0.0022515212 0.012388963 -0.015141699
000080 e2 db 4e 3c 1d 7d c4 ba 09 8e 71 3e cb b7 8f ba
       0.012625666 -0.00149909 0.23589338 -0.0010964809
000090 e8 79 25 bc 64 d0 2c 3e 97 5e dd b9 0e bf 8a bb
       -0.0100998655 0.1687637 -0.0004222288 -0.0042342013
0000a0 a4 e6 95 b6 55 87 3e bc 8d 90 1a bd 4b fb f8 bb
       -4.467396e-06 -0.011628945 -0.03773551 -0.007598316
0000b0 24 08 bc 36 f4 28 c0 bb cd 8c 56 bb 87 3a a9 bb
       5.6037843e-06 -0.005864257 -0.0032737732 -0.0051644477
0000c0 c4 41 ab bb 3d 7c b9 b9 6f 9d 92 bb aa a5 f4 bb
       -0.0052263457 -0.00035378514 -0.004474334 -0.0074660378
0000d0 62 c3 60 bb c0 a6 db b9 20 f4 78 bc 54 a6 3d bc
       -0.0034296145 -0.00041895173 -0.015194923 -0.0115753
0000e0 fe 1a 1b bc db ba 37 3d 9a df d7 b9 ee 2d 49 b9
       -0.009466885 0.044855934 -0.00041174592 -0.00019185964
0000f0 15 05 79 b9 1f b5 54 3d 23 6f dd ba d0 07 c0 ba
       -0.00023748384 0.051930543 -0.0016894083 -0.0014650766
000100 07 1f df 3d 87 b2 fb bc 2f c2 b8 bb 1e f4 db bc
       0.1089459 -0.030724777 -0.005638383 -0.026849803
000110 3e 6a a4 bc 3c 78 13 ba 8b 5d 31 3e a9 c2 85 bc
       -0.020070191 -0.00056255213 0.1732084 -0.016328173
000120 7b ae 12 ba d5 da c6 bb c9 63 f7 3c b5 81 b9 bb
       -0.00055954576 -0.0060685673 0.030198948 -0.0056612142
000130 77 96 1b bc 3a 3a b8 bc cd ea 9d bc 27 78 7b bc
       -0.009496323 -0.022488702 -0.019277 -0.015348471
000140 c9 4f e2 bc 50 e8 28 ba eb 0e 99 bc db 5e 42 bc
       -0.027625935 -0.00064433087 -0.018683871 -0.011863436
000150 7f 9d 21 bc 5d de cb ba e1 29 78 bc e4 af 45 bc
       -0.00986421 -0.001555394 -0.015146703 -0.012065861
000160 b2 e2 96 36 7d 6a ba bc 64 c8 ac bc dd de 0f 3d
       4.496739e-06 -0.022755856 -0.021091647 0.03512465
000170 d8 47 bc ba e4 a4 7f 37 bf 97 27 bb a7 eb 45 bc
       -0.0014364673 1.5237576e-05 -0.0025572625 -0.01208011
000180 51 70 1f bd 96 29 6b bb dd a1 16 ba a2 59 57 bc
       -0.038925473 -0.0035882941 -0.00057461654 -0.013143929
000190 21 40 0b bc 82 86 90 bb 4d 32 62 3d 3a 00 5c 36
       -0.008499176 -0.004410566 0.05522375 3.2782687e-06
0001a0 b7 ad 64 bb 7b da 2e bc b4 f3 5c bc 2b 46 58 bc
       -0.0034893581 -0.010672207 -0.013485838 -0.013200323
0001b0 47 c3 3f bc be c9 ba b9 1d c6 8e ba c6 30 16 bb
       -0.011704273 -0.00035626994 -0.0010892783 -0.0022917255
0001c0 18 c9 21 b9 9f 01 d2 ba d3 7e e8 ba 77 c0 48 bc
       -0.0001542907 -0.0016022212 -0.0017737992 -0.012252918
0001d0 1d 86 70 ba 0c 29 c1 b9 63 46 aa bb f6 8f 82 bb
       -0.0009175258 -0.0003684241 -0.005196379 -0.0039844466
0001e0 44 6d e8 bb 65 62 28 bb 14 8a e8 bc c2 19 dd bc
       -0.0070931036 -0.0025693413 -0.028386153 -0.026989821
0001f0 91 e9 3e bb af 9b a2 ba 87 0d dd bc 5f 64 ec b8
       -0.0029130916 -0.0012406016 -0.02698399 -0.000112720525
000200 25 e2 85 3e 97 d7 ca 3e 98 3d 9b bc 54 02 66 3e
       0.26149097 0.39617607 -0.018950269 0.22461826
000210 66 4a 0b 3c 65 29 fd 35 74 33 a5 36 b7 d2 e8 36
       0.008501625 1.8862016e-06 4.923373e-06 6.9386692e-06
000220 b1 42 fc b8 5d 7c 3f 36 96 b3 08 bc d1 fc 91 3e
       -0.000120287186 2.8533607e-06 -0.008343598 0.28513196
000230 8a 5e a3 b9 57 5e 83 3e 3f 0c 8c 3e 7a bd 10 38
       -0.0003116022 0.25657913 0.27353093 3.450874e-05
000240 d8 38 54 bc a4 8f fc ba 0c 41 89 3e 7c a0 4d bc
       -0.012953006 -0.0019268882 0.2680744 -0.0125504695
000250 7a 8c 23 36 07 6c 14 bc ee 41 c2 b7 b9 7f a1 3e
       2.437066e-06 -0.009058959 -2.3157303e-05 0.31542757
000260 fa 89 d4 37 0b 6c 80 3a 11 11 07 3e 09 bf a7 3e
       2.533662e-05 0.0009797824 0.13190104 0.32762936
000270 b9 f2 87 ba 53 b8 02 bc 91 4a da bb f7 6c 4c bc
       -0.001037202 -0.007978517 -0.006661721 -0.012477151
000280 3a 96 2a 3b 70 62 85 3d f6 74 81 3e be b0 8a 37
       0.0026029483 0.06512916 0.25284547 1.6533184e-05
000290 73 02 87 3c d4 0d c9 3c fc ca f6 b8 52 a4 84 3e
       0.01648066 0.024542727 -0.00011768003 0.25906616
0002a0 e0 fb 9a bb 70 8f ec b8 a0 2e b0 36 09 74 df 37
       -0.004729733 -0.00011280074 5.2506366e-06 2.6637705e-05
0002b0 71 b9 7e b9 46 4b 20 3c 0d 4e 7d 3e 28 78 67 36
       -0.0002429241 0.009783572 0.24736805 3.4491623e-06
0002c0 90 01 79 3e 90 5d 87 b7 8f 3a c0 b9 83 02 63 3e
       0.24317002 -1.6136823e-05 -0.00036664723 0.22168927
0002d0 f3 93 96 37 64 3e 7e 39 c8 97 74 3d 04 a3 d6 bb
       1.7950288e-05 0.0002424657 0.059715062 -0.0065501947
0002e0 50 14 fc 36 fe 83 f8 bb cc c6 2c bc 3e 71 38 37
       7.51255e-06 -0.007584094 -0.010545444 1.0993621e-05
0002f0 38 62 65 3e 2c b6 9a bb ef cf 78 bb 3b e8 d4 3e
       0.22400749 -0.0047214236 -0.0037965735 0.41583428
000300 3e ca 5a 36 b2 2b 73 3e 26 dd 7b 3e 09 9b 9a 3e
       3.2602252e-06 0.23747137 0.2459608 0.30196407
000310 2a e2 42 ba 19 9c 89 36 f4 57 29 36 d5 d8 e8 36
       -0.0007434214 4.1010903e-06 2.5234158e-06 6.9393814e-06
000320 6d b3 af bb 47 e6 76 3e d3 aa 28 37 c3 1e d3 3a
       -0.0053619654 0.24111281 1.0053353e-05 0.001610719
000330 bd 76 bf b7 02 6f d0 3e ca 88 80 3e 15 e1 8d bb
       -2.2824266e-05 0.40709692 0.25104362 -0.0043298104
000340 39 d7 f7 bb 1f 37 4a bc 73 e2 84 3e f2 26 86 3e
       -0.0075634983 -0.012342243 0.25954017 0.26201588
000350 18 89 a9 3e e7 7e 1e ba 81 58 7f 3b ef af d3 37
       0.33112407 -0.00060461316 0.0038962665 2.5235086e-05
000360 05 1d c8 ba 49 4e 26 bc d0 d1 4d bc 41 ae d6 b9
       -0.0015267438 -0.010150501 -0.01256223 -0.0004094709
000370 4b c2 82 36 78 ee aa 3e 9e fc 18 36 ec a3 ca ba
       3.8969206e-06 0.33385062 2.2796808e-06 -0.001546023
000380 ef 34 16 3c 8e 0e 99 3a 35 46 c6 bb 1a 8b a7 3a
       0.009167894 0.0011677311 -0.00605085 0.0012782544
000390 ff 94 d2 b5 d0 6d fe 37 c9 3c bd 3c 33 54 8e 36
       -1.5689583e-06 3.0330295e-05 0.023100274 4.241732e-06
0003a0 ab f2 f8 bb 43 43 ef bb 06 69 8f bc 9e ba 88 3e
       -0.0075972877 -0.0073017194 -0.017506134 0.26704878
0003b0 a3 80 5b 3f ca c5 20 3d 0d 99 9e 3e ef b4 62 36
       0.8574316 0.039251126 0.30976143 3.3781942e-06
0003c0 d8 3e 55 bc a2 05 eb 36 a9 77 15 bc 43 b6 1b b9
       -0.013015471 7.0042015e-06 -0.0091227675 -0.0001484985
0003d0 b1 95 80 3d db 9d b8 b8 ae fd 5d bc 42 88 b3 3e
       0.06278551 -8.8032066e-05 -0.0135492515 0.35064894
0003e0 f2 1e bb 3b 20 a2 6e 3e b6 ce 82 3e 3b 44 2c b8
       0.005710476 0.23304033 0.25548333 -4.107154e-05
0003f0 aa 1a 3a 3b 57 cb 99 3e ed b9 9c bc 09 a3 c0 3e
       0.002839724 0.30037948 -0.019131625 0.37624386
