models/encNet_2.py.pkl (torch_old, 912850 bytes, 20 tensors)

weight f4 [256, 1, 1, 1]
000000 26 44 e0 3e 29 36 57 bf 53 b7 4a bf a9 d1 e0 be
       0.43801993 -0.84067017 -0.7918598 -0.43909958
000010 e6 5d 29 bf 80 8d 33 3d db 01 02 bf 73 9a c3 3d
       -0.661589 0.043836117 -0.5078408 0.09550943
000020 a4 88 85 bf 64 15 aa 3f ab b0 22 3f 6d 51 17 3f
       -1.0432324 1.3287778 0.63550824 0.5910862
000030 2e 94 95 3f 99 56 3d 3f 77 b4 43 bd df ff 2b bf
       1.1685846 0.7396026 -0.047779527 -0.67187303
000040 1e de 60 be d9 b8 42 bf b9 40 ec bd 57 cf dc be
       -0.21959731 -0.76063305 -0.11535782 -0.43126938
000050 03 bb 5e 3e 0c 99 c3 3f b0 f4 a4 bd 3a 72 9e bf
       0.21751027 1.5281081 -0.08054483 -1.2378609
000060 77 f3 8f be 10 49 d5 3e 4f f7 aa be 67 c1 4e bf
       -0.28115436 0.41657305 -0.33391806 -0.8076386
000070 aa c2 ae 3e 9d 5c ef be 1e fd 05 bf d6 c6 0f c0
       0.34132892 -0.46750346 -0.5233935 -2.246511
000080 6e e4 4a 3f be 8c b3 bf 5b fc 59 bf e9 8a a8 bf
       0.79254806 -1.4027326 -0.8515069 -1.3167392
000090 76 1b 3b 3f e8 7c 04 be 63 a0 c1 bf 29 57 cc 3e
       0.7308878 -0.12938273 -1.5127071 0.39910248
0000a0 d9 6f 85 bf c3 78 31 bc 7e c3 be bf a4 2d 80 bf
       -1.0424758 -0.0108320145 -1.490341 -1.0013928
0000b0 82 27 97 3e 82 8e ae be 47 43 ae 3f 70 c3 cb be
       0.2952233 -0.340931 1.3614281 -0.39797544
0000c0 79 ad 9f 3e 20 b7 a6 3f 47 7a 1e bf dd c0 c4 3e
       0.31187037 1.3024635 -0.6190533 0.38428393
0000d0 7a 76 88 3f 37 92 be 3f 08 b5 82 3a 54 66 b1 3f
       1.0661156 1.4888371 0.0009972164 1.3859353
0000e0 57 60 2e bf 91 a6 1e bf 47 65 c1 bd 4f c2 85 3f
       -0.6811575 -0.6197291 -0.09443145 1.0449923
0000f0 ba 32 00 bf 44 46 41 3f f9 71 1a be 10 97 4f bf
       -0.500774 0.7549784 -0.1508254 -0.8108988
000100 51 ad c3 3f 8e 4d a2 bf 6d 23 57 3f e4 4a 34 c0
       1.5287267 -1.2679918 0.8403843 -2.817071
000110 16 1c 67 3e 50 81 b4 bf 1e 31 36 3f 7c 20 2b bf
       0.22569308 -1.4101963 0.71168697 -0.6684644
000120 48 e1 ac 3f 88 c9 13 bf 0c a8 0a bf 5a 82 a1 3f
       1.350625 -0.5772939 -0.5416267 1.2617905
000130 31 79 e4 bd a9 35 50 3f 70 77 ce 3f 0b 07 9c 3c
       -0.11155928 0.8133188 1.61302 0.019046327
000140 66 5a ad 3f a2 14 a6 3f 82 0d 01 bf 6b 8b be 3f
       1.3543212 1.2975047 -0.50411236 1.4886297
000150 3f 43 26 bf 55 8b 88 3f e1 51 7b 3f 3b f4 22 3f
       -0.6494636 1.0667521 0.9817181 0.63653916
000160 e4 76 3d 3f de 0b ed 3c 17 58 1d bc 1c 98 4e be
       0.7400954 0.028936323 -0.009603522 -0.20175213
000170 02 4b 8c 3f 82 64 15 c0 63 15 57 be fb fb 17 bf
       1.096039 -2.3342595 -0.21004252 -0.59368867
000180 06 20 c4 3f 46 5c 79 bf 6a 46 47 3e 81 53 9f 3e
       1.5322273 -0.97406423 0.19460455 0.31118396
000190 f2 93 42 bf 8e 09 f2 bf e0 e5 4a bf b7 39 17 3f
       -0.76006997 -1.8909166 -0.7925701 0.5907244
0001a0 9e e0 d7 be 74 ce 6b be 92 0f 65 be c2 c8 a9 3f
       -0.42163557 -0.23027974 -0.22369221 1.3264391
0001b0 0f 54 b9 3d 09 52 33 3f c5 60 da bd 5a cd 99 3e
       0.09049236 0.7004705 -0.106629886 0.30039483
0001c0 30 ff 7c 3e 83 43 cb be 72 f5 9e bf e3 1f 37 bf
       0.24706721 -0.39699945 -1.2418654 -0.7153303
0001d0 dc 18 8d be fe 58 7f 3f e4 82 00 be 55 95 a2 bf
       -0.2755803 0.99745166 -0.12549931 -1.2701823
0001e0 23 9e 68 bf 9d 09 f3 3e 1e dc ed bf aa 7e 3e be
       -0.908663 0.47468272 -1.85828 -0.18603006
0001f0 1f 1e 19 3f 5a 87 20 3f b0 0a de be 88 41 4e bf
       0.59811586 0.6270653 -0.4336753 -0.8056874
000200 84 3f 82 bf 2e bb 84 3f 6c cc 79 bf 53 d1 a4 bf
       -1.0175633 1.0369623 -0.9757755 -1.2876381
000210 cc 79 a6 3f 16 9c 58 bf b1 92 9a bf 60 d0 58 bf
       1.300592 -0.8461317 -1.2076017 -0.84692955
000220 8f 7e b8 bf a5 a7 14 bf 87 fd 2c bf 8e 17 df be
       -1.4413623 -0.58068305 -0.6757435 -0.43572658
000230 ef e9 04 bf e6 58 1e 3f c5 19 a9 bf 79 b2 c9 be
       -0.51919454 0.618544 -1.3210989 -0.39393976
000240 46 f7 85 bf 09 92 52 3f f0 e0 8c 3f 9b b7 ae be
       -1.0466087 0.8225408 1.1006145 -0.34124455
000250 f0 d5 bf be 9e 88 ae bf 49 f2 c2 be 71 e6 d4 be
       -0.3746791 -1.3635442 -0.38075474 -0.41582063
000260 45 75 1c 3f 11 b2 90 3f ed 03 47 bf fc ff 9d 3e
       0.6111644 1.1304342 -0.77740365 0.30859363
000270 16 91 6e 3f 0e bf 9b be a5 be 34 3f cd 07 33 bf
       0.93190134 -0.304192 0.706034 -0.6993378
000280 2a 10 6e bc 23 05 8b 3f 9f 3a 7c be c9 c8 2c bf
       -0.014530221 1.0860943 -0.24631737 -0.67493874
000290 12 23 9b 3e e9 28 b9 bf 62 9c 04 3f fa d3 a7 bf
       0.30300194 -1.446561 0.5180112 -1.3111565
0002a0 14 24 f2 be 4f 1d 87 3f a2 5b 4c 3e 84 4b 78 3d
       -0.4729315 1.0555819 0.1995683 0.060618892
0002b0 25 24 8e bf c6 aa 2c be 7d 3e 2c bc 33 c4 6e bf
       -1.110478 -0.1686202 -0.010512945 -0.93268126
0002c0 2f ea 02 bd 8b 68 db be c3 5d f7 bd ee 93 c4 3e
       -0.031961616 -0.42853197 -0.120784305 0.3839411
0002d0 7b e3 68 bf eb b4 2d bf 56 a3 a8 3f 2c 92 8c be
       -0.9097211 -0.67854184 1.3174846 -0.2745527
0002e0 db 96 6a bf 68 be 9d 3f 87 48 87 bf 17 51 9c 3f
       -0.9163644 1.2323732 -1.0569009 1.2212247
0002f0 7c 72 4f bf 7d 0c b7 bc 87 a5 fe 3e 08 b1 49 3e
       -0.81034064 -0.022344822 0.49735662 0.19696438
000300 ad 34 41 3f 85 0c fa bd 06 20 0c bf c4 24 ea be
       0.75471 -0.12209419 -0.54736364 -0.45731175
000310 91 95 2a bf 0a 87 94 3f aa 6d 11 bd bc 3e d6 3c
       -0.6663447 1.1603711 -0.035504974 0.026152961
000320 55 5b a1 3d 01 03 bf bf db 41 49 bf 8b 23 fd bd
       0.07878748 -1.4922792 -0.7861611 -0.12360295
000330 ed 4a d3 be e7 db 77 bf ae 9c b1 3f 2a bf 99 3d
       -0.412681 -0.9681992 1.387594 0.07507165
000340 d7 9a 21 be 63 5e b2 3d 48 78 48 bf 75 04 4f 3f
       -0.15781723 0.08709409 -0.78308535 0.80866176
000350 21 1a 79 3f 5c 28 b2 3f e1 ed b6 bf 69 c1 ce 3e
       0.97305495 1.3918567 -1.4291345 0.40381935
000360 9f 26 be 3f eb 1c 5e 3f 42 2a 9f bf c5 27 b7 bf
       1.4855536 0.86762875 -1.2434771 -1.4309012
000370 f3 c0 97 3f 96 5b 00 3e 97 a2 d3 3e dc d6 a7 3e
       1.1855758 0.12534937 0.41334984 0.32781112
000380 71 45 2c bd 84 b5 c2 3c 7b 20 37 3f 88 df 7f bf
       -0.042058412 0.023768194 0.71533936 -0.99950457
000390 91 ae 80 3f 8e 77 a7 bd 16 e8 d1 be 04 8c 66 3f
       1.0053273 -0.081771 -0.4099738 0.90057397
0003a0 a0 92 18 bf 14 5c 23 bf 8f 51 9a 3f e5 ab 03 3f
       -0.5959873 -0.63812375 1.205614 0.51434165
0003b0 f2 78 82 bf ef f0 2e 3f 25 7a a0 3c 72 22 49 3f
       -1.019316 0.68336385 0.019589493 0.78568184
0003c0 a9 8b 19 bf 29 90 27 3f 1e f6 d7 be 13 b6 8c 3f
       -0.5997873 0.65454346 -0.4217996 1.0993065
0003d0 2d 8e be 3d 6c 4d bf 3f c7 c7 01 3f 22 87 2d bf
       0.09304462 1.4945502 0.5069546 -0.6778432
0003e0 7c 1c f3 be da b2 80 bc 87 37 e5 3e 97 c6 4f bf
       -0.4748267 -0.015710283 0.44768927 -0.811624
0003f0 65 c6 7b 3e 7e 5e 09 3e af 9b 4b 3d d2 dd b0 3e
       0.245874 0.13414952 0.04970902 0.34544235

bias f4 [256]
000000 85 92 e4 be 74 1e e0 be 95 82 47 be e4 1b 0d bf
       -0.44643036 -0.43773234 -0.19483407 -0.5512068
000010 e7 64 f7 bd b6 5f e2 bb 04 f3 1b 3f 4e 43 9f be
       -0.120797925 -0.0069083823 0.6091769 -0.31106037
000020 45 03 7b bd cb 39 ad 3c 7e ef 27 bf c2 2b e4 3e
       -0.061282415 0.021145722 -0.6559981 0.44564635
000030 c6 d0 f0 3e 88 ca 8a bb 86 e9 17 bc f2 56 05 be
       0.47034281 -0.0042355694 -0.009271985 -0.13021448
000040 c0 80 f1 be 56 36 ec 3e 5c f3 ec bb d7 6b df 3e
       -0.4716854 0.46135205 -0.007231159 0.43636963
000050 ff 83 4f 3e 1b f3 81 3e 5f c6 15 bc 90 23 a6 bd
       0.20265196 0.25380787 -0.009141534 -0.08112252
000060 6e 09 8f 3e b9 ee eb 3d c9 d9 8b bc 87 61 5b be
       0.27936882 0.11520142 -0.017071621 -0.21423922
000070 3f 65 b2 be 46 07 f0 3e 41 ac 06 3f e2 b2 28 3e
       -0.3484287 0.4688055 0.5260659 0.16474488
000080 96 b1 90 bb d9 fc ca 3e ef 39 a1 bb 47 cf 52 be
       -0.004415701 0.39646032 -0.0049202363 -0.20586883
000090 89 e5 3f bf 3d 7b 74 bb 9e 47 20 bc bd b9 e1 be
       -0.7495962 -0.00373049 -0.0097827 -0.4408702
0000a0 3c af f2 3e ac f8 8d bb f0 c1 9c 3e be e1 39 bf
       0.47399318 -0.0043326225 0.30616713 -0.7261008
0000b0 5b ee 9d be 12 21 c9 3e f9 d7 d4 ba 49 04 32 bd
       -0.30845913 0.39283043 -0.0016238681 -0.043461118
0000c0 06 43 fd b9 81 63 9f 3e ae 3b 59 bb 19 5c f1 3e
       -0.00048305857 0.31130603 -0.0033147144 0.47140577
0000d0 09 e7 cf ba 53 21 36 bb 07 31 08 bc f4 89 1b be
       -0.00158617 -0.002779086 -0.00831247 -0.15189344
0000e0 68 d4 7a 3e 08 08 20 3f 63 cd 24 3e db f1 29 bf
       0.24495089 0.62512255 0.16093974 -0.6638467
0000f0 9e 74 00 3f d6 2c 44 bf 52 bb 0a bc fb c8 4f 3f
       0.50177944 -0.76630914 -0.008467512 0.81166047
000100 0d 98 04 3d 7c 4f 6e bc 11 a6 26 bd 2a e3 b1 3d
       0.03237157 -0.014545318 -0.040685717 0.08685906
000110 30 b8 6d be d7 4f 0e be f6 64 0f bf 82 95 cf 3e
       -0.23214793 -0.13897644 -0.5601343 0.40543753
000120 f6 69 3a ba a8 44 15 3f 0e 59 1e bf 4a 12 9f be
       -0.00071111263 0.58307886 -0.61854637 -0.3106864
000130 be 17 1d bc 56 23 56 bf d5 ac c9 39 17 df e1 be
       -0.00958818 -0.8364767 0.00038466477 -0.44115517
000140 41 dc 52 3c 34 b7 6b bb 59 31 01 3f 0f 27 c4 bb
       0.012869895 -0.0035967352 0.50465924 -0.0059861015
000150 22 35 26 3f 22 78 47 3d c6 1d 5b bb b5 e3 f1 3d
       0.64924824 0.048698552 -0.0033434494 0.1181101
000160 46 38 57 3e ea 72 e5 3d d4 ba 96 bb ff d4 d6 bc
       0.2101756 0.11203559 -0.0045999084 -0.026224611
000170 4b 12 2e bb 52 3a 31 3e 90 1c 03 bc 93 50 18 3f
       -0.0026561196 0.17307404 -0.008002415 0.59497947
000180 98 40 a6 39 20 62 ea bb 87 32 9b be 22 58 0b bf
       0.00031710113 -0.0071528107 -0.30311987 -0.54431355
000190 84 e7 43 3f 3e 66 73 3e 24 5d 8e be 36 b2 db be
       0.7652514 0.23769471 -0.27805436 -0.42909402
0001a0 14 4e 13 3f 49 0a 21 bb f4 df 65 3e 39 b5 60 be
       0.5754101 -0.002457278 0.22448713 -0.21944131
0001b0 e7 b6 d8 bd ce e9 06 3f 9a c0 12 bc 41 50 01 bf
       -0.10581761 0.5270051 -0.008957053 -0.5051308
0001c0 d8 52 87 be 5e 29 18 bf ad 66 7f bd 0d 41 38 3f
       -0.26430392 -0.5943812 -0.06235378 0.7197426
0001d0 8f 76 8f 3e 11 83 0f bf 88 22 94 3e b6 52 f8 bd
       0.2802014 -0.56059366 0.28932595 -0.12125151
0001e0 04 07 0d 3f 74 d8 cc 3c 09 92 73 3e 85 8d 8d bb
       0.5508883 0.025005557 0.23786177 -0.004319849
0001f0 2c 32 be ba 2f df 7f be 19 87 de 3e f2 79 4e 3f
       -0.0014510802 -0.24987482 0.43462446 0.80654824
000200 68 44 c1 bd 4e 0e 12 3f 39 64 94 bc 21 36 ad bd
       -0.094368756 0.5705308 -0.018114196 -0.0845759
000210 1f 0a 7c 3e 32 b6 a6 be 8f 9c dc 3e 03 bb 6f be
       0.24613236 -0.3256088 0.43088195 -0.23411183
000220 9b 12 96 3e 7c c2 33 3f 5b 7a 3a be ab 49 93 be
       0.2931107 0.70218635 -0.18210737 -0.28767142
000230 80 6c 96 be cd 38 21 bf 8c 28 bf 3e 23 24 ca 3e
       -0.29379654 -0.62977296 0.37335622 0.39480695
000240 7c 6a 5f bd 49 06 56 bf 2c 28 87 be 3b 8c 7a ba
       -0.05454491 -0.8360334 -0.26397836 -0.0009557639
000250 d7 b1 13 bb e6 6c 3b be 62 35 c3 3e 14 58 d5 3e
       -0.002253642 -0.1830326 0.38126665 0.4166876
000260 02 20 20 bf 48 bf c8 bb 03 3b 47 3f 68 1d a6 be
       -0.6254884 -0.006126318 0.7782442 -0.3244431
000270 90 db cb 3d 8c 48 9c 3e 2b 86 3a bf e4 43 33 3f
       0.099539876 0.305241 -0.72860974 0.7002547
000280 c5 b2 84 bc b2 c7 c9 3c 36 9a 1b bb fd 09 2d 3f
       -0.016198525 0.024631355 -0.002374304 0.67593366
000290 38 09 0b bf dd 12 9a 3e 3a 8c b5 3e 69 fd 9f bd
       -0.5431094 0.30092517 0.35458547 -0.07812006
0002a0 39 dd 2f 3f be 2c c8 bb 50 4e f4 be b4 f5 5b be
       0.68696934 -0.0061088493 -0.47715998 -0.21480447
0002b0 9b 51 b7 bc 1d fd a0 3e a1 6b 4f bc 9d 42 70 3f
       -0.02237778 0.3144311 -0.012659938 0.93851644
0002c0 fb b7 e2 be 8a 0e 03 3f 84 85 62 3e ad 48 c8 be
       -0.4428099 0.5119406 0.22121245 -0.39117947
0002d0 6d 4b ee 3e f6 39 2f 3f aa 16 e7 3d 34 ed 9e be
       0.4654192 0.68447816 0.1128362 -0.31040347
0002e0 4c 68 d4 3e 95 fa a7 bb 47 b1 d5 bd 9d aa e0 bb
       0.41485822 -0.0051263073 -0.104342036 -0.006856276
0002f0 56 23 b3 bd ed d5 34 bc cf 6c 17 bf e9 9c 4d be
       -0.08746974 -0.011037332 -0.59150404 -0.20079388
000300 68 c6 de 3c b3 45 c6 bd f7 bd 0c 3f ae 3a 19 3f
       0.027194217 -0.09681263 0.54977363 0.59855163
000310 09 f6 84 bb 61 6e ec be 7c b4 86 be 2d 61 6e bd
       -0.00405765 -0.46177962 -0.26309574 -0.058198143
000320 ac ca d5 3e ff 6e 8a bd a3 ce b5 3e d6 e1 d3 bc
       0.4175619 -0.06759452 0.35509214 -0.025864523
000330 fa 4c d3 3e 94 2c fe 3e 33 1f a9 3e 42 cf c4 bd
       0.41269666 0.49643385 0.33031616 -0.09609844
000340 5d 1a 83 be 74 90 ba 3e 8e 64 08 3f 8d 24 1d bb
       -0.2560605 0.36438334 0.53278434 -0.0023978085
000350 77 6a bf bb 34 0d b9 bb 48 99 28 be 8f db 30 bd
       -0.005841549 -0.005647326 -0.16464722 -0.043178137
000360 14 d9 70 3d 3a 72 15 bc 53 6f b3 3e 17 08 df bd
       0.05880077 -0.009121472 0.3504587 -0.10890215
000370 83 08 39 bb a0 3e 06 be 46 d8 d9 be 4b 11 b4 be
       -0.0028233833 -0.13109827 -0.42547816 -0.35169443
000380 e6 ea 07 bc ff e8 eb be e3 20 c0 bb 86 be 80 3f
       -0.00829575 -0.460762 -0.0058632954 1.0058143
000390 4d a6 fb 3d c7 ca 13 bb 4c 91 bd be 88 2b bb bb
       0.12287579 -0.0022551285 -0.37024915 -0.0057119764
0003a0 12 cb 18 3f 43 85 2d be 38 2f 86 3e 60 d7 05 bf
       0.5968486 -0.16945367 0.262079 -0.5228176
0003b0 e2 40 e1 bc 2f 8e 09 bf b0 43 7b be 18 b0 af 3b
       -0.027496759 -0.5373258 -0.2453754 0.005361568
0003c0 92 1e 46 be 16 6d c1 3e 39 79 0a 3f 2a 48 7d bf
       -0.19347599 0.37778538 0.5409122 -0.9893824
0003d0 d8 ef 9f 3d c0 4b 34 ba 99 78 10 bf ad 56 2e 3f
       0.078094184 -0.00068777427 -0.5643402 0.68101007
0003e0 6d dd 03 3f 0c c7 69 bb 50 87 1d bf 58 45 a6 be
       0.51509744 -0.003567162 -0.61534595 -0.3247478
0003f0 23 86 e4 3e c8 c4 c8 3e 1f 48 67 bd fa e5 25 bf
       0.44633588 0.39212632 -0.056465264 -0.6480404

weight f4 [160, 256, 4, 1]
000000 e8 03 e9 bc 5b 00 c4 3c 23 e2 cf ba c6 ad 67 3c
       -0.028444245 0.02392595 -0.0015860241 0.014140552
000010 fe bb cb 3d f8 bf 45 3a 7d 54 b0 3d 13 4f 8a 3a
       0.09947966 0.0007543559 0.08609865 0.001055213
000020 01 59 8f 3d cd 65 d1 3c 98 ff be 3d e1 7b 4c 3c
       0.06999398 0.025561238 0.093260944 0.012480707
000030 c8 e0 a7 3d cd 95 68 3b 33 83 b0 3d 88 fb 22 3d
       0.081971705 0.003548968 0.08618774 0.03979066
000040 9d 88 57 3d 88 a7 19 bc 98 e9 93 3d 5b 99 f8 3c
       0.05262052 -0.0093783215 0.07222289 0.030346563
000050 43 aa 5e be 1c 15 81 3d 94 ee 9c be 4c 61 2c 3d
       -0.21744637 0.063028544 -0.3065077 0.042084977
000060 30 8f 24 3e 30 f8 b0 be 4b b7 79 3e 77 1d 07 be
       0.16070247 -0.34564352 0.24386327 -0.13194834
000070 fa 2c 8b 3c 6c 68 14 3d 03 fb 4c 3d 99 3f 03 3c
       0.01698922 0.036232397 0.05004407 0.008010768
000080 43 cc aa 3d 4c 66 0a bc 5d 36 01 3e 8a 0e 8b bb
       0.08339741 -0.008447241 0.12618394 -0.0042436766
000090 b5 1e 06 bf f1 36 b5 3e da b8 a8 bf 25 bb 2c 3e
       -0.52390605 0.3539348 -1.3181412 0.16868265
0000a0 fa 8e 18 bd fc 2e 9f 3c 0c 07 c2 bc ec 94 e8 3c
       -0.037245728 0.019431584 -0.023685 0.028391324
0000b0 72 a8 89 be 45 f7 17 3e 35 c9 db be 5b 5c a0 3c
       -0.26886326 0.1484042 -0.42926946 0.019575289
0000c0 c8 f3 98 be 42 2f 2e 3e bc ca 1a bf b5 41 45 3d
       -0.2987349 0.17010215 -0.604656 0.048158366
0000d0 c3 6b 06 bf 57 84 9f 3e 08 07 9c bf 80 6d 44 3e
       -0.5250818 0.31155655 -1.2189646 0.19182396
0000e0 3a 60 83 bd 69 84 9d bb 40 ca b8 bd 8e af 84 bd
       -0.06414838 -0.0048070443 -0.09022951 -0.06478797
0000f0 f8 8b 64 3d 16 ad a3 bc 42 06 fb 3d 30 c3 12 3d
       0.055797547 -0.019979995 0.12257053 0.035830677
000100 80 5f a1 3d b7 7d 2c 3d cb 93 14 3d d1 fc 26 3d
       0.07879543 0.04211208 0.03627376 0.04076845
000110 95 40 1e 3f 4e 98 8e bf ad 83 5c 3f 23 f3 4f be
       0.61817294 -1.114023 0.8613842 -0.20307593
000120 30 9e 82 3d 90 23 83 be d5 f4 3f 3e 88 f8 ef bd
       0.06377828 -0.2561307 0.1874574 -0.117173254
000130 38 e0 a4 3e 0e cb 01 bf 15 23 02 3f 81 cd 0a be
       0.32202315 -0.5070046 0.5083478 -0.13554956
000140 94 9e 44 be 7c 65 92 3d c1 57 a9 be 07 ce 1e 3d
       -0.19201118 0.07148263 -0.33074763 0.0387707
000150 23 f5 aa be e6 18 a4 3e c1 d2 69 bf c3 5d ba 3d
       -0.3339015 0.32050246 -0.9133721 0.09099915
000160 dc 7a 16 bd 80 a2 e6 bd 49 9b 8d 3c 20 9b d0 bd
       -0.03673826 -0.11261463 0.01728596 -0.10185838
000170 27 34 94 3d 5a ad 86 bc e0 95 03 3e a9 d1 a2 3a
       0.0723651 -0.016440082 0.12850142 0.0012422103
000180 83 7b 28 3e b8 c8 76 be e1 0d 55 3e 41 89 00 be
       0.16453366 -0.24100006 0.20806076 -0.12552358
000190 b7 ff a8 be 74 bf 39 3e 49 db 0d bf 23 c4 4a 3d
       -0.33007595 0.1813944 -0.5541273 0.049503457
0001a0 56 a0 46 3d 2b ff 07 bd b3 0e a2 3d fa d3 b1 bb
       0.048492752 -0.03320233 0.0791296 -0.005426881
0001b0 6b f6 80 3d 5c b9 a2 3c bf 4d fe 3d 05 5e 24 3d
       0.062970005 0.019863777 0.12417173 0.040128727
0001c0 ce 2d af bc 97 d4 dd 3c 59 09 63 3c 83 e2 00 3a
       -0.021384146 0.02707891 0.013857209 0.00049165654
0001d0 5f e2 91 3e d4 2d 0f bf 61 48 d6 3e 25 05 1b be
       0.2849302 -0.55929303 0.41852096 -0.15138681
0001e0 53 0a 99 3e 93 96 16 bf ad 17 e4 3e 2e ee 14 be
       0.2989069 -0.5882351 0.44549313 -0.14543983
0001f0 62 1f 2a be c1 50 1c 3f db eb 88 3f d5 0f 47 be
       -0.16613534 0.6106072 1.0696977 -0.19439633
000200 55 55 c6 be 21 61 fa 3e 55 54 8e bf 47 f4 b6 3e
       -0.38736978 0.48902228 -1.1119486 0.35733244
000210 db 16 f4 3e e0 a7 07 bf f6 07 a6 3f 42 62 1d bf
       0.47673687 -0.5299053 1.297118 -0.61478055
000220 f2 54 68 3d cf 38 3d bd 1c 8e cd 3d 6a 38 35 bb
       0.056721635 -0.046196755 0.10036871 -0.0027652034
000230 46 76 c5 3d 52 00 ea bc b2 bd 33 3e b3 2e 8b 3c
       0.096416995 -0.028564606 0.17552832 0.016990041
000240 e5 66 48 bc fc 42 9e 3d c4 e0 81 bd a8 43 48 3d
       -0.012231563 0.0772762 -0.06341699 0.048892647
000250 5a 22 4a 3c 3f 2e 9f ba d0 55 81 3d 7b 59 15 3d
       0.012337292 -0.001214452 0.063151956 0.03646229
000260 80 1a e1 3d b6 85 49 bd c4 2d 0f 3e 6f 5e 8e 3c
       0.109913826 -0.049199782 0.13982302 0.017379014
000270 06 99 5d 3c e1 1b 90 3d 15 81 65 3c 95 28 9e 3c
       0.013525253 0.070365675 0.014007826 0.01930646
000280 ae b6 33 3f f3 31 91 bf f8 08 8d 3f 64 2a 81 be
       0.7020062 -1.1343368 1.1018362 -0.25227654
000290 17 e2 d8 bc 82 f5 4b bd 4a 00 99 bc 4d 2d 63 3c
       -0.026474996 -0.04979468 -0.018676896 0.013865781
0002a0 7f 61 4b 3e 42 5a 4c be 08 63 b6 3f a8 77 fb be
       0.1986141 -0.19956306 1.4248972 -0.49114728
0002b0 0a 66 ee 3d c6 e6 5d 3c c9 34 d7 3d 54 23 bc 3c
       0.11640556 0.01354379 0.10508115 0.022966065
0002c0 00 31 bc bc fb 70 d4 3c ed a3 fc bc 9a 02 73 3d
       -0.022972584 0.02593278 -0.030839885 0.059328653
0002d0 05 3b ed 3d da fa 76 be a7 59 42 3e 6c ed 2d be
       0.11583523 -0.2411913 0.18979512 -0.169851
0002e0 0b f3 ea be cb f1 01 3f d5 68 a9 bf 06 3b ab 3e
       -0.45888552 0.5075957 -1.3235117 0.3344347
0002f0 76 d9 4e 3d 72 ab 9d bb e5 72 6b 3d d3 16 80 3c
       0.050500356 -0.0048116976 0.05748262 0.015635883
000300 0f 1b dd be c3 82 80 3e 3d 51 6d bf a4 54 3a 3e
       -0.43184707 0.25099763 -0.92702085 0.1819635
000310 ea f2 d5 be c9 c7 71 3e 8b 49 4a bf c5 ba c3 3d
       -0.4178689 0.23611368 -0.7901847 0.09557108
000320 62 b4 63 3d 1a 0d fa ba 3d 13 9d 3d 05 94 8a 3b
       0.05559195 -0.0019077391 0.07669685 0.004229071
000330 e6 c5 44 be 44 89 af 3d 01 fe a6 be 19 b7 52 bb
       -0.19216117 0.08571103 -0.32615665 -0.0032152592
000340 4a 3a 08 bf 72 10 ba 3e 8d 7e a9 bf 76 f0 51 3e
       -0.5321394 0.36340672 -1.3241745 0.20501885
000350 df 27 03 bf 26 41 e5 3e ca 46 ad bf 52 55 87 3e
       -0.51232713 0.44776267 -1.3537228 0.26432282
000360 6a e7 9a bc 8b 6c 87 bb 30 5d 70 3c 5c c0 53 3b
       -0.018909175 -0.0041328124 0.014670655 0.00323107
000370 8d d1 08 bf 4a 9a 22 3f c2 99 b4 bf a0 a1 c2 3e
       -0.5344475 0.63516676 -1.4109423 0.38013935
000380 f0 2a f5 3e f4 d7 58 bf d9 77 80 3f 3b 27 d4 be
       0.4788432 -0.8470452 1.0036575 -0.4143618
000390 b4 9e a0 3e a9 f3 10 bf 09 5b f2 3e 9c b1 01 be
       0.3137108 -0.56621796 0.4733508 -0.12665409
0003a0 3e 4a 8f 3c 65 9c 51 bd 79 70 ac bc 00 33 81 bd
       0.017491456 -0.05117454 -0.021049725 -0.063085556
0003b0 a0 b5 ec be 2f fa 74 bd b4 1c 6a 3e cb ee 5f 3e
       -0.4623232 -0.059808906 0.22862512 0.21868436
0003c0 be ce a9 3e ef b6 13 bf 05 11 cb 3e ed 5b 49 be
       0.33165544 -0.5770101 0.39661422 -0.19663973
0003d0 b4 ec a1 bc bb 05 e9 3c 0b f5 9b bd cc da 13 3d
       -0.01976619 0.028445115 -0.076150976 0.036097333
0003e0 48 f7 e6 3b c5 a2 36 3c 8f f0 78 3d 29 ce 4d 3d
       0.007048521 0.011147206 0.06077629 0.050245438
0003f0 a6 ad 98 3e 1e 70 1c bf 0b 4a da 3e 5d 3f 34 be
       0.29819983 -0.6110858 0.42634615 -0.17602296

bias f4 [160]
000000 3a 70 8c bd f1 a0 f4 3c cb b0 8d 3e fd e0 30 3e
       -0.06857343 0.0298619 0.27673945 0.17273326
000010 18 31 54 be 7b 23 c0 3b dc 96 4a bd c7 e5 1e bd
       -0.20721853 0.0058636046 -0.049460277 -0.03879335
000020 46 7e df bb 6e 28 2c 3d 0c fa 5e be c6 52 b1 be
       -0.006820473 0.042030744 -0.21775073 -0.34633464
000030 99 6b 3c bd dc cd 5c bd 30 3d 1d 3d 33 06 ca 3d
       -0.04600105 -0.05390726 0.03838843 0.09864464
000040 89 b1 91 3e b1 54 4a bd 9f 4e cd 3d 71 b4 a9 bd
       0.2845576 -0.049397174 0.100247614 -0.082863696
000050 80 ab b3 bd 78 5a 3a bd c3 8f 88 bd ce 8c c0 bd
       -0.087729454 -0.045496434 -0.06668045 -0.09401856
000060 75 52 72 bc 1d e2 77 3d c0 26 53 bd 00 09 2f be
       -0.014790167 0.060518373 -0.051550627 -0.17093277
000070 ff b4 68 be 75 e1 83 3d 74 72 c9 bc 32 8b e1 3c
       -0.22725295 0.06439487 -0.024590708 0.027532194
000080 90 ba c4 3d 22 35 1e be 37 fe 95 3d ff 4e e5 bd
       0.096058965 -0.15449956 0.07323878 -0.11196708
000090 58 95 45 be 59 3a 9b bd f7 43 86 3e fb 9e 29 be
       -0.19295251 -0.07579488 0.26223728 -0.16564552
0000a0 3f 27 8b bd e7 b6 d4 3c 73 65 ee 3e 7a e5 ed 3b
       -0.06794595 0.02596612 0.46561775 0.0072600218
0000b0 50 38 91 b9 d6 93 0b be 1c a2 3d be 07 fe 8f 3e
       -0.0002769851 -0.13630614 -0.18518871 0.28123495
0000c0 0a 03 6f 3d 76 41 b9 3d 45 81 02 3e 01 3f d8 3c
       0.058352508 0.09045689 0.12744625 0.02639723
0000d0 c0 fd 20 bc 93 93 63 bd 58 a9 c2 bd d2 36 d4 bd
       -0.009826124 -0.05556066 -0.09504956 -0.10362019
0000e0 2b 8a 5f 3d f4 25 7c 3e 78 4e a7 3d 02 15 94 bd
       0.054575127 0.24623853 0.081692636 -0.072305694
0000f0 83 12 b9 bc 86 0d a4 3d b1 1f c5 3d 09 6c 7c bc
       -0.022591835 0.08010392 0.09625185 -0.015406617
000100 13 15 0e be 46 be f8 bb 19 e3 11 bd a2 be f2 bb
       -0.13875227 -0.0075910417 -0.035616968 -0.007407979
000110 d9 3e 39 bd 4e 87 76 3d dd 8d 28 bd 65 b7 09 be
       -0.04522595 0.06018763 -0.041150916 -0.13448866
000120 f0 70 13 3e 84 b1 81 3e 74 f0 64 bd df 42 b3 3d
       0.14398551 0.25330746 -0.055893376 0.08752989
000130 18 40 72 bb 48 99 b6 3d fb a0 90 3e c4 76 78 3c
       -0.0036964472 0.08915955 0.28247818 0.015165035
000140 0b 56 85 3e af ec 76 3c 59 a7 a0 3d 00 fc 31 be
       0.26042208 0.015071078 0.07844419 -0.17381287
000150 00 82 68 be f0 a2 af bd 85 fd 8b bd b7 0d e5 bc
       -0.22705841 -0.08576 -0.068354644 -0.027960641
000160 a4 51 90 bd fe b4 15 be da 9e c6 3d a1 f2 87 3c
       -0.07046822 -0.14619824 0.09698267 0.016595187
000170 eb e0 11 be b3 42 a1 bd 25 7c 03 3e 50 34 9c 3d
       -0.14245956 -0.0787405 0.12840326 0.07627165
000180 6e 1c b5 bc df 4d 10 3d 5d bf d3 bd c8 11 95 3c
       -0.022108283 0.035230514 -0.10339234 0.018196955
000190 57 dc f8 3b 6a 9d 67 bd 14 53 a5 bc 03 af 60 bd
       0.007594626 -0.056546606 -0.020181216 -0.054854404
0001a0 5a 4e 96 3d 6f c3 9f 3c 99 d6 fc bc f0 99 94 3d
       0.07339163 0.01950237 -0.030864047 0.07255924
0001b0 be c5 de bd 36 c3 e8 bd e8 9c 31 bc dc 5c c8 3d
       -0.1087756 -0.113653585 -0.010840632 0.097833365
0001c0 85 75 2c bc d2 e8 48 be 3d 7a 36 bc 28 d0 33 3d
       -0.010526066 -0.19620064 -0.011137542 0.043899685
0001d0 0e 88 50 3c ff b5 1a be 46 cc cd 3d 44 1e c1 bb
       0.01272775 -0.15108489 0.10048728 -0.0058935005
0001e0 fb 52 f2 bc 13 a0 40 bd e7 20 1a 3d 73 bb 9d 3e
       -0.029580584 -0.04702766 0.037629034 0.30807075
0001f0 04 e4 6a 3d 46 5b 35 be 62 68 d2 bc 70 c4 5b 3b
       0.05734636 -0.177106 -0.02568454 0.0033533834
000200 1a 12 95 3e f9 7b 08 be 87 95 b3 3c 66 e6 00 be
       0.29115373 -0.13328542 0.021921886 -0.1258789
000210 08 da 3c bd cf 43 b5 3d 79 3a ec 3b 30 23 8d be
       -0.04610637 0.08850824 0.007209119 -0.27565908
000220 76 8e 94 bd 64 78 05 bb f9 5e c0 3d 8b a3 f3 3c
       -0.07253735 -0.0020365948 0.093931146 0.02974107
000230 02 70 33 bc e0 26 9d 3d aa d1 c1 bc 7c 4b b8 3d
       -0.010951998 0.076734304 -0.023659546 0.089987725
000240 fa a6 4b be c7 d1 36 bd b6 9a 3f bd 1a 2d 87 bc
       -0.19887915 -0.044633653 -0.046778403 -0.016500998
000250 41 43 26 be 8a 8d 51 bd 7a 62 66 3e a3 47 d4 bd
       -0.16236593 -0.051160373 0.22498503 -0.10365226
000260 3d 82 3b bd ee 85 b0 bc 97 5d a6 bc 5f 83 83 bd
       -0.0457785 -0.021548238 -0.020308299 -0.064215414
000270 1d 31 0f bd d1 34 02 be c1 c4 73 3e 66 f9 c7 3c
       -0.034958947 -0.1271546 0.23805524 0.024410915

weight f4 [64, 160, 1, 4]
000000 c6 35 04 bf dd be f8 be 91 a7 85 3e f2 82 4d 3f
       -0.5164455 -0.48583117 0.26104406 0.8027793
000010 4e c7 f8 3f c0 b0 6f 3f 4d 1c 35 3f 95 c1 23 40
       1.9435823 0.93629074 0.7074631 2.5586903
000020 06 b0 98 bf b3 e3 ab bf 2e 70 68 bf a1 68 97 bf
       -1.1928718 -1.3428863 -0.9079617 -1.1828805
000030 95 5a 9a bf e2 4e a9 bf 44 5a 4f bf 88 8e 94 bf
       -1.2058893 -1.3227198 -0.8099711 -1.1605997
000040 6c 47 da 3e 63 35 3e 3f b7 f1 19 3f 54 03 3c 3f
       0.42632616 0.7430021 0.6013445 0.7344258
000050 5c 7f 95 3f 93 75 30 3f f7 b1 a5 3d 04 1f d2 3f
       1.1679492 0.68929404 0.08090585 1.6415715
000060 98 b6 8f 3e 34 cd 89 3e 37 50 f4 3e 1e ae bb 3e
       0.28068995 0.2691437 0.4771745 0.36656278
000070 29 2b 2a 3e 18 f1 1a 3e a8 aa 93 3e 25 bd 88 3d
       0.16618027 0.15131032 0.28841138 0.066767015
000080 79 f7 0d 3e c6 9d ac 3e 21 8a 8b 3e 9d 62 04 bf
       0.13863935 0.33714122 0.27253821 -0.5171297
000090 64 55 ff bf ff 55 17 c0 5f 75 03 3d 6e 02 86 3f
       -1.9947934 -2.3646238 0.032094356 1.0469491
0000a0 28 5b a3 3e 7e f9 de 3e 0e 49 a2 3e 87 e6 0c 3f
       0.31905484 0.43549722 0.3169636 0.55039257
0000b0 be 96 3c bd a6 7b 2e bf ac 52 3f 40 2c 69 ed 3f
       -0.046042196 -0.6815742 2.989421 1.8547721
0000c0 ac 46 57 3e 2d 79 5f 3e 8e a2 86 3e 53 33 9b 3e
       0.21023053 0.21823569 0.26295894 0.30312595
0000d0 ed 07 e4 3f 31 bd bb 3f 67 46 0d 3f c6 a5 b3 3f
       1.7814919 1.4667112 0.5518555 1.4034965
0000e0 8f 61 2d bf 3c 8e 4f bf 68 78 f5 be 87 6c 7b bf
       -0.6772699 -0.8107641 -0.47943425 -0.98212475
0000f0 dc 1a 54 bf d1 3e 82 bf f2 73 93 bf fc b2 cf bf
       -0.82853484 -1.017542 -1.1519759 -1.6226497
000100 72 00 98 bf 45 69 ab bf e0 ae 66 bf 7a 02 95 bf
       -1.1875136 -1.3391501 -0.9011059 -1.1641381
000110 1c 04 a3 3e 4f f7 88 3e 20 1a d2 3e 0d ec 92 3e
       0.31839073 0.2675118 0.41035557 0.28695717
000120 b5 2c d6 be 3e 5b 85 be 31 e0 08 bf 22 bf 6d be
       -0.41830984 -0.26046175 -0.5346709 -0.23217443
000130 89 0e 5f 3e 6a 34 1e 3e 42 6f 94 3e a3 b9 de 3d
       0.21782888 0.15449682 0.28991133 0.10875251
000140 51 1b 04 40 cc 3b 0c 3f 6b de 03 40 29 fb dc 3f
       2.0641673 0.5477874 2.0604503 1.7264148
000150 3b e0 d6 bf 3b 67 d0 bf b0 ad 4a c0 b2 79 74 3f
       -1.678718 -1.6281503 -3.166851 0.9549819
000160 ac 46 fd bf f4 6b bd 3e 86 8a da 3e bd 50 4e 3f
       -1.9787192 0.36996424 0.4268381 0.80591947
000170 82 19 be 3c f9 45 51 3f b4 f9 14 bc 18 49 d7 3e
       0.023205522 0.81747395 -0.009092737 0.42047954
000180 5a 52 d8 bf 31 b1 3b bf d5 e4 2c bf a7 03 88 3f
       -1.6900132 -0.7331725 -0.6753667 1.0626115
000190 cb 72 40 be bd 15 d7 bd cc ce 90 3d 98 9b 3e be
       -0.1879379 -0.10502193 0.070706934 -0.18614042
0001a0 71 10 26 3f 24 a3 5b 3e b7 81 fa be 61 ee c4 3e
       0.6486884 0.21448952 -0.4892709 0.3846312
0001b0 0e 45 cb 3e d6 ee a1 3d 08 df cd 3e e8 af f3 3e
       0.39701122 0.079068825 0.40209222 0.47595143
0001c0 59 d5 fd 3e 90 5e 0c 3f 8b 6f ad 3e 2b a6 8a 3f
       0.49576834 0.5483179 0.33874163 1.083196
0001d0 d4 e5 ba be 43 50 8f be 91 a4 01 bf 7a 48 8f be
       -0.3650347 -0.27990922 -0.50641733 -0.27984983
0001e0 2e 8a 32 be 3d 50 28 3d b3 00 40 be 19 05 b2 3e
       -0.17435524 0.041092146 -0.18750267 0.34769514
0001f0 6f b4 f0 bf de b0 77 bf c4 9f 15 3e 9f 97 ab bf
       -1.8805064 -0.9675425 0.14611727 -1.3405646
000200 63 a6 da be 4f 4b 9e be 5d 12 0d bf 4d f9 8b be
       -0.42705068 -0.3091683 -0.55106145 -0.2733864
000210 c4 75 23 3f 1c 69 5c 3f ed fe 4e 3f a7 52 b8 3f
       0.6385157 0.86097884 0.80857736 1.4400223
000220 03 1c 83 bf 0f fb 5c bf 3a 20 9a bf c0 83 6c bf
       -1.0242923 -0.86320585 -1.2041085 -0.92388535
000230 3a d0 3c 3e 2a d2 71 3d 7a b0 8a 3e 38 63 cd 3d
       0.18438807 0.05903832 0.27087766 0.1002869
000240 31 6d 62 3e a0 d8 cc 3e d9 95 84 3e 60 b3 33 3f
       0.22111966 0.40009022 0.25895575 0.7019558
000250 e6 a1 c3 3e c6 ac 5c 3e 2e 04 03 3f 79 8c c4 3e
       0.38209456 0.21550283 0.5117825 0.38388422
000260 6f 6f 98 bf 28 0a a9 bf c2 62 63 bf df f9 92 bf
       -1.1909007 -1.3206224 -0.8882257 -1.1482505
000270 b8 4b 30 3f 4e a2 7b 3f d5 d6 ff 3f 77 0a 13 40
       0.6886554 0.9829453 1.9987437 2.2975137
000280 a8 ad 13 bf 54 59 21 3d a3 a6 28 be cd 8f 25 3f
       -0.57686853 0.03939183 -0.16469817 0.6467255
000290 94 cc 48 3e b4 1f 5b 3e 05 4f 85 3e 62 f5 85 3e
       0.1960929 0.21398813 0.2603685 0.26163775
0002a0 27 b1 84 bf cd 99 80 bf c2 d6 8b bf a0 95 7a bf
       -1.0366563 -1.0046936 -1.0924914 -0.9788456
0002b0 a4 7a 09 3e 33 ec d4 3d 7e 23 14 3e e9 bd c3 3d
       0.1342569 0.10396614 0.14466664 0.09557707
0002c0 53 b5 fd bf 9e b7 ee bf ea c7 9f bf 8f 6c 0b 3f
       -1.9820961 -1.8649786 -1.2482884 0.5446252
0002d0 40 1b 06 c0 9f fa 34 bf c9 37 a6 bf 66 d0 f5 3e
       -2.0954132 -0.7069492 -1.2985774 0.48010558
0002e0 b8 98 51 3e 85 a9 27 3f 11 6f c1 3e e7 48 88 3e
       0.20468414 0.6549304 0.3778005 0.2661812
0002f0 f5 ce 99 bf 76 b5 a4 bf 6c 00 5c bf d5 44 95 bf
       -1.2016283 -1.2867877 -0.85938144 -1.1661631
000300 20 86 4f bf 06 ea 7c bf ac d3 56 bf 18 03 7c bf
       -0.81064034 -0.9879459 -0.83916736 -0.9844222
000310 61 03 e4 be 8b 2f 9e be c7 dd 0d bf 4a 9a 8a be
       -0.44533828 -0.30895647 -0.5541653 -0.27070838
000320 f4 a4 ed be 67 24 96 be df 44 0b bf e5 3c a0 be
       -0.46414912 -0.29324648 -0.54401964 -0.3129646
000330 76 9b 74 3e e3 5b 11 3e eb ed 69 3e 90 cd b0 3d
       0.23887429 0.14195208 0.22844665 0.08632958
000340 81 53 02 be e7 7b 5e be 45 6b 11 3e fc dd 4f be
       -0.12727167 -0.21726952 0.14201076 -0.20299524
000350 05 1b 08 bf d8 08 1f bf 78 4e 6c 3f 36 1f 14 3f
       -0.5316623 -0.6212287 0.92307234 0.57860124
000360 e1 01 aa 3e 1f 35 d8 3e bb 10 c0 3e db 6b f5 be
       0.33204558 0.42228028 0.37512764 -0.4793385
000370 5a c9 2a 3d 14 3f a4 3c 60 aa b7 bf 3d 2b f6 3e
       0.04169593 0.02004961 -1.4348869 0.48079863
000380 8e 93 2f 3e 41 7d 62 3f 91 25 3c 3f de a7 4f bd
       0.17146131 0.8847237 0.7349482 -0.0506972
000390 ea e2 9e bf 3a d2 a9 bf 96 77 61 bf 87 5f 96 bf
       -1.2412999 -1.3267281 -0.880731 -1.1747903
0003a0 72 de dc be 3e fa a4 be e9 1d 00 bf 90 5a 96 be
       -0.43138462 -0.3222217 -0.5004564 -0.2936597
0003b0 ae 10 8d 3e ef 4e 50 3e 7d 81 b0 3e d9 ef 3d 3e
       0.27551788 0.20342611 0.34473792 0.18548526
0003c0 89 7c 18 be 89 c0 ca bd 6e bf c2 3d 94 37 a1 be
       -0.14891256 -0.099000044 0.095091686 -0.31487715
0003d0 b9 9c cb be eb bd 8b be f5 81 02 bf ed 40 88 be
       -0.39768007 -0.27293333 -0.5097955 -0.26612034
0003e0 0e 96 d0 bf 0d a8 fd bf a9 9a 95 bf 59 27 58 bf
       -1.6295793 -1.981691 -1.1687824 -0.8443504
0003f0 b1 33 55 be f7 5c 39 be 07 a4 41 3e 34 53 48 be
       -0.208205 -0.1810187 0.18910228 -0.1956299

bias f4 [64]
000000 5e 24 3d bf a1 29 d8 bb 8a 19 a8 bd 04 d3 1f be
       -0.73883617 -0.0065967594 -0.08207996 -0.1560784
000010 2d 6d de bd e2 52 dc 3d 6f 26 cb 3c 0f ce ef 3d
       -0.108606674 0.10757996 0.0247986 0.117092244
000020 55 cc f3 3d b5 cd dd bc 40 d4 46 bf a4 f0 dc 3d
       0.119042076 -0.027075628 -0.7766762 0.10788086
000030 23 45 1b be 4f 5d e5 bd 3b 27 04 3c 27 44 2b 3d
       -0.15163092 -0.11199438 0.008065994 0.041813042
000040 7a d3 07 bd 87 bf 9c 3d 64 92 c6 3d a0 9f 9a bc
       -0.033160664 0.076537184 0.096958905 -0.018874943
000050 34 28 87 bd 99 39 af 3e 68 05 86 3d d8 5e d0 be
       -0.06599465 0.3422363 0.06544 -0.4069736
000060 55 43 f2 3c e1 15 43 3b 8b a6 ec 3c e0 5a 89 bf
       0.029573122 0.002976768 0.028888008 -1.0730858
000070 60 c8 cb bd 7d 98 b4 3d a7 ce eb 3d 42 fc 0d be
       -0.09950328 0.08818147 0.11514025 -0.1386576
000080 93 d0 d8 bd c5 53 3e 3c 27 45 a4 3c f2 1e da bd
       -0.105866574 0.011616652 0.020052506 -0.106504336
000090 2e 95 df 3d 67 bd cc 3d 0e a2 8f bb b0 d2 97 3e
       0.10917126 0.09997063 -0.004383332 0.2965293
0000a0 79 2f 2e bd 02 ff a8 b9 2e 45 9e bd cf 55 36 be
       -0.042525742 -0.00032233453 -0.07728039 -0.17806171
0000b0 11 73 90 bc b7 ab 69 bf 08 1a 17 3f be 86 1a be
       -0.017632993 -0.9127764 0.59024096 -0.15090463
0000c0 c5 14 48 3f 3b 0c ea 3d ce 88 07 bf 59 cd 1c 3d
       0.7815669 0.11428114 -0.5294312 0.038281772
0000d0 c7 01 10 3d 7a e1 04 be f5 81 ea 3d 29 7f 32 bd
       0.035157945 -0.12976637 0.114505686 -0.0435783
0000e0 13 fc 17 3e 51 e5 ee 3a 44 6a 59 3e da 41 33 bf
       0.14842252 0.0018226301 0.21231943 -0.70022357
0000f0 f1 63 bf 3c 43 20 02 3c b6 d9 9a be e9 50 83 bf
       0.023363085 0.007942262 -0.30244225 -1.0259067

beta f4 [64]
000000 e0 32 7d 3f 51 9c b2 3f ba 05 98 3f 75 9b fe 3f
       0.98905754 1.3953954 1.1876748 1.9891192
000010 4a da a3 3f 72 3e c7 3f 1c c0 c1 3f b9 f8 a0 3f
       1.2800992 1.5565932 1.5136752 1.2575904
000020 eb 88 a0 3f 74 db 9b 3f d0 d8 8e 3f fc 6e 92 3f
       1.2541784 1.2176347 1.1159916 1.144012
000030 3a 87 92 3f 2c b8 10 3f c9 dd 07 40 6e a5 a3 3f
       1.1447518 0.56531024 2.1229117 1.278486
000040 bc b6 95 3f 45 07 f9 3f a9 17 dc 3f fb 9d ae 3f
       1.1696391 1.9455343 1.719472 1.3641962
000050 a1 ed 88 3f 75 9c 9f 3f 40 70 95 3f 14 59 04 40
       1.0697519 1.2469622 1.1674881 2.067937
000060 d2 78 14 3f 9e 7f bc 3f 8d 38 9d 3f 5a 3d 82 3f
       0.5799686 1.4726446 1.2282883 1.0174973
000070 10 aa ab 3f 20 d9 a4 3f 90 d2 a0 3f 99 ba ec 3f
       1.3411274 1.2878761 1.2564259 1.8494445
000080 ee 08 30 3f d3 e9 e0 3f 70 e6 f8 3f eb 86 a9 3f
       0.68763626 1.7571357 1.9445324 1.3244299
000090 f5 c5 c8 3f a8 ef c3 3f 1a 5d 8e 3f c6 fb c3 3f
       1.5685412 1.5307512 1.1122162 1.531121
0000a0 57 50 af 3f 82 05 a8 3f db c4 a6 3f 87 c6 9e 3f
       1.3696393 1.3126681 1.3028826 1.2404336
0000b0 06 36 af 3f 0e c9 9a 3f 73 65 8d 3f 31 43 9b 3f
       1.3688362 1.2092607 1.1046585 1.212988
0000c0 72 c1 8c 3f d6 aa b2 3f 7e 91 a8 3e 97 c4 ea 3f
       1.0996535 1.3958385 0.32923502 1.8341244
0000d0 ee 64 88 3f e2 80 4a 3f 21 de a0 3f 6a c4 f5 3f
       1.0655801 0.7910291 1.2567788 1.9200566
0000e0 b7 89 89 3f 33 28 08 40 96 b7 9a 3f 01 89 66 3f
       1.0745152 2.1274536 1.2087276 0.900528
0000f0 80 f7 8f 3f 2a b3 2b 40 0f ab ad 3f 78 38 84 3f
       1.1247406 2.6828103 1.3567828 1.0329733

gamma f4 [64, 64]
000000 76 04 27 3f 32 92 c4 38 48 82 41 ba 1e dd dd bc
       0.6524118 9.373239e-05 -0.0007381779 -0.027082976
000010 a4 60 02 bc aa 1d f8 3f a8 6d 3d bc b9 55 ea 3f
       -0.007957611 1.9384053 -0.011561789 1.830741
000020 31 bf 04 40 7c 47 12 ba 77 25 9c 3c 88 2c 6b 3b
       2.0741694 -0.000558011 0.019060833 0.0035884697
000030 33 fe f6 ba 39 48 14 bb 59 40 bd bc 34 ab 41 37
       -0.0018844068 -0.0022626056 -0.023101972 1.1543558e-05
000040 64 9e 95 bb b8 85 03 40 23 0a c5 3f 24 d4 9a bb
       -0.004566001 2.0550365 1.5393718 -0.004724996
000050 22 4e 7b bc 84 18 95 3b c5 78 47 bc 7a f4 31 37
       -0.0153384525 0.0045500416 -0.01217479 1.0606944e-05
000060 87 92 d7 bc b0 7b a4 bc 9b a0 26 3e 9d 13 44 bc
       -0.026314987 -0.02007851 0.16272204 -0.011967567
000070 1a bb d2 bb 04 b8 d1 3f 84 0f 02 3f 3d a8 1d bc
       -0.0064309957 1.6384282 0.50804925 -0.009622631
000080 7b 4d 18 bd 03 de 8c 3f 31 34 05 bc 52 6a 67 bb
       -0.037183266 1.1005253 -0.008130119 -0.0035311175
000090 6f 1c 2f bc 2e 18 90 3f 9a 02 0b b9 15 94 ba 3e
       -0.010687931 1.1257379 -0.00013257042 0.36441103
0000a0 ac 55 43 bc 1b 65 1d 3e d0 ed 1e bb c9 c3 a3 b9
       -0.011922281 0.153706 -0.0024250634 -0.00031235654
0000b0 a8 56 d5 ba 96 96 a4 38 b7 c4 db 3f ca 56 40 ba
       -0.0016276436 7.848178e-05 1.7169408 -0.00073371513
0000c0 8a 7a b0 36 95 b2 2f 3f fe bc 95 37 e9 6a 2b 3b
       5.259474e-06 0.6863187 1.785019e-05 0.0026156253
0000d0 19 1a 80 36 5a fa fe 3c a1 fd 05 39 2b 0d b9 3f
       3.8177354e-06 0.031125236 0.00012778353 1.4457144
0000e0 b3 24 12 3f 1d 45 8d 3c 98 89 b6 3b b8 3c 77 ba
       0.5708725 0.01724487 0.0055706017 -0.000943135
0000f0 1f ea 26 bc 44 f3 19 40 5e 3c 71 bb 00 e2 01 38
       -0.010187655 2.4054728 -0.0036809663 3.0966476e-05
000100 9a 9f a4 3b 48 98 c5 35 e2 a3 1a bb 61 72 aa bb
       0.005023909 1.4721963e-06 -0.0023596217 -0.0052016233
000110 24 ff 09 bc 30 d4 a9 b9 37 0b 86 ba f0 9f a3 bb
       -0.008422647 -0.00032392284 -0.0010226731 -0.0049934313
000120 a9 08 33 3c 2b 00 90 bc ee ae 59 bb c3 a3 af b9
       0.010927358 -0.017578205 -0.0033215838 -0.00033500613
000130 33 27 38 b9 c3 8c 21 bc 0f a2 01 3f 57 f4 da 3e
       -0.0001756221 -0.00986022 0.50637907 0.42764542
000140 72 af d1 3f 95 f4 f1 3d ec 62 bd bc 85 30 a1 bc
       1.6381667 0.118142284 -0.023118459 -0.019676456
000150 f9 1f 8e b9 4a d1 24 bb f8 6e dd bb 5c f6 eb 3e
       -0.00027108172 -0.002514916 -0.0067576133 0.46086395
000160 67 43 a0 3e d7 37 76 bb 3f 88 84 ba 63 73 08 3f
       0.31301424 -0.0037569904 -0.0010111405 0.53301066
000170 ee 36 4d 37 fd fe 57 37 d1 d6 9e bc e3 b4 ba 36
       1.22317415e-05 1.2874368e-05 -0.019389542 5.56429e-06
000180 2b bd 7c 36 a5 5b 89 ba 13 7d 56 37 e5 13 ac bb
       3.7661036e-06 -0.0010479583 1.2784515e-05 -0.005251395
000190 0c b8 39 3d 7f 83 5b b9 db fe bd 37 1f 57 2d 3f
       0.045341536 -0.00020934454 2.2649232e-05 0.6771106
0001a0 00 f2 32 bb 21 cf c8 37 14 7f ef bb 28 31 5d 38
       -0.0027304888 2.393831e-05 -0.00730885 5.2736286e-05
0001b0 fc d3 11 3d 7f 9f af ba e4 df b4 bb ad 46 0e 3c
       0.035602555 -0.0013398974 -0.005519854 0.008683843
0001c0 1c c0 82 3c c6 d2 7f 3d 19 11 09 bc 7d b5 1c 3f
       0.015960746 0.06245687 -0.008365893 0.6121443
0001d0 0d 4b 61 38 b8 86 5d bb 03 b8 2e ba 1a 6d 04 b9
       5.3714077e-05 -0.0033802222 -0.0006664993 -0.00012629144
0001e0 f3 78 3c bc 20 21 88 3f c4 31 b7 bb 74 3d 09 bc
       -0.011503446 1.0635109 -0.0055906493 -0.008376468
0001f0 a3 13 3c b8 b6 cc 95 3d 7b 20 00 37 9a 28 9b b8
       -4.484098e-05 0.07314436 7.636957e-06 -7.3985386e-05
000200 13 61 a5 36 cd f4 31 3a 35 0b c6 3e 2c 1f 02 37
       4.928684e-06 0.00067884923 0.38680425 7.755862e-06
000210 fc 3f 16 bc a5 18 6a bc 4e ce f2 3c 51 17 91 bc
       -0.0091705285 -0.014288102 0.02963939 -0.017711313
000220 75 7f 2d bb 60 70 62 3b 8a 37 48 37 d4 6e c1 bc
       -0.0026473675 0.0034551844 1.193386e-05 -0.023612417
000230 4c 62 9a 36 0f e6 8a 3f 15 33 86 ba cf fd 43 bc
       4.601001e-06 1.0851458 -0.0010238612 -0.011962368
000240 88 82 c6 b9 8c c4 a5 ba be bf 5f b7 e3 99 da bc
       -0.00037862756 -0.0012647077 -1.3336479e-05 -0.026684707
000250 80 6b 6e 3e a4 e6 9a 3d 62 a5 c8 ba c5 0a 61 bb
       0.23283195 0.075635225 -0.0015308077 -0.0034338695
000260 aa ab 8a ba b8 05 85 bb 64 23 74 b8 ba 3a 75 36
       -0.0010579724 -0.0040595196 -5.8207093e-05 3.6542028e-06
000270 d1 f2 da bc 72 3a ad bb ca 2b 4e bc b7 6c bd 36
       -0.026727112 -0.0052865082 -0.012583682 5.645295e-06
000280 af eb e9 3e 88 bd ac bc ea 31 a1 37 35 d7 ae 36
       0.45687625 -0.02108647 1.9215939e-05 5.2106575e-06
000290 8c 1c 80 bb e0 bc 9a bb 6b 4b be bb aa 5a 21 bb
       -0.003909653 -0.0047222227 -0.0058073304 -0.002462069
0002a0 1b bb 19 bc 06 8b 5e bc 05 3c 0d 39 c3 f2 23 37
       -0.009382988 -0.01358295 0.00013469167 9.7720795e-06
0002b0 e1 08 8a bb 85 bb d9 36 e8 6b f9 ba 53 e2 c9 36
       -0.004212484 6.488934e-06 -0.0019029351 6.0166144e-06
0002c0 b1 be cb b6 9c 0c fa 3c 0d 32 1e bb c9 34 16 ba
       -6.072071e-06 0.03052359 -0.002413872 -0.00057299115
0002d0 9d d2 35 bb 30 aa 9a 36 4a 56 25 37 be b5 b0 b8
       -0.0027743944 4.60937e-06 9.854857e-06 -8.426186e-05
0002e0 ae e3 bf bb ac 15 b2 bb 00 fa ff ba ff ac e6 36
       -0.005855999 -0.0054347124 -0.0019529462 6.8746735e-06
0002f0 84 a4 0b 3e 78 2d a2 bb ee d2 4c 3f 1f 86 ce 36
       0.13636976 -0.004949268 0.80009353 6.154892e-06
000300 1a b6 cc bc 37 a5 f1 ba 4c ee a3 bc 66 4d f7 3d
       -0.024989177 -0.0018436079 -0.02001109 0.120753095
000310 7a ab 9f bb f9 1f 84 bc 94 47 48 bc bd 32 e6 bb
       -0.0048727365 -0.016128527 -0.012224097 -0.0070250914
000320 6d 5c 41 bc 4e 91 ce bc 18 38 14 bc 34 31 1c ba
       -0.011801821 -0.025215771 -0.009046577 -0.00059582596
000330 fa bc 7a bc a3 ee 98 bb f8 a3 b6 bb ef 3b 9c bb
       -0.015303845 -0.0046671196 -0.005573746 -0.004767887
000340 54 b6 ea 3d 8d 05 5f bc e5 0b 2d bc be fe b8 bc
       0.114605576 -0.013612163 -0.010561918 -0.022582408
000350 21 7d c0 bb 38 d6 25 ba 8a 24 58 3e f5 c5 af bc
       -0.0058742915 -0.00063261716 0.21107689 -0.021456698
000360 50 d0 29 ba a8 e9 c8 bc de 4e 2d bc d2 4b 5e b9
       -0.00064778794 -0.024525478 -0.010577885 -0.00021199815
000370 82 2f 4f bc 0c 3b e3 bc 56 8b b8 bb 21 a8 06 b9
       -0.012645604 -0.027738117 -0.0056318445 -0.00012841869
000380 19 11 ba bc 96 e6 6b bc e1 7a 97 bc bd 86 1a 3d
       -0.02271323 -0.014398238 -0.01849121 0.037726153
000390 63 03 af b7 9a 3d 20 bc a5 39 15 bc 70 f3 b2 bc
       -2.0863203e-05 -0.009780312 -0.009107982 -0.021844596
0003a0 b8 23 79 bc d5 f3 15 bc f3 a4 52 bc 48 41 aa bc
       -0.01520627 -0.009152372 -0.01285671 -0.020783082
0003b0 33 db d7 3d 63 f3 2c bc 61 d5 ee ba f5 a7 37 b9
       0.10539856 -0.010556075 -0.0018221551 -0.00017514809
0003c0 c0 80 d4 ba ac 3d b7 bb 55 b3 35 3f 0d eb bf b8
       -0.0016212687 -0.0055920687 0.70976764 -9.151371e-05
0003d0 78 7b ee ba c1 d5 09 bb 0d 5f 8f ba 4e 0f 27 b5
       -0.0018194756 -0.0021031948 -0.0010938362 -6.223462e-07
0003e0 c4 0b de ba 38 75 a7 bc 89 50 af bb 29 12 8b bc
       -0.0016940762 -0.020441636 -0.0053501767 -0.016976433
0003f0 b6 1f 2f 3d 39 57 8d ba c7 9c 11 3f b1 15 d3 bc
       0.04275485 -0.0010783441 0.5687985 -0.02576718

weight f4 [48, 64, 2, 1]
000000 b1 9e bd bd a2 96 49 be 9d c0 9b bd 2d ce 6a 3b
       -0.092587836 -0.19686368 -0.076050974 0.0035828457
000010 2d 02 26 be 4d 68 26 3e df e2 7a 3d ab c6 11 bc
       -0.16211767 0.16250725 0.061251517 -0.008897464
000020 98 67 dd 3b 43 26 86 bc 6b 9f 74 3e e1 31 78 3e
       0.006756734 -0.016375666 0.23888938 0.24237777
000030 17 e2 86 3e f5 c9 ca be e6 33 50 3e 29 60 73 3e
       0.26344368 -0.39607206 0.20332298 0.23767151
000040 23 25 a1 3e 56 ce c5 3e ea c3 17 3e be bb 2f 3e
       0.31473646 0.38633984 0.14820829 0.17161462
000050 fe da 56 be 8d bc 8e bd 7a ad ad bd 30 0d 9a 3e
       -0.20981976 -0.06969557 -0.08480354 0.30088186
000060 87 55 31 be e8 1f 57 3d 40 8b 58 be b2 0f 6a be
       -0.17317782 0.052520663 -0.2114687 -0.2285755
000070 9b d4 a7 bd 6f f9 c1 bd ce b7 82 3e 8b 1e 41 3e
       -0.08194848 -0.09471404 0.25530857 0.18859307
000080 60 b4 d8 bc af c8 ae 3d 5f 84 cb 3d 18 ec 38 3d
       -0.026453197 0.08534371 0.09937357 0.04514703
000090 01 90 b6 3d 99 20 82 3d 99 a6 9d bd 7f 00 05 3e
       0.08914185 0.06353874 -0.076977916 0.1298847
0000a0 31 09 af be 01 fc 9f be 22 bc 82 3e 00 97 1d 3e
       -0.341867 -0.3124695 0.2553416 0.15389633
0000b0 17 97 cb 3e 2a f8 97 3e b8 d8 8d 3d be 1e ab 3e
       0.3976371 0.29681522 0.069261014 0.33421892
0000c0 e3 47 2a be eb 85 59 be 07 d7 46 bf a2 69 81 bf
       -0.16628985 -0.21242492 -0.77671856 -1.0110362
0000d0 12 66 19 be df ae b3 be 60 5b 8e be 03 a1 5b be
       -0.14980343 -0.35094354 -0.2780409 -0.2144814
0000e0 c1 03 bf 3d ae 6f 47 3e fa 1f f2 3d 2b 8f 2a 3e
       0.09326888 0.19476196 0.11822505 0.16656177
0000f0 ee 7c 81 3e 4f e9 b7 3e e9 cf 06 be 98 8a b9 3d
       0.25290626 0.35920188 -0.13165249 0.09059638
000100 34 e2 07 be 63 c6 97 3d 8e a7 15 be be 82 86 3c
       -0.13269883 0.07410886 -0.14614698 0.016419765
000110 2d 16 59 3f ec d2 2a 3f 39 22 a5 be c5 f2 ef bd
       0.8479946 0.6672809 -0.32252672 -0.117162265
000120 00 86 9a 3d ca 53 16 3e bc 74 8f 3d c1 34 4d 3e
       0.0754509 0.146804 0.07004687 0.20039655
000130 41 ec 0e 3f 07 39 e6 3d ff 55 af 3d 77 3f 5c 3e
       0.55829245 0.11241346 0.08561324 0.21508585
000140 f1 db 10 3d 60 4f 2f 3e 3e 46 be bd 4c aa 43 bb
       0.035366002 0.17120123 -0.092907414 -0.0029856144
000150 c6 e3 f2 bd c7 02 3f be 6c 8a 41 be 36 d7 46 be
       -0.118598506 -0.18653403 -0.1890046 -0.19418034
000160 b8 c5 d4 3c 9f 87 3b 3e e6 c1 1c 3f 24 58 3d 3f
       0.025973186 0.18313454 0.61233366 0.73962617
000170 03 5a 5a 3e e9 0f 84 3e fd fc 7f be ff a4 9e be
       0.21323399 0.25793388 -0.24998851 -0.30985257
000180 89 de ce 3d 12 89 63 3e 5e 5c 9c 3e 80 65 74 3e
       0.10101039 0.22220257 0.3053922 0.23866844
000190 0e be 55 be 02 ec 09 be cb a2 55 be 9b 88 63 be
       -0.20873281 -0.13468936 -0.20862882 -0.2222008
0001a0 c5 44 89 3e f1 d9 4a 3d 3b 3c b7 bd 5e 9d 62 3d
       0.2681028 0.04952425 -0.08947035 0.05532586
0001b0 8c 26 26 3e 9a 4c 8d 3e 3a 0d 49 3e 98 2d 80 3e
       0.16225642 0.27597505 0.19633952 0.25034785
0001c0 35 38 cb 3c cd ce 31 3e 09 4a 4b bd 5e 95 1e be
       0.024807075 0.17364044 -0.049631152 -0.15486667
0001d0 6d 21 08 3e d3 d2 87 3e 2b 88 89 be 9d 96 e0 3c
       0.13294001 0.26528034 -0.268617 0.027415568
0001e0 e4 48 5b 3e d1 7e a0 3e b5 8c 8c bd 30 b4 f1 bc
       0.21414524 0.31346753 -0.06862775 -0.029504865
0001f0 a1 6d 8d 3e 7a 4b fe 3d dd 3e 5e be 63 c3 8e be
       0.27622703 0.1241674 -0.21703668 -0.27883443
000200 9e a5 7c 3d 04 4d 98 be ac a5 05 3f 0b 8c 81 3e
       0.061681382 -0.29746258 0.5220592 0.25302157
000210 3c 93 3b 3b e4 04 0f 3e 2e 4e 23 be f1 7d 11 3e
       0.0028621694 0.1396671 -0.15947792 0.14208199
000220 be b3 66 be 2e e7 36 3d 86 1e 5d 3e 54 e1 4c 3d
       -0.22529504 0.044654064 0.21593675 0.050019577
000230 35 b1 13 be 89 7d 3d bf 4f 8b 85 bb 07 8d fe bd
       -0.14423068 -0.74019676 -0.004075445 -0.124292426
000240 a1 b6 29 3e 36 84 d8 3c 7f 7a 90 3e aa 33 22 3e
       0.16573574 0.02643023 0.28218457 0.15840021
000250 d1 33 02 be 22 ad 33 3d 66 86 b1 bc 59 d2 97 bd
       -0.12715079 0.043866284 -0.021670531 -0.074131675
000260 71 bf 9e bb 28 65 d1 3d 66 93 f1 3d 0d d3 a9 3c
       -0.004844599 0.10224372 0.11795692 0.02073052
000270 c1 f9 42 3f da 0d 55 3e 5a a6 a0 3c 43 af 62 3e
       0.76162344 0.20806065 0.019610573 0.2213717
000280 68 ae 7e 3c 21 11 dc 3c 33 bc 13 bd 8f fd 0f 3e
       0.015544511 0.026863636 -0.036068153 0.14061569
000290 80 b3 4e bd 29 f9 d8 bd b4 83 9e bd 18 d1 43 be
       -0.050464153 -0.105943985 -0.07739964 -0.19122732
0002a0 c2 cc 45 3e 4b 65 b7 3e 55 76 83 3d aa 01 a1 bc
       0.1931639 0.35819468 0.064190544 -0.019654114
0002b0 28 7a 63 be a3 d7 86 bd 9a 16 59 3e be 92 8e be
       -0.22214568 -0.06584098 0.21200028 -0.2784633
0002c0 52 d0 d7 3e 43 7f 2c 3d 19 eb 79 3e 14 9f 4c bd
       0.42151123 0.042113554 0.24406089 -0.049956396
0002d0 4f 04 9b be d3 89 1e 3e 1b 6e 8e bb 62 5c 80 bc
       -0.30276725 0.15482263 -0.0043466217 -0.015669052
0002e0 c5 91 5a be 00 bb e2 3d 4d aa be 3e 27 8f 8b be
       -0.21344669 0.11070824 0.37239304 -0.27257654
0002f0 76 b5 7d 3e bb 7b ff bd 28 3e 1e 3d 41 e9 be 3e
       0.24776253 -0.124747716 0.038633496 0.37287334
000300 07 4c a0 3d 42 50 a9 3d 50 a1 5a 3e 91 2b 8a be
       0.07827001 0.08267261 0.21350598 -0.26986364
000310 72 57 58 bf fd 1b 9d bf 21 ae 69 bd 09 5a 4f 3d
       -0.8450843 -1.2274166 -0.057050828 0.050622974
000320 af 70 3b 3e ca 12 11 be b1 3a b3 3c da 05 91 bd
       0.18304704 -0.14167324 0.021878572 -0.07081194
000330 8f 5b 81 be ad d7 42 3e c6 a2 8e be 96 df f4 3d
       -0.25265166 0.19027586 -0.2785856 0.11956708
000340 e2 55 a4 3c 2d cc 63 3c 15 2c 7a 3e 6b 86 f8 bd
       0.020060483 0.01390366 0.24430878 -0.12135013
000350 ba 1a 5c 3e ef 6a 6b 3c 4c 92 19 be ec 12 46 3e
       0.2149457 0.014368757 -0.14997214 0.19343156
000360 f3 cc 12 bf d0 ea 26 3e 7b e7 e6 be 3a 31 2e bc
       -0.5734398 0.16300511 -0.4509848 -0.010631854
000370 1b 22 9c 3b c1 7b f9 bd e6 35 75 be 07 ac 98 3d
       0.004764808 -0.12181807 -0.23946342 0.074546866
000380 5e 87 8d 3c 39 f7 02 bd 3c 74 26 3d 31 5e c1 bd
       0.017276462 -0.03197405 0.040638193 -0.09441794
000390 f8 31 e9 bd 37 01 7c be 66 84 a5 bc 5c 2a 19 bd
       -0.11386484 -0.24609838 -0.020204734 -0.037393913
0003a0 05 fa 79 3b 11 74 2d be 87 ff 47 3e ac 72 0e 3e
       0.0038143408 -0.16938807 0.1953107 0.13910931
0003b0 9c e4 68 3e 17 e7 2c be ae c2 d8 be 52 e4 41 3e
       0.22743458 -0.16885029 -0.4233603 0.18934754
0003c0 d1 f2 f1 3d a2 c0 fb bd dd b4 21 3f 9d 13 34 bd
       0.11813892 -0.12292601 0.631666 -0.043964017
0003d0 45 db 24 3e a0 28 c3 bd d4 aa 86 3d 17 06 33 3e
       0.1609927 -0.09529233 0.06575552 0.17482792
0003e0 50 28 23 3d be fe 52 bf 13 30 3f 3d a9 d9 39 bd
       0.039833367 -0.82419956 0.046676707 -0.045373593
0003f0 bb 47 76 be 7a 6b 40 bd 2b ff e0 bd 24 13 d8 3d
       -0.240508 -0.046977498 -0.109861694 0.10550526
